result/Dliner/classification_CropMapping_t31tfj_2in4Period_0.5train_DLinear/checkpoint.pth (torch, 9111 bytes, 6 tensors)

Linear_Seasonal.weight f4 [10, 10]
0.07613024 0.12049653 0.1653249 0.15357333 0.0115482295 0.004935028 -0.0117919035 0.004597143
0.106031485 0.22589345 -0.07394199 -0.061885465 -0.043216545 0.06441223 0.08569033 0.063194625
0.0709325 0.083295606 0.30851632 0.23877703 0.0010881573 -0.01437493 -0.06845671 0.11532926
0.2098048 0.20260823 0.1997665 0.19884269 0.22591749 0.064733565 -0.06729128 -0.057465523
-0.10949007 0.07801969 0.2534829 0.23095879 0.2184235 0.21812448 0.2753856 0.11785279
-0.08922407 -0.10346096 -0.18310125 0.097742476 0.3497326 0.34958106 0.36245435 0.3470138
0.28657722 0.016232092 -0.054283913 -0.059571788 -0.02170275 0.029849982 0.02672477 0.010530973
0.024631038 0.021714292 0.2947637 0.24224627 -0.0761777 -0.070175864 -0.03654264 0.026461298
0.025306521 0.013136959 -0.0047229137 0.01738639 0.29117826 0.25784525 -0.0027035743 -0.01574881
-0.05223473 0.1349044 0.19139309 0.18389137 0.17234233 0.17710494 0.22148423 0.07495475
-0.01084561 0.042224307 0.14648157 0.16926135 0.02334459 0.014960015 -0.0077428035 0.013784962
0.19860646 0.20709302 -0.05739135 -0.039432187 -0.08892226 0.20074634 0.27594957 0.2631483
0.27547026 0.26039544 0.26191485 0.016515026
00000000: 2cea 9b3d e2c6 f63d ee4a 293e 5442 1d3e
00000010: c934 3d3c 04b6 a13b d432 41bc a1a3 963b
00000020: 0927 d93d 9d50 673e e66e 97bd 9d7b 7dbd
00000030: d503 31bd 8fea 833d 697e af3d 2f6c 813d
00000040: 0f45 913d e396 aa3d daf5 9d3e f781 743e
00000050: 80a0 8e3a d484 6bbc 0833 8cbd bf31 ec3d
00000060: 12d7 563e 8878 4f3e 978f 4c3e 6b9d 4b3e
00000070: ea56 673e 0893 843d 03d0 89bd f860 6bbd
00000080: 543c e0bd cac8 9f3d 83c8 813e 7680 6c3e
00000090: 69aa 5f3e 065c 5f3e 57ff 8c3e ce5c f13d
000000a0: 1cbb b6bd 57e3 d3bd e57e 3bbe 352d c83d
000000b0: 2710 b33e 4afc b23e 9e93 b93e cbab b13e
000000c0: 40ba 923e 2af9 843c cf58 5ebd 8c01 74bd
000000d0: f7c9 b1bc f387 f43c e8ed da3c 1a8a 2c3c
000000e0: 08c7 c93c 2ce2 b13c 45eb 963e 680f 783e
000000f0: 0e03 9cbd 5db8 8fbd bcad 15bd 5dc5 d83c
00000100: 9f4f cf3c 663c 573c acc2 9abb e76d 8e3c
00000110: 5115 953e 4b04 843e 732e 31bb a603 81bc
00000120: 16f4 55bd 6124 0a3e 8dfc 433e 054e 3c3e
00000130: 827a 303e ff5a 353e c3cc 623e e081 993d
00000140: c9b1 31bc 65f3 2c3d 44ff 153e d952 2d3e
00000150: 273d bf3c da1a 753c 58b7 fdbb 52da 613c
00000160: 7e5f 4b3e 3110 543e 3113 6bbd a583 21bd
00000170: e01c b6bd 7390 4d3e 4349 8d3e 60bb 863e
00000180: 700a 8d3e 8d52 853e b419 863e 854a 873c

Linear_Seasonal.bias f4 [10]
0.26379806 0.034944165 -0.25430763 0.28375793 0.18226653 -0.19803 0.051581714 0.2715359
0.28076386 0.16634637
00000000: 8a10 873e 9d21 0f3d 9c34 82be b848 913e
00000010: 14a4 3a3e 60c8 4abe 5947 533d c106 8b3e
00000020: 48c0 8f3e b456 2a3e

Linear_Trend.weight f4 [10, 10]
0.25269735 0.25697258 0.26071164 0.2639282 0.26665068 0.26891118 0.27074817 0.27220207
0.27331623 0.27412763 0.23629525 0.2403933 0.24403553 0.24727298 0.25014833 0.2527098
0.2549908 0.25702438 0.2588384 0.26046035 0.15455292 0.15037738 0.14580823 0.13948748
0.13583408 0.13292487 0.130635 0.12880348 0.12730132 0.1260403 0.21184573 0.21347456
0.21275303 0.21373527 0.21446982 0.21499817 0.21535659 0.21557477 0.21567832 0.215688
0.10841757 0.11152687 0.11443566 0.117075644 0.11941108 0.12143341 0.12315797 0.12461246
0.12583093 0.12684633 0.25419155 0.25583756 0.25720534 0.25834855 0.25930518 0.26010874
0.26078624 0.2613574 0.26184005 0.26225042 0.24660006 0.25308648 0.25815883 0.26214346
0.26529175 0.26779464 0.2697954 0.27140054 0.2726923 0.27373272 0.2182638 0.21905304
0.21953268 0.21971707 0.21962728 0.21928868 0.2187284 0.21797419 0.2170549 0.21599732
0.23850793 0.24307345 0.24640088 0.24871363 0.25021788 0.25109735 0.25149542 0.25152865
0.25128692 0.25084385 0.20284435 0.19902098 0.1950213 0.19098584 0.18701567 0.18317784
0.1795136 0.1760442 0.17277953 0.16971947
00000000: 8c61 813e e991 833e ff7b 853e 9921 873e
00000010: 7086 883e baae 893e 819f 8a3e 125e 8b3e
00000020: 1bf0 8b3e 755a 8c3e 62f7 713e a929 763e
00000030: 73e4 793e 2135 7d3e 7113 803e 2e63 813e
00000040: 278e 823e b398 833e 7786 843e 0f5b 853e
00000050: 1f43 1e3e 87fc 193e c14e 153e ced5 0e3e
00000060: 1718 0b3e 751d 083e 2ec5 053e 0fe5 033e
00000070: 475b 023e b510 013e 16ee 583e 1399 5a3e
00000080: eedb 593e 6bdd 5a3e fa9d 5b3e 7b28 5c3e
00000090: 7086 5c3e a2bf 5c3e c7da 5c3e 51dd 5c3e
000000a0: 080a de3d 3368 e43d 3e5d ea3d 5bc5 ef3d
000000b0: cc8d f43d 14b2 f83d 3f3a fc3d d134 ff3d
000000c0: d3d9 003e 01e4 013e 6525 823e 24fd 823e
000000d0: 6bb0 833e 4346 843e a6c3 843e f92c 853e
000000e0: c685 853e a3d0 853e e60f 863e b045 863e
000000f0: ba84 7c3e 8d94 813e 652d 843e ab37 863e
00000100: 52d4 873e 611c 893e 9f22 8a3e 03f5 8a3e
00000110: 539e 8b3e b226 8c3e 8c80 5f3e 714f 603e
00000120: 2dcd 603e 83fd 603e f9e5 603e 368d 603e
00000130: 56fa 5f3e a034 5f3e a443 5e3e 672e 5d3e
00000140: 6c3b 743e 3fe8 783e 8350 7c3e c9ae 7e3e
00000150: 8f1c 803e d58f 803e 02c4 803e 5dc8 803e
00000160: aea8 803e 9b6e 803e 6eb6 4f3e 28cc 4b3e
00000170: aab3 473e cb91 433e 0981 3f3e f992 3b3e
00000180: 6ad2 373e ee44 343e 1eed 303e f1ca 2d3e

Linear_Trend.bias f4 [10]
0.22761518 0.02767696 -0.29216677 -0.17160887 -0.00612012 0.0044859992 0.16492401 0.32745257
0.32461703 -0.24412455
00000000: f413 693e cbba e23c e296 95be 3cba 2fbe
00000010: 4a8b c8bb 4aff 923b d7e1 283e dda7 a73e
00000020: 3434 a63e c9fb 79be

projection.weight f4 [5, 300]
0.014308392 0.052972067 0.057024308 0.11320956 -0.015818132 0.024022643 0.085117936 -0.027762076
0.092228524 0.008826673 -0.048567683 -0.0006253408 0.06463621 -0.017261308 -0.001579526 0.026452964
0.0828124 0.026019167 0.036534417 0.0032506525 -0.12870479 0.026468659 -0.046347745 0.10871366
0.09349461 0.09993487 0.041546203 -0.03523735 -0.025121132 0.003693296 -0.06520762 0.031520307
0.0032820867 0.06469873 -0.040533103 0.030789332 0.07930484 -0.04659252 0.0030327383 -0.039739493
-0.159989 -0.0024845728 0.0125915455 -0.042252224 -0.06256357 6.951967e-05 0.08265037 -0.024263952
0.02600744 0.085586004 -0.12974864 -0.045861874 -0.124898896 0.010386817 -0.055051062 -0.051179647
0.046427872 0.05228305 -0.07153105 -0.0822575 -0.082973324 -0.034848634 -0.008281085 0.031310577
-0.066988535 0.063083515 0.020315278 0.0044444385 0.0266951 0.012354154 -0.035453234 -0.08457191
0.09231397 0.0152122555 0.020441746 -0.016088666 -0.0020596164 -0.0012657769 -0.049085066 -0.0074836067
-0.028552039 -0.013325772 -0.07663527 -0.123631574 -0.0872907 -0.07424 -0.10428013 -0.01946092
-0.030408276 -0.08245322 -0.05327831 0.105662964 0.047255695 0.05029857 -0.03829266 0.05217715
0.0001751205 -0.062656775 0.093190156 -0.043857478 -0.039364066 -0.01835024 0.10137309 -0.08417902
0.03143742 0.09365879 0.00251455 0.016305413 -0.04978213 0.027841616 -0.046937987 0.004451515
-0.1679164 -0.15242077 -0.09542661 -0.06440157 -0.020957083 -0.01020999 -0.13789214 -0.08335032
-0.01566751 -0.023101777 -0.01542778 0.035673805 -0.04849248 0.046544157 0.03360472 -0.056840282
0.0073563224 -0.0313259 -0.013621045 -0.07862107 0.13879864 -0.014114204 0.06164274 0.031057926
0.044375017 -0.017420838 0.031261936 0.09544327 0.004017177 0.024174495 -0.1795066 -0.25169972
-0.14511046 -0.13000138 -0.12344149 0.06070613 -0.07788331 0.030340131 -0.007364429 0.055284977
0.01694678 0.04770418 -0.045127723 0.08471846 0.0014793535 -0.06504024 0.07462842 -0.050669573
-0.06358069 -0.113346376 0.0870088 -0.090108946 -0.06537118 0.03320718 0.051904347 -0.082323186
-0.0027267628 -0.009162949 -0.10688346 -0.08163909 -0.1395868 0.06637209 -0.010830977 0.02432962
0.0417768 0.03802798 -0.10643283 -0.028403094 -0.06202356 0.06834549 0.01313826 0.105073094
-0.012310177 0.050158717 0.03717805 0.010927329 0.018981565 0.011650104 -0.14105874 -0.06403281
0.111882575 -0.024607426 -0.077603474 0.07724758 0.051318035 -0.015979132 -0.0043043373 0.025827952
-0.118282415 -0.006075341 -0.16890281 0.06257575 -0.029269734 0.039522685 0.093831845 0.040709488
-0.08283002 0.016166959 -0.07108931 0.036503058 0.0101999035 -0.008720166 -0.015300201 0.028920816
0.002692325 0.006772364 0.026132816 0.018988974 -0.026163677 0.021080194 0.08203903 -0.0064011053
0.025041083 0.1046541 0.07908423 0.04167142 -0.015787218 0.091273755 -0.028499879 0.01626203
-0.13785017 -0.0074739438 0.003901604 -0.038121764 0.068562165 0.06658733 -0.07100315 -0.058107853
0.014603372 0.103848256 0.011584729 0.002352405 -0.022748502 0.0068230694 0.040053315 -0.003579216
0.042208377 0.058790285 -0.11943871 -0.0659617 0.10333556 -0.037666555 0.030006362 0.0641638
00000000: bf6d 6a3c 3df9 583d 5292 693d 6ada e73d
00000010: 0795 81bc 22cb c43c 5052 ae3d 4b6d e3bc
00000020: 4fe2 bc3d c09d 103c e8ee 46bd e9ed 23ba
00000030: fd5f 843d 9667 8dbc 1908 cfba e3b3 d83c
00000040: 8c99 a93d 2626 d53c 1da5 153d e608 553b
00000050: 30cb 03be cdd4 d83c 22d7 3dbd 44a5 de3d
00000060: 1a7a bf3d a7aa cc3d 5a2c 2a3d 0a55 10bd
00000070: d5ca cdbc 3a0b 723b 938b 85bd 701b 013d
00000080: 4718 573b c580 843d 0a06 26bd e939 fc3c
00000090: 936a a23d ccd7 3ebd e8c0 463b e1c5 22bd
000000a0: 28d4 23be 37d4 22bb c54c 4e3c ab10 2dbd
000000b0: 5421 80bd 17cb 9138 9944 a93d 32c5 c6bc
000000c0: 8e0d d53c b747 af3d d4dc 04be a9d9 3bbd
000000d0: feca ffbd 782d 2a3c 397d 61bd c0a1 51bd
000000e0: 272b 3e3d c026 563d df7e 92bd 9f76 a8bd
000000f0: ebed a9bd 71bd 0ebd 63ad 07bc 853f 003d
00000100: 4931 89bd ee31 813d 3a6c a63c a7a2 913b
00000110: afaf da3c 1469 4a3c 6937 11bd 0a34 adbd
00000120: 1b0f bd3d d33c 793c 7375 a73c 61cc 83bc
00000130: a1fa 06bb 6de8 a5ba 6c0d 49bd 0b39 f5bb
00000140: f7e5 e9bc 5754 5abc f4f2 9cbd 8d32 fdbd
00000150: 77c5 b2bd 240b 98bd d290 d5bd 826c 9fbc
00000160: c71a f9bc 3cdd a8bd 5b3a 5abd d365 d83d
00000170: 308f 413d e005 4e3d c4d8 1cbd b5b7 553d
00000180: 8da0 3739 3252 80bd 7bda be3d e6a3 33bd
00000190: 373c 21bd 3e53 96bc b29c cf3d 0d66 acbd
000001a0: 86c4 003d 2ed0 bf3d 26cb 243b ee92 853c
000001b0: 59e8 4bbd 1a14 e43c 0c42 40bd 04de 913b
000001c0: 47f2 2bbe 3114 1cbe 076f c3bd f8e4 83bd
000001d0: 30ae abbc cd47 27bc 9933 0dbe 93b3 aabd
000001e0: 2659 80bc f03f bdbc cdc4 7cbc b21e 123d
000001f0: 0da0 46bd 16a5 3e3d 1aa5 093d 5bd1 68bd
00000200: 4e0d f13b 964f 00bd ce2a 5fbc 1504 a1bd
00000210: 3b21 0e3e 433f 67bc 197d 7c3d 316d fe3c
00000220: 94c2 353d 25b6 8ebc 840c 003d c377 c33d
00000230: 86a2 833b 9709 c63c 94d0 37be c9de 80be
00000240: d697 14be 151f 05be e4ce fcbd fea6 783d
00000250: 4981 9fbd de8b f83c 4f51 f1bb 8072 623d
00000260: f9d3 8a3c 7565 433d d9d7 38bd df80 ad3d
00000270: dee6 c13a d133 85bd c9d6 983d e68a 4fbd
00000280: 9836 82bd 2522 e8bd ab31 b23d 0a8b b8bd
00000290: 53e1 85bd 4104 083d a799 543d 0f99 a8bd
000002a0: 7db3 32bb 3220 16bc b7e5 dabd 6532 a7bd
000002b0: d8ef 0ebe 17ee 873d 6974 31bc e94e c73c
000002c0: 261e 2b3d 3ac3 1b3d 75f9 d9bd 9bad e8bc
000002d0: 6b0c 7ebd b8f8 8b3d db41 573c 9030 d73d
000002e0: a0b0 49bc 3a73 4d3d 0348 183d 8a08 333c
000002f0: 3a7f 9b3c 14e0 3e3c b471 10be a223 83bd
00000300: b122 e53d 8395 c9bc 92ee 9ebd fb33 9e3d
00000310: dc32 523d abe6 82bc 660b 8dbb 2495 d33c
00000320: 0d3e f2bd a713 c7bb dcf4 2cbe b727 803d
00000330: 15c7 efbc 8ae2 213d e92a c03d febe 263d
00000340: c9a2 a9bd 9270 843c 4697 91bd 3b84 153d
00000350: 7f1d 273c 07df 0ebc b2ad 7abc 59eb ec3c
00000360: b871 303b b5ea dd3b 7d14 d63c c48e 9b3c
00000370: 3555 d6bc 5fb0 ac3c 1404 a83d 5dc0 d1bb
00000380: f522 cd3c e454 d63d eaf6 a13d a7af 2a3d
00000390: 3254 81bc bced ba3d 9478 e9bc f337 853c
000003a0: 9828 0dbe fce7 f4bb 0eb2 7f3b 9125 1cbd
000003b0: 526a 8c3d f05e 883d 196a 91bd 8002 6ebd
000003c0: fb42 6f3c 65ae d43d e0cd 3d3c cf2a 1a3b
000003d0: 115b babc 0e94 df3b f20e 243d 4891 6abb
000003e0: b1e2 2c3d 15ce 703d 489c f4bd ee16 87bd
000003f0: 98a1 d33d 3f48 1abd e7cf f53c 4f68 833d

projection.bias f4 [5]
0.04327757 0.019590463 0.056162097 0.009111656 -0.0016098313
00000000: d243 313d 2e7c a03c 3a0a 663d 0e49 153c
00000010: fa00 d3ba
