result/Dliner/classification_CropMapping_t30uxv_2in4Period_0.5train_DLinear/checkpoint.pth (torch, 8727 bytes, 6 tensors)

Linear_Seasonal.weight f4 [10, 10]
-0.08537333 0.1481665 -0.04302157 0.21649532 0.28031075 0.2763184 0.25266027 0.24831334
-0.10370572 -0.012400459 -0.11997648 -0.12394235 -0.103182144 -0.080723576 0.24993612 0.2797026
0.24483573 0.27329654 0.03260234 -0.008385693 0.14808424 0.08724443 -0.042988293 0.15806895
0.25278535 0.24585187 0.23419379 0.25270566 0.006621123 -0.046634212 -0.04422413 0.10068959
-0.11612555 0.13188548 0.3161748 0.34165955 0.3032309 0.3294346 -0.07104013 -0.09820302
-0.15776153 -0.025928183 -0.10797722 0.058683854 0.2542205 0.273145 0.23764797 0.2665133
0.15415972 0.019696375 -0.1331175 -0.13797045 -0.09002291 -0.061048467 0.22729008 0.24403699
0.22786845 0.24580583 0.097099185 0.009072551 -0.11575158 -0.17833579 -0.042723365 -0.12993394
0.17772725 0.2019997 0.16075847 0.19939284 0.23331992 0.10638398 -0.044460043 0.018530596
-0.079805955 0.069838464 0.27528763 0.27505714 0.26102582 0.252586 -0.15410168 -0.0061544604
-0.17593572 -0.23709947 0.025380107 -0.102093875 0.09530995 0.100719295 0.052154217 0.1015072
0.3164303 0.2592769 -0.009893876 0.001616301 -0.18404269 0.14755808 0.33159178 0.35012642
0.33416286 0.34677872 -0.17780006 -0.14695142
00000000: 36d8 aebd f5b8 173e 6337 30bd f3b0 5d3e
00000010: e484 8f3e 9b79 8d3e b05c 813e da45 7e3e
00000020: aa63 d4bd 4b2b 4bbc 3bb6 f5bd 7dd5 fdbd
00000030: 2951 d3bd 6752 a5bd 41ef 7f3e 2e35 8f3e
00000040: 38b6 7a3e 86ed 8b3e 088a 053d 2564 09bc
00000050: 65a3 173e 35ad b23d 7e14 30bd d4dc 213e
00000060: 156d 813e 98c0 7b3e 7fd0 6f3e a362 813e
00000070: 01f6 d83b 8403 3fbd 5d24 35bd 5836 ce3d
00000080: 3bd3 edbd fd0c 073e aae1 a13e 00ee ae3e
00000090: 1541 9b3e a7ab a83e 7d7d 91bd aa1e c9bd
000000a0: 3d8c 21be 5767 d4bc 2923 ddbd 7b5e 703d
000000b0: 3029 823e a9d9 8b3e fd59 733e 6e74 883e
000000c0: 0cdc 1d3e 4b5a a13c f44f 08be 2048 0dbe
000000d0: ee5d b8bd f50d 7abd bbbe 683e d5e4 793e
000000e0: 5956 693e 86b4 7b3e f0db c63d 09a5 143c
000000f0: 2a0f edbd a89d 36be b2fe 2ebd 670d 05be
00000100: 22fe 353e 02d9 4e3e de9d 243e a32d 4c3e
00000110: 6beb 6e3e d8df d93d bc1b 36bd 7acd 973c
00000120: 4e71 a3bd 7807 8f3d 80f2 8c3e 4ad4 8c3e
00000130: 2da5 853e f452 813e d5cc 1dbe 5bab c9bb
00000140: 7e28 34be 34ca 72be f1e9 cf3c 9816 d1bd
00000150: dd31 c33d eb45 ce3d a99f 553d 02e3 cf3d
00000160: 2703 a23e f1bf 843e ec19 22bc 10da d33a
00000170: b075 3cbe 7719 173e 66c6 a93e c543 b33e
00000180: 6517 ab3e fb8c b13e 3811 36be 6f7a 16be

Linear_Seasonal.bias f4 [10]
0.29006323 0.0033239576 -0.28359872 0.27037343 0.12721871 -0.20258754 0.018208526 0.28935626
0.25492156 0.16792187
00000000: 2b83 943e c1d6 593b da33 91be 636e 8a3e
00000010: 9f45 023e 1c73 4fbe 0c2a 953c 8126 943e
00000020: 1485 823e b6f3 2b3e

Linear_Trend.weight f4 [10, 10]
0.095011115 0.08886523 0.0829218 0.07728052 0.07201995 0.06720365 0.06287392 0.059044506
0.055701714 0.05281056 0.27092424 0.26909798 0.26637325 0.26279768 0.25844428 0.25341555
0.2478297 0.24181415 0.2355008 0.2290135 0.14897673 0.13557523 0.12016633 0.10304334
0.0850314 0.06735883 0.051217098 0.037335265 0.02589264 0.01669392 0.19165644 0.17896254
0.16612624 0.15339649 0.14098658 0.12906581 0.117754795 0.107129835 0.09722756 0.088055015
0.30420887 0.30711842 0.3087633 0.30907294 0.30803603 0.3057049 0.30219674 0.29767913
0.2923592 0.2864567 0.22645628 0.22743882 0.22703221 0.22500208 0.22119735 0.21560042
0.20838743 0.19993831 0.188793 0.17952731 0.3473969 0.3543624 0.3601402 0.36473766
0.36820078 0.37061143 0.3720675 0.37268454 0.372578 0.37186247 0.10629125 0.09701042
0.088442944 0.08104077 0.07493901 0.0700534 0.06619595 0.06315835 0.06075717 0.058843795
0.37003145 0.38102782 0.39044747 0.39835224 0.4048542 0.41008928 0.41420954 0.4173713
0.4197164 0.42138323 0.017846126 -0.008483189 -0.03381635 -0.05732329 -0.078358315 -0.09655745
-0.11185465 -0.12441937 -0.13456231 -0.14264879
00000000: 3095 c23d f9fe b53d e8d2 a93d 4045 9e3d
00000010: 327f 933d 11a2 893d 0bc4 803d a7d8 713d
00000020: 7b27 643d e34f 583d 95b6 8a3e 36c7 893e
00000030: 1362 883e 6b8d 863e cf52 843e afbf 813e
00000040: 12c7 7d3e 219e 773e 1f27 713e 8482 6a3e
00000050: 5b8d 183e 3cd4 0a3e c419 f63d 6308 d33d
00000060: f124 ae3d 6df3 893d 05c9 513d ddec 183d
00000070: cd1c d43c b0c1 883c 9641 443e f541 373e
00000080: ff1c 2a3e f813 1d3e c95e 103e d429 043e
00000090: 6d29 f13d e366 db3d 3e1f c73d 3056 b43d
000000a0: 44c1 9b3e a03e 9d3e 3916 9e3e cf3e 9e3e
000000b0: e6b6 9d3e 5a85 9c3e 88b9 9a3e 6669 983e
000000c0: 1bb0 953e 74aa 923e 28e4 673e b9e5 683e
000000d0: 227b 683e f266 663e 8f81 623e 5bc6 5c3e
000000e0: 8463 553e a1bc 4c3e f452 413e 02d6 373e
000000f0: 02de b13e fd6e b53e 4c64 b83e e5be ba3e
00000100: d084 bc3e c8c0 bd3e a27f be3e 82d0 be3e
00000110: 8bc2 be3e c264 be3e 3aaf d93d 66ad c63d
00000120: 9321 b53d b4f8 a53d a079 993d 2878 8f3d
00000130: be91 873d 2a59 813d 83dc 783d 3106 713d
00000140: c374 bd3e 1416 c33e bbe8 c73e d3f4 cb3e
00000150: 0d49 cf3e 39f7 d13e 4613 d43e b1b1 d53e
00000160: 11e5 d63e 8bbf d73e 0a32 923c 13fd 0abc
00000170: 0383 0abd d3cb 6abd 537a a0bd eabf c5bd
00000180: 0d14 e5bd 95cf febd b4ca 09be 8612 12be

Linear_Trend.bias f4 [10]
0.25388014 -0.0039431225 -0.32145786 -0.18499467 -0.061168164 -7.2132556e-05 0.13155074 0.34527308
0.29877475 -0.24254902
00000000: 94fc 813e 4f35 81bb 2096 a4be 3e6f 3dbe
00000010: 788b 7abd df45 97b8 3db5 063e a2c7 b03e
00000020: 01f9 983e c55e 78be

projection.weight f4 [7, 200]
0.097838044 0.027759371 0.08141537 -0.007184594 0.05387382 -0.011549746 0.025449537 -0.036801398
-0.026782276 0.051198404 0.09634337 0.15889807 -0.039309897 0.12925759 0.016975548 0.058668904
0.1211523 0.010557467 0.011912578 -0.1301954 0.032103386 0.08690918 0.10444686 -0.11396547
0.13171056 0.06194484 -0.057951033 -0.13746406 -0.108789906 0.009333272 -0.067976035 -0.05523058
-0.24368145 0.27172944 0.002842589 0.11405512 0.114146814 -0.028026408 -0.17629085 -0.2618039
-0.089642935 0.026083466 -0.08628086 -0.053551145 -0.06413235 -0.098394394 -0.027231852 -0.025877113
0.0010774898 0.026464188 -0.06243376 -0.0262976 -0.078204565 0.068684675 -0.088024795 -0.013104967
0.050293136 0.008922859 -0.06854774 -0.15175092 0.009861722 -0.057105575 0.020245926 -0.083059035
0.04749685 0.022126483 -0.025037037 -0.0009875661 -0.04314528 0.043045737 0.009443463 -0.027983401
-0.10803002 0.26759222 0.015232496 0.10252963 0.0658864 -0.011481016 -0.14932786 -0.20140278
0.086405784 0.0544777 0.06440135 -0.188283 0.056244854 -0.012866515 -0.078030445 -0.09240144
-0.07471194 -0.09443215 -0.042529255 0.048056684 -0.18885462 0.2859513 0.026099026 0.12730733
0.02982262 -0.038443852 -0.049886364 -0.28320786 0.096345745 0.027007349 0.032823015 -0.17502312
0.08945866 0.050551534 -0.10212259 -0.012995528 -0.156683 -0.0922478 -0.0057479492 0.027931524
-0.16031048 0.13013224 -0.037249435 0.14610377 0.10358361 -0.049673155 -0.16418071 -0.25250167
0.12990335 0.0051685777 0.0149353575 -0.17819445 0.14481342 -0.027491257 -0.01064342 -0.10970362
-0.15151864 -0.069153905 -0.0018741052 -0.11540495 -0.17516978 0.28780168 0.07357437 0.12834814
0.07114471 -0.019784305 -0.12875964 -0.29325318 0.10094564 0.1279354 0.06247034 -0.07202878
0.069617346 0.024941672 -0.00749564 0.008703361 -0.038760465 0.09391449 0.059334874 0.07604621
-0.1129866 0.101609625 0.0034289744 0.11776421 0.016471237 -0.06567747 0.028912943 -0.07684593
0.124724306 0.019678168 0.1190233 -0.2839901 0.10652478 0.042012103 0.054955035 -0.16481717
-0.14096011 -0.0890234 -0.041806094 -0.092925094 -0.1829208 0.25519776 0.047234885 0.1514377
0.103648074 0.07316246 -0.13651045 -0.29986903 -0.009330321 -0.023383098 -0.044389263 0.009378456
0.0133350445 -0.052483212 -0.10304813 0.01675772 -0.08900301 0.048703253 -0.051394697 0.051622026
-0.015298426 0.10820528 -0.12029146 0.13032073 0.07343184 -0.04907532 -0.030774474 -0.037828512
-0.055102162 -0.0122054005 -0.11076897 -0.012070002 -0.08418309 -0.0029732792 0.018044943 -0.018281303
-0.09455182 0.01859348 -0.103058524 -0.09076526 -0.11620266 -0.117774464 -0.028675213 -0.08758332
-0.16005403 -0.035034306 -0.16722572 -0.11502016 0.0005820151 -0.024862977 -0.056872327 -0.050526127
0.01854081 0.07004914 0.052219875 -0.016210604 -0.0819042 0.05307617 0.016236793 0.03295424
0.0049098013 0.042352997 -0.030983834 -0.06856157 -0.006236608 -0.045037862 -0.1148238 -0.094324365
0.06282846 0.07742566 -0.033798106 -0.039883908 0.021714306 0.00043369463 0.03463159 0.051539466
-0.007844538 0.11101292 0.010829172 0.0019637337 0.10539417 0.016388923 0.09464005 0.056898523
00000000: 505f c83d 9f67 e33c 1abd a63d be6c ebbb
00000010: cbaa 5c3d 253b 3dbc 8c7b d03c 10bd 16bd
00000020: 8166 dbbc 6bb5 513d ac4f c53d 2db6 223e
00000030: 6a03 21bd 1a5c 043e 4e10 8b3c ce4e 703d
00000040: b21e f83d 3af9 2c3c f92c 433c f151 05be
00000050: d77e 033d 71fd b13d 3ce8 d53d ba66 e9bd
00000060: 22df 063e dfb9 7d3d 105e 6dbd 61c3 0cbe
00000070: 3ecd debd 95ea 183c 0537 8bbd 7639 62bd
00000080: a187 79be 1f20 8b3e bb4a 3a3b bb95 e93d
00000090: cec5 e93d a397 e5bc 9785 34be 290b 86be
000000a0: b796 b7bd feac d53c 05b4 b0bd 7258 5bbd
000000b0: d257 83bd 0083 c9bd 5515 dfbc 3dfc d3bc
000000c0: 8f3a 8d3a 6dcb d83c 8bba 7fbd 106e d7bc
000000d0: b729 a0bd 8daa 8c3d 5846 b4bd 37b6 56bc
000000e0: 2d00 4e3d 2f31 123c c262 8cbd 9864 1bbe
000000f0: 0f93 213c 89e7 69bd c9da a53c db1a aabd
00000100: 0f8c 423d 9942 b53c 791a cdbc 3871 81ba
00000110: 1bb9 30bd ba50 303d c1b8 1a3c 723d e5bc
00000120: d83e ddbd d901 893e b891 793c 0efb d13d
00000130: 73ef 863d df1a 3cbc 67e9 18be 883c 4ebe
00000140: 84f5 b03d 0224 5f3d dbe4 833d 42cd 40be
00000150: 0161 663d 13ce 52bc 6dce 9fbd f73c bdbd
00000160: 9302 99bd a565 c1bd 2833 2ebd 16d7 443d
00000170: 1b63 41be 3568 923e a0cd d53c da5c 023e
00000180: 914e f43c 4d77 1dbd a555 4cbd 9f00 91be
00000190: eb50 c53d 843e dd3c 6d71 063d 4339 33be
000001a0: 1a36 b73d 200f 4f3d a625 d1bd 32eb 54bc
000001b0: 8271 20be 6aec bcbd 4b59 bcbb a7d0 e43c
000001c0: 6e28 24be 6341 053e dd92 18bd 3a9c 153e
000001d0: a523 d43d 1476 4bbd fd1e 28be e647 81be
000001e0: 6205 053e 2c5d a93b 6eb3 743c 9b78 36be
000001f0: f849 143e 5835 e1bc bd61 2ebc 4bac e0bd
00000200: b427 1bbe 90a0 8dbd 89a4 f5ba 6e59 ecbd
00000210: b55f 33be be5a 933e 29ae 963d b26d 033e
00000220: 51b4 913d b212 a2bc 91d9 03be 4825 96be
00000230: 96bc ce3d 7f01 033e e6e0 7f3d d383 93bd
00000240: 8a93 8e3d 7a52 cc3c fc9d f5bb 8b98 0e3c
00000250: 4bc3 1ebd 3d56 c03d 2009 733d 1ebe 9b3d
00000260: 8565 e7bd b518 d03d a5b8 603b 5d2e f13d
00000270: b0ee 863c e981 86bd d6da ec3c 6661 9dbd
00000280: 756f ff3d 1c34 a13c 7dc2 f33d 2667 91be
00000290: aa29 da3d e214 2c3d 8818 613d d5c5 28be
000002a0: d957 10be e651 b6bd de3c 2bbd 834f bebd
000002b0: 974f 3bbe 48a9 823e 5e79 413d 7c12 1b3e
000002c0: 7145 d43d 33d6 953d 65c9 0bbe 6f88 99be
000002d0: 34de 18bc e98d bfbc 84d1 35bd 18a8 193c
000002e0: 3b7b 5a3c a3f8 56bd e60a d3bd 7c47 893c
000002f0: 3647 b6bd 107d 473d 3f83 52bd 9e71 533d
00000300: 40a6 7abc bb9a dd3d 5e5b f6bd cc72 053e
00000310: 6f63 963d 3403 49bd c01a fcbc 12f2 1abd
00000320: ceb2 61bd 29f9 47bc d7da e2bd 42c1 45bc
00000330: 2f68 acbd 59db 42bb fdd2 933c acc2 95bc
00000340: 62a4 c1bd 5b51 983c 5910 d3bd 23e3 b9bd
00000350: a9fb edbd bd33 f1bd 48e8 eabc e25e b3bd
00000360: 34e5 23be 2280 0fbd 383d 2bbe b18f ebbd
00000370: 5f92 183a 71ad cbbc f5f2 68bd 7cf4 4ebd
00000380: e6e2 973c ec75 8f3d 82e4 553d 1acc 84bc
00000390: 64bd a7bd 6666 593d 0603 853c 06fb 063d
000003a0: 66e2 a03b 567a 2d3d cfd1 fdbc 026a 8cbd
000003b0: 765c ccbb 9f79 38bd be28 ebbd 222d c1bd
000003c0: 35ac 803d 5891 9e3d e26f 0abd 4f5d 23bd
000003d0: 33e2 b13c 8261 e339 dbd9 0d3d 0c1b 533d
000003e0: 6186 00bc be5a e33d d76c 313c fcb1 003b
000003f0: e6d8 d73d 1042 863c a4d2 c13d 6d0e 693d

projection.bias f4 [7]
0.05021556 -0.014835459 -0.025206063 -0.015552656 -0.062804334 -0.06918964 -0.055294286
00000000: d5ae 4d3d 6d10 73bc f27c cebc 91d0 7ebc
00000010: 8f9f 80bd 4cb3 8dbd 437c 62bd
