result/Dliner/classification_CropMapping_t31tfj_4in4Period_0.02train_DLinear/checkpoint.pth (torch, 15319 bytes, 6 tensors)

Linear_Seasonal.weight f4 [10, 10]
0.10251391 0.12009314 0.12297881 0.1269788 0.08005224 0.078853644 0.077056274 0.077959545
0.08065064 0.12235963 0.08126089 0.09288232 0.08355216 0.080855004 0.09079017 0.0880069
0.08354135 0.084872775 0.119835414 0.11704441 0.07032102 0.0682057 0.07117815 0.07110675
0.11874065 0.12220414 0.12182075 0.121708296 0.13078998 0.09729655 0.07378702 0.0872744
0.08095846 0.0926559 0.11528225 0.10943288 0.105591156 0.10534162 0.113225825 0.12230776
0.10274423 0.10601611 0.11358914 0.10867741 0.08351808 0.083694175 0.08272989 0.08351631
0.08613016 0.122327544 0.08276215 0.08963368 0.117431946 0.09721698 0.076630645 0.076631084
0.07688734 0.07642281 0.120244965 0.1256836 0.07210181 0.07099873 0.07381818 0.075923845
0.11919645 0.11824426 0.11717202 0.117626026 0.12889117 0.09842711 0.08162469 0.08035548
0.07431541 0.08572498 0.1241254 0.12281 0.121840075 0.12188394 0.10946285 0.08626938
0.08496725 0.09771153 0.07598764 0.11381367 0.125777 0.123413935 0.12238542 0.121709794
0.10115824 0.0834724 0.09388777 0.1018942 0.10296271 0.0883574 0.081899345 0.07980754
0.077304974 0.07947129 0.099573284 0.11658524
00000000: d0f2 d13d 64f3 f53d 50dc fb3d bb06 023e
00000010: 6ef2 a33d 057e a13d aecf 9d3d 41a9 9f3d
00000020: 2a2c a53d b097 fa3d 1c6c a63d 1639 be3d
00000030: 651d ab3d 4f97 a53d 32f0 b93d f63c b43d
00000040: ba17 ab3d c7d1 ad3d 456c f53d fbb4 ef3d
00000050: 7804 903d 6eaf 8b3d dac5 913d 6aa0 913d
00000060: 4c2e f33d 2a46 fa3d 287d f93d 3342 f93d
00000070: cfed 053e 6a43 c73d a61d 973d ecbc b23d
00000080: 8dcd a53d 60c2 bd3d 1a19 ec3d 591e e03d
00000090: 2d40 d83d 59bd d73d f1e2 e73d 7e7c fa3d
000000a0: 916b d23d f91e d93d 6ca1 e83d 4392 de3d
000000b0: 870b ab3d da67 ab3d 4a6e a93d 990a ab3d
000000c0: 0265 b03d dd86 fa3d 347f a93d dd91 b73d
000000d0: 2980 f03d b219 c73d 87f0 9c3d c2f0 9c3d
000000e0: 1c77 9d3d 9083 9c3d fe42 f63d 34b3 003e
000000f0: 1daa 933d c867 913d fc2d 973d f67d 9b3d
00000100: 451d f43d 0c2a f23d e2f7 ef3d eae5 f03d
00000110: 0cfc 033e 2794 c93d d82a a73d 6a91 a43d
00000120: ad32 983d 9490 af3d 7535 fe3d cf83 fb3d
00000130: 4a87 f93d 4a9e f93d 0f2e e03d 00ae b03d
00000140: 4f03 ae3d fc1c c83d 689f 9b3d 2417 e93d
00000150: b0cb 003e 72c0 fc3d 35a5 fa3d fc42 f93d
00000160: 0d2c cf3d 94f3 aa3d 3b48 c03d e8ad d03d
00000170: 1dde d23d b9f4 b43d d8ba a73d 2372 a33d
00000180: 1252 9e3d d8c1 a23d 14ed cb3d 3ec4 ee3d

Linear_Seasonal.bias f4 [10]
0.25849378 0.037873868 -0.24194117 0.27835277 0.15548317 -0.162268 0.008868462 0.2157866
0.2509914 0.1518699
00000000: 4c59 843e a121 1b3d 6dbf 77be 4184 8e3e
00000010: fb36 1f3e 9529 26be 074d 113c 2af7 5c3e
00000020: f281 803e c883 1b3e

Linear_Trend.weight f4 [10, 10]
0.12904266 0.1294675 0.12977517 0.12986666 0.12975913 0.12954235 0.12928605 0.12902398
0.12876922 0.12652612 0.12936111 0.12928124 0.12918074 0.12906459 0.1289371 0.12880135
0.12865973 0.12851396 0.1283658 0.12821613 0.1081579 0.10826793 0.10831498 0.10831539
0.108282074 0.10822538 0.10815291 0.108070605 0.10798278 0.10789246 0.12298862 0.12390088
0.124701835 0.12536013 0.1258744 0.12626912 0.12657282 0.1268087 0.12699361 0.1271396
0.12012464 0.12054335 0.120908834 0.12122588 0.12149912 0.12173326 0.12193267 0.12210139
0.122243054 0.12236108 0.13002524 0.13011874 0.13017538 0.13020317 0.1302083 0.13019568
0.13016921 0.13013197 0.13008624 0.13003431 0.10716512 0.10733792 0.10748684 0.107615985
0.10772869 0.10782767 0.10791503 0.10799253 0.10806167 0.108123615 0.115419194 0.11414503
0.112982325 0.11192514 0.11096521 0.11009331 0.10930072 0.10857883 0.10792013 0.10731758
0.11475104 0.11409557 0.11343046 0.112760104 0.11208977 0.111424334 0.110768296 0.11012572
0.1094997 0.10889288 0.120573774 0.12023761 0.11993009 0.11964819 0.119389065 0.11915036
0.11893 0.118725955 0.11853671 0.11836073
00000000: c223 043e 2193 043e c8e3 043e c4fb 043e
00000010: 94df 043e c0a6 043e 9063 043e dd1e 043e
00000020: 14dc 033e 1090 013e 3d77 043e 4d62 043e
00000030: f547 043e 8229 043e 1608 043e 80e4 033e
00000040: 60bf 033e 2a99 033e 5372 033e 174b 033e
00000050: e481 dd3d 94bb dd3d 3fd4 dd3d 76d4 dd3d
00000060: fec2 dd3d 45a5 dd3d 467f dd3d 1f54 dd3d
00000070: 1326 dd3d b9f6 dc3d 75e1 fb3d bfbf fd3d
00000080: ad63 ff3d 685e 003e 38e5 003e b14c 013e
00000090: 4e9c 013e 24da 013e 9d0a 023e e230 023e
000000a0: e803 f63d 6fdf f63d 0d9f f73d 4645 f83d
000000b0: 88d4 f83d 4a4f f93d d6b7 f93d 4b10 fa3d
000000c0: 915a fa3d 7298 fa3d 5625 053e d93d 053e
000000d0: b24c 053e fb53 053e 5355 053e 0452 053e
000000e0: 144b 053e 5141 053e 5435 053e b727 053e
000000f0: 6379 db3d fcd3 db3d 0f22 dc3d c565 dc3d
00000100: dca0 dc3d c1d4 dc3d 8e02 dd3d 302b dd3d
00000110: 704f dd3d ea6f dd3d e660 ec3d dfc4 e93d
00000120: 4763 e73d 0239 e53d ba41 e33d 9a78 e13d
00000130: 0ed9 df3d 945e de3d 3b05 dd3d 52c9 db3d
00000140: 9802 eb3d f0aa e93d 3b4e e83d c5ee e63d
00000150: 528f e53d 7132 e43d 7dda e23d 9889 e13d
00000160: 6141 e03d 3b03 df3d 62ef f63d 233f f63d
00000170: e89d f53d 1c0a f53d 4182 f43d 1b05 f43d
00000180: 9291 f33d 9826 f33d 60c3 f23d 1c67 f23d

Linear_Trend.bias f4 [10]
0.22231044 0.030606737 -0.27980053 -0.17701465 -0.03290348 0.040247936 0.12221083 0.27170354
0.29484454 -0.25860122
00000000: 59a5 633e fbba fa3c 0442 8fbe 5443 35be
00000010: cdc5 06bd 05db 243d ac49 fa3d ba1c 8b3e
00000020: ddf5 963e 6167 84be

projection.weight f4 [5, 610]
0.005360182 0.012517875 0.020255605 0.060247157 -0.013207011 0.0074026813 0.035846844 -0.024259176
-0.0015976436 -0.0024394752 0.014915068 0.016112987 0.036293227 0.014568768 0.014130385 -0.0016608994
0.045189608 0.036468267 0.02877395 -0.011662438 -0.040367015 0.026691496 0.010952657 0.009109622
0.029656429 0.040807992 -0.025506182 -0.04430121 -0.0008235667 0.026683064 0.0011867936 -0.0046804016
-0.025841888 0.023102598 0.02650447 -0.001728671 0.03307006 0.01065712 -0.019433878 -0.0022800714
-0.035835974 0.026870852 -0.04485695 0.0031694518 -0.013851215 -0.012601947 0.034835372 0.03130363
0.05337265 0.04737108 -0.031094383 -0.014323119 -0.0036930754 0.024852045 -0.018792737 -0.03548404
0.0035590807 0.042431783 0.017424097 -0.031759776 -0.008950773 -0.057644255 0.012799636 0.04076654
0.024200413 -0.0012177433 0.03303085 0.040969685 -0.006116821 0.009460517 -0.005493209 -0.058162216
-0.0018447643 0.0620779 0.021547277 -0.01941835 -0.002734965 0.0426463 -0.039568685 -0.039784413
0.012596945 -0.011269272 -0.0047462774 -0.037452407 -0.03932798 -0.031500045 -0.05069228 -0.025316775
0.0024691347 -0.048971586 -0.009548395 0.05775015 0.019117208 0.01765436 0.03179267 0.008962947
-0.016163707 0.0055609704 0.05145359 -0.002635064 0.023596212 0.01771286 -0.012805905 -0.048104268
0.00441452 0.037982874 -0.030866152 0.04264307 -0.035335064 -0.022401975 0.03197787 0.002425672
-0.03215398 -0.036625564 -0.028573368 -0.014684298 -0.0068545244 -0.0357714 -0.036967486 -0.023466017
0.02321239 -0.012803945 -0.044207253 0.033669457 0.026994003 -0.013596855 -0.028282197 0.0001598425
-0.014416184 -0.03063288 0.009870198 -0.05598296 -0.0014687844 -0.01624623 0.031421468 -0.019130995
-0.028364599 -0.01924629 -0.003321411 -0.02534869 0.0023495595 0.027326098 -0.038496483 -0.024738552
-0.02361316 -0.019573487 -0.017523069 0.009972454 -0.012126073 0.013458589 0.00017534876 -0.030643176
-0.036607053 -0.004590231 -0.012617169 0.022093458 -0.01973619 -0.007246139 0.016973315 -0.017705377
0.022683151 -0.04882956 0.012039167 -0.024770733 -0.031977873 -0.013022771 -0.0063513354 -0.026918186
0.017423905 -0.026187902 -0.007795232 -0.04776998 -0.03421259 0.014845007 -0.020219045 0.0017885083
-0.0140329935 0.011171379 -0.046343565 0.0026850647 -0.03136998 -0.021307588 -0.044063285 0.008242237
0.03791053 0.01803642 0.0075388416 0.013776812 -0.004037847 0.037622973 -0.04381159 -0.02162755
0.018253172 0.0009327245 -0.05288735 0.047211915 -0.006215646 0.013994629 0.026737329 0.027170934
-0.008397675 0.005714439 -0.02733338 0.0013875102 -0.039723225 -0.010516365 0.00928009 0.005802376
-0.039684575 0.015097429 -0.045514185 -0.027407657 -0.03342196 -0.01803737 0.024455031 -0.004146406
-0.019047718 0.050736047 -0.0055925907 0.025743341 0.052149605 0.049262322 0.0068941507 0.010543796
-0.008605923 0.02014232 -0.0047392477 0.03660684 -0.012674221 0.029740915 0.02946121 0.032631088
-0.013142898 0.0034204228 -0.01966419 -0.059919138 0.010022341 0.013144226 -0.04605649 -0.051550925
0.024433387 0.036989395 -0.0436751 -0.026255684 -0.033363573 -0.004375321 0.0143758245 0.043234996
-0.037371907 0.0611938 -0.005620518 -0.04007369 0.019758908 -0.031941205 0.005120436 -0.011230187
00000000: 77a4 af3b c617 4d3c 15ef a53c b9c5 763d
00000010: 3862 58bc 3192 f23b 24d4 123d 2ebb c6bc
00000020: 0668 d1ba 9adf 1fbb 545e 743c 62ff 833c
00000030: 35a8 143d d8b1 6e3c 2183 673c 89b2 d9ba
00000040: bd18 393d c05f 153d 59b7 eb3c cf13 3fbc
00000050: e257 25bd 20a8 da3c c672 333c 8640 153c
00000060: 0af2 f23c 4826 273d 57f2 d0bc 3075 35bd
00000070: a0e4 57ba 7196 da3c 2f8e 9b3a 0e5e 99bb
00000080: 5eb2 d3bc a941 bd3c e71f d93c 9394 e2ba
00000090: 7974 073d 339b 2e3c cc33 9fbc 406d 15bb
000000a0: bec8 12bd 4320 dc3c ecbb 37bd 94b6 4f3b
000000b0: 35f0 62bc 6678 4ebc 89af 0e3d 3c38 003d
000000c0: 489d 5a3d 2d08 423d a6b9 febc 84ab 6abc
000000d0: 8607 72bb 8496 cb3c 3af3 99bc b657 11bd
000000e0: 773f 693b f3cc 2d3d fbbc 8e3c 8a16 02bd
000000f0: 43a6 12bc 621c 6cbd 91b5 513c d1fa 263d
00000100: f23f c63c af9c 9fba 5b4b 073d d4cf 273d
00000110: 9d6f c8bb 4900 1b3c 6100 b4bb 813b 6ebd
00000120: 05cc f1ba 6545 7e3d ea83 b03c 3b13 9fbc
00000130: 193d 33bb e3ad 2e3d c612 22bd fbf4 22bd
00000140: 6b63 4e3c c1a2 38bc a986 9bbb b267 19bd
00000150: 6016 21bd 3106 01bd b5a2 4fbd 2065 cfbc
00000160: 35d1 213b 6e96 48bd df70 1cbc 6c8b 6c3d
00000170: b19b 9c3c e09f 903c 0839 023d 53d9 123c
00000180: c069 84bc cd38 b63b 00c1 523d 0ab1 2cbb
00000190: d84c c13c 8f1a 913c dccf 51bc fb08 45bd
000001a0: aea7 903b ee93 1b3d 03db fcbc 80aa 2e3d
000001b0: 80bb 10bd 5984 b7bc 3afb 023d 06f8 1e3b
000001c0: e4b3 03bd b004 16bd b212 eabc 6996 70bc
000001d0: eb9b e0bb 0885 12bd 386b 17bd ce3b c0bc
000001e0: e927 be3c a3c7 51bc aa12 35bd fce8 093d
000001f0: 8722 dd3c 58c5 5ebc 11b0 e7bc 659b 2739
00000200: dc31 6cbc cef1 fabc 9cb6 213c 634e 65bd
00000210: 3a84 c0ba d016 85bc ccb3 003d 9bb8 9cbc
00000220: e05c e8bc 65aa 9dbc 08ac 59bb 0ea8 cfbc
00000230: 11fb 193b fbda df3c 7dae 1dbd 81a8 cabc
00000240: 6370 c1bc 9458 a0bc 8a8c 8fbc 8163 233c
00000250: 70ac 46bc 6a81 5c3c d3dd 3739 6607 fbbc
00000260: 47f1 15bd a669 96bb 3eb8 4ebc 57fd b43c
00000270: caad a1bc 0571 edbb 9f0b 8b3c de0a 91bc
00000280: 04d2 b93c 8101 48bd ed3f 453c feeb cabc
00000290: 3bfb 02bd 765d 55bc dd1e d0bb 8783 dcbc
000002a0: 94bc 8e3c 0388 d6bc 256f ffbb 74aa 43bd
000002b0: 8022 0cbd 7938 733c 69a2 a5bc 616c ea3a
000002c0: a4ea 65bc 2908 373c c0d2 3dbd e9f7 2f3b
000002d0: cf7d 00bd 408d aebc b47b 34bd 730a 073c
000002e0: 1248 1b3d 1dc1 933c 6308 f73b 23b8 613c
000002f0: ea4f 84bb 8c1a 1a3d c873 33bd 422c b1bc
00000300: ad87 953c 1582 743a 68a0 58bd 4861 413d
00000310: 9eac cbbb ba49 653c 3e08 db3c 9495 de3c
00000320: 6796 09bc 3040 bb3b 41ea dfbc 1edd b53a
00000330: d2b4 22bd d54c 2cbc 850b 183c dc21 be3b
00000340: 4b8c 22bd 355b 773c 156d 3abd 0686 e0bc
00000350: 77e5 08bd 1bc3 93bc eb55 c83c 93de 87bb
00000360: f609 9cbc 9ad0 4f3d 0d42 b7bb b3e3 d23c
00000370: d39a 553d 4ac7 493d 54e8 e13b e3bf 2c3c
00000380: dbff 0cbc 8201 a53c b14b 9bbb 0ef1 153d
00000390: 89a7 4fbc 38a3 f33c a358 f13c 2da8 053d
000003a0: 4f55 57bc 2c29 603b cc16 a1bc c56d 75bd
000003b0: bf34 243c e15a 573c bba5 3cbd 1027 53bd
000003c0: 8728 c83c 3182 173d a9e4 32bd 2916 d7bc
000003d0: 3ea8 08bd da5e 8fbb 9488 6b3c 2e17 313d
000003e0: 4913 19bd 5aa6 7a3d 522c b8bb 4f24 24bd
000003f0: 6fdd a13c c8d4 02bd 55c9 a73b d1fe 37bc

projection.bias f4 [5]
0.03445125 -0.014023923 -0.03500374 0.018906776 -0.0101167485
00000000: c11c 0d3d 99c4 65bc 1560 0fbd 62e2 9a3c
00000010: b8c0 25bc
