result/Dliner/classification_CropMapping_t31tfj_4in4Period_0.2train_DLinear/checkpoint.pth (torch, 15319 bytes, 6 tensors)

Linear_Seasonal.weight f4 [10, 10]
0.038845904 0.089725 0.13738129 0.1273655 0.027888425 0.028198963 0.022670852 0.027544308
0.13017823 0.182696 0.021130057 0.023285827 0.04983889 0.042001225 0.053836115 0.0479782
0.042386003 0.042674813 0.18280801 0.1697421 0.030736793 0.017966263 0.017853301 0.031080635
0.18560179 0.182989 0.19045517 0.18128891 0.1545148 0.060253147 0.028004583 0.018070886
0.041616924 0.06781981 0.09362651 0.08056123 0.07141244 0.07144963 0.1990792 0.17678243
0.047791317 0.050089024 0.09361854 0.048320856 0.0528902 0.052522715 0.04825856 0.051387686
0.13788699 0.17870574 0.044908345 0.03668901 0.12588634 0.0535318 0.023720827 0.025638137
0.029560274 0.02768052 0.19197024 0.17603545 0.009866095 0.019702783 0.027324073 0.04218543
0.15122363 0.14365059 0.14661112 0.14204466 0.18141206 0.11880041 0.015090924 0.01596161
0.022566574 0.07167625 0.17125532 0.16527483 0.16523282 0.16084254 0.1711933 0.09014825
0.0317471 0.034923084 0.01858521 0.10286449 0.16047837 0.15491858 0.1510791 0.14849979
0.15252523 0.08860406 0.0370717 0.049928214 0.036760014 0.06547456 0.09868842 0.0887765
0.090895504 0.08434233 0.15016933 0.1353492
00000000: e21c 1f3d bec1 b73d aead 0c3e 1a6c 023e
00000010: 4476 e43c 8301 e73c 39b8 b93c 9aa4 e13c
00000020: 714d 053e a914 3b3e f118 ad3c ebc1 be3c
00000030: dd23 4c3d 7a09 2c3d 4283 5c3d ca84 443d
00000040: f29c 2d3d c9cb 2e3d 0632 3b3e e0d0 2d3e
00000050: bacb fb3c fc2d 933c 1641 923c d19c fe3c
00000060: 650e 3e3e 7861 3b3e ae06 433e cda3 393e
00000070: 2139 1e3e 01cc 763d de69 e53c 6509 943c
00000080: 8276 2a3d 1de5 8a3d 41bf bf3d 49fd a43d
00000090: af40 923d 2f54 923d 6bdb 4b3e 7406 353e
000000a0: d4c0 433d 262a 4d3d 14bb bf3d 17ec 453d
000000b0: 65a3 583d 0f22 573d c5aa 453d e57b 523d
000000c0: 3f32 0d3e a3fe 363e d0f1 373d 3747 163d
000000d0: 59e8 003e 2944 5b3d 2e52 c23c 1207 d23c
000000e0: 6328 f23c 42c2 e23c d993 443e a342 343e
000000f0: 67a5 213c bb67 a13c bcd6 df3c a1ca 2c3d
00000100: 5eda 1a3e 2419 133e 3a21 163e 2874 113e
00000110: 15c4 393e a14d f33d ec3f 773c ecc1 823c
00000120: 89dd b83c ffca 923d 8e5d 2f3e ce3d 293e
00000130: cb32 293e e8b3 243e 4c4d 2f3e a59f b83d
00000140: 3f09 023d 820b 0f3d 0340 983c 9eaa d23d
00000150: 7154 243e faa2 1e3e 7bb4 1a3e 5410 183e
00000160: 932f 1c3e 0c76 b53d 7fd8 173d 8781 4c3d
00000170: ab91 163d 8717 863d 281d ca3d 74d0 b53d
00000180: 6c27 ba3d acbb ac3d fdc5 193e fb98 0a3e

Linear_Seasonal.bias f4 [10]
0.2712629 0.034696847 -0.26026672 0.28396353 0.16663627 -0.16827519 -0.005134596 0.2179079
0.2654766 0.14139014
00000000: f9e2 8a3e 481e 0e3d ae41 85be ab63 913e
00000010: b3a2 2a3e 5550 2cbe 1d40 a8bb 4023 5f3e
00000020: 8dec 873e 94c8 103e

Linear_Trend.weight f4 [10, 10]
0.18368249 0.18524045 0.18656401 0.18766427 0.18856771 0.18930393 0.18990052 0.19038156
0.19076708 0.19107427 0.179186 0.17970116 0.18010488 0.18042 0.18066348 0.18084992
0.18099028 0.18109336 0.1811663 0.18121444 0.1531259 0.15069498 0.14798014 0.1451486
0.14233208 0.1396197 0.13706797 0.13470517 0.13254097 0.1305725 0.17110682 0.17283872
0.17424667 0.17540704 0.17637195 0.17718042 0.17786139 0.17843732 0.17892678 0.17934406
0.18267594 0.1844351 0.18589763 0.18711199 0.1881179 0.18895014 0.19163789 0.19220573
0.19267249 0.19305488 0.18341886 0.18468843 0.18570776 0.1865136 0.18713968 0.18761471
0.1879642 0.18820906 0.1883679 0.1884559 0.16211237 0.16193436 0.1617432 0.16154683
0.16134976 0.16115533 0.16096655 0.16078387 0.16060835 0.1604401 0.17396705 0.17307343
0.17215656 0.17123197 0.17031194 0.16940586 0.16851996 0.16766013 0.16682932 0.16602936
0.15228258 0.15318862 0.15391865 0.15447752 0.15487424 0.15512037 0.15523197 0.15522467
0.15511367 0.15491447 0.16478454 0.16408926 0.16341332 0.16276343 0.16214283 0.16155267
0.16099362 0.16046445 0.15996465 0.15949237
00000000: 4317 3c3e acaf 3d3e a30a 3f3e 102b 403e
00000010: e517 413e e4d8 413e 4875 423e 62f3 423e
00000020: 7258 433e f9a8 433e 897c 373e 9503 383e
00000030: 6a6d 383e 05c0 383e d9ff 383e b930 393e
00000040: 8455 393e 8a70 393e a983 393e 4790 393e
00000050: 09cd 1c3e c94f 1a3e 1b88 173e d6a1 143e
00000060: 80bf 113e 77f8 0e3e 8c5b 0c3e 27f0 093e
00000070: d2b8 073e ccb4 053e a036 2f3e a2fc 303e
00000080: b86d 323e e79d 333e d99a 343e c96e 353e
00000090: 4c21 363e 46b8 363e 9538 373e f8a5 373e
000000a0: 670f 3b3e 8edc 3c3e f35b 3e3e 499a 3f3e
000000b0: fba1 403e 257c 413e b93c 443e 94d1 443e
000000c0: f04b 453e 2eb0 453e 27d2 3b3e f71e 3d3e
000000d0: 2d2a 3e3e 6cfd 3e3e 8ba1 3f3e 121e 403e
000000e0: b079 403e e0b9 403e 84e3 403e 95fa 403e
000000f0: c900 263e 1fd2 253e 02a0 253e 886c 253e
00000100: df38 253e e705 253e 6ad4 243e 87a4 243e
00000110: 8476 243e 694a 243e 6b24 323e 293a 313e
00000120: cf49 303e 6f57 2f3e 4166 2e3e bb78 2d3e
00000130: 7f90 2c3e 19af 2b3e 4ed5 2a3e 9a03 2a3e
00000140: f7ef 1b3e 7add 1c3e da9c 1d3e 5b2f 1e3e
00000150: 5a97 1e3e e0d7 1e3e 21f5 1e3e 37f3 1e3e
00000160: 1ed6 1e3e e6a1 1e3e 47bd 283e 0407 283e
00000170: d255 273e 75ab 263e c508 263e 106e 253e
00000180: 83db 243e cb50 243e c6cd 233e f851 233e

Linear_Trend.bias f4 [10]
0.23508005 0.02742974 -0.298126 -0.17140408 -0.021750068 0.034240957 0.108207844 0.27382463
0.30932975 -0.2690809
00000000: d3b8 703e 56b4 e03c f9a3 98be 8d84 2fbe
00000010: 332d b2bc 3f40 0c3d 139c dd3d be32 8c3e
00000020: 7860 9e3e f9c4 89be

projection.weight f4 [5, 610]
-0.0073714955 0.046053525 0.049137093 0.09266553 0.007369955 0.040332735 0.04054455 -0.03743477
0.030029103 -0.0051791803 -0.01673219 -0.003926728 0.050741307 0.023247067 0.014048548 0.01668973
0.058214393 0.04386186 0.036229026 -0.005985911 -0.067562245 0.02276775 -0.022323001 0.007457188
0.03436228 0.039091423 -0.010814238 -0.050588917 -0.020808196 0.032019015 0.018994978 0.013488103
-0.01709401 0.04899116 0.049623042 0.019834632 0.051273514 0.02319895 0.0027240384 -0.015629994
-0.04561794 0.011536292 -0.058094688 -0.04265336 -0.019494701 0.004664495 0.045381468 0.059468057
0.07652556 0.062805384 -0.009461083 -0.015764838 -0.0014463449 0.032703273 0.004933696 -0.028939785
-0.0032726147 0.020156793 0.031948157 -0.029275572 0.026999863 -0.07288419 0.05075167 0.07507825
0.06259294 0.007696944 0.06948884 0.041958462 -0.023224639 0.030984258 -0.017742848 -0.08985008
-0.023149185 0.08180894 0.018775571 -0.026153939 0.020666543 0.05324238 -0.030656973 -0.03818613
0.015637547 -0.04535845 -0.012108457 -0.07819476 -0.057036247 -0.041568033 -0.06888787 -0.019808343
-0.0029609208 -0.07118719 -0.010439628 0.07503196 0.037487336 -0.0031164947 0.057930622 0.03155449
0.0045008827 0.023380022 0.057444483 0.024164852 0.004980247 0.0013574664 -0.03584761 -0.06743762
-0.044986803 0.014237113 -0.01944656 0.041796405 -0.0092885075 -0.015244845 0.02919381 -0.0032955783
-0.0532047 -0.05013616 -0.035367534 -0.0030639376 -0.015343824 -0.052717246 -0.06836249 -0.013596513
0.020718673 0.02398589 -0.062594734 0.025816016 0.017429484 -0.023777818 -0.04130197 0.0039915997
-0.034876555 -0.04857815 0.009383544 -0.07040892 -0.02188805 -0.030508397 0.052597098 -0.026878586
-0.031147206 -0.010323872 0.0075942823 -0.025157757 0.0029056573 0.032640994 -0.056352314 -0.034586996
-0.04445259 -0.047725935 -0.038903452 -0.0109293945 -0.025065951 0.00801061 -0.017692043 -0.042622875
-0.045236226 -0.018323733 -0.024975833 0.014035891 -0.025102101 -0.022512514 0.015155064 -0.033227123
0.030114913 -0.07068622 0.0059761587 -0.04270946 -0.043783598 -0.042448252 -0.02531288 -0.04087943
-0.0099492185 -0.045958247 -0.041746024 -0.07614692 -0.06729884 -0.018464915 -0.050878864 -0.027975498
-0.03896172 -0.01694397 -0.075117834 -0.031194389 -0.04903653 -0.034813806 -0.03848643 -0.007871863
0.07333409 0.050039012 0.043021467 0.01906449 0.030695431 0.037887525 -0.061271764 -0.0034358813
0.0058799167 -0.028692067 -0.0721025 0.07154212 -0.0068083447 0.011257351 0.052996334 0.039146654
0.003027762 0.011811922 -0.018726708 -0.029201943 -0.04694394 -0.047675043 -0.0120979445 -0.006772812
-0.056809336 0.0187123 -0.04894501 -0.047800064 -0.03353582 -0.0005555519 0.04247376 -0.026741764
0.0051690205 0.0717238 0.01276694 0.042390943 0.05539717 0.07487298 -0.0114008235 -0.002811155
-0.027600097 0.004776171 -0.058464814 0.012969508 -0.003497615 0.021776786 0.04813368 0.029945344
-0.024343936 -0.0106376 -0.04658451 -0.07933662 -0.0035774896 0.015835851 -0.06071257 -0.072770424
-0.008752198 0.04398955 -0.046009857 0.008200031 -0.04834266 0.033584524 0.04847312 0.081465885
-0.025851501 0.09907174 -0.0031741923 -0.056291107 0.046741992 -0.03996279 -0.02626998 -0.031878036
00000000: 968c f1bb 9fa2 3c3d fa43 493d 6dc7 bd3d
00000010: aa7f f13b f033 253d 0b12 263d 3455 19bd
00000020: 98ff f53c 1db6 a9bb f211 89bc c8ab 80bb
00000030: 1ed6 4f3d a270 be3c e22b 663c e7b8 883c
00000040: 3772 6e3d 7ea8 333d e364 143d 7625 c4bb
00000050: 135e 8abd 6f83 ba3c bade b6bc 6d5b f43b
00000060: 76bf 0c3d 541e 203d 342e 31bc 5336 4fbd
00000070: f375 aabc 5f26 033d 5b9b 9b3c 34fd 5c3c
00000080: bd08 8cbc f4aa 483d 8841 4b3d 3d7c a23c
00000090: 2d04 523d b90b be3c c885 323b 790a 80bc
000000a0: e1d9 3abd b702 3d3c b2f4 6dbd 4ab5 2ebd
000000b0: 5ab3 9fbc 9fd8 983b ebe1 393d c794 733d
000000c0: 6fb9 9c3d 1ca0 803d a902 1bbc 4325 81bc
000000d0: 4893 bdba def3 053d d7aa a13b 2113 edbc
000000e0: 5d79 56bb dc1f a53c 12dc 023d 53d3 efbc
000000f0: d12e dd3c 4e44 95bd fce0 4f3d a0c2 993d
00000100: ba30 803d a536 fc3b 2a50 8e3d a3dc 2b3d
00000110: 9941 bebc b3d2 fd3c 7359 91bc 5203 b8bd
00000120: 5ca3 bdbc 728b a73d 3acf 993c c940 d6bc
00000130: e24c a93c af14 5a3d 5524 fbbc 0f69 1cbd
00000140: 501a 803c c8c9 39bd 8d62 46bc 9324 a0bd
00000150: d79e 69bd 3e43 2abd 1515 8dbd 1b45 a2bc
00000160: 020c 42bb 97ca 91bd f90a 2bbc 5baa 993d
00000170: 528c 193d 1b3e 4cbb a948 6d3d 483f 013d
00000180: 247c 933b 7687 bf3c e84a 6b3d 5ef5 c53c
00000190: 5731 a33b 04ed b13a f2d4 12bd bc1c 8abd
000001a0: 1544 38bd c842 693c 644e 9fbc b532 2b3d
000001b0: d32e 18bc 84c5 79bc db27 ef3c a1fa 57bb
000001c0: 2ced 59bd 935b 4dbd 8cdd 10bd 58cc 48bb
000001d0: aa64 7bbc 0aee 57bd a201 8cbd e9c3 5ebc
000001e0: 35ba a93c 0f7e c43c ab31 80bd 1c7c d33c
000001f0: 47c8 8e3c b3c9 c2bc 412c 29bd f7cb 823b
00000200: b8da 0ebd e2f9 46bd 70bd 193c 8d32 90bd
00000210: 914e b3bc bfec f9bc 0e70 573d 7b30 dcbc
00000220: 6d28 ffbc 7525 29bc 75d9 f83b a417 cebc
00000230: d76c 3e3b 90b2 053d afd1 66bd 18ab 0dbd
00000240: eb13 36bd 457c 43bd 3a59 1fbd 3411 33bc
00000250: 1c57 cdbc ef3e 033c e7ee 90bc 5395 2ebd
00000260: 9f49 39bd a71b 96bc 1e9a ccbc cbf6 653c
00000270: eca2 cdbc 2a6c b8bc f24c 783c 2a19 08bd
00000280: 8db3 f63c f0c3 90bd a7d3 c33b 1df0 2ebd
00000290: 6e56 33bd 38de 2dbd f55c cfbc 3071 27bd
000002a0: 0c02 23bc b73e 3cbd e1fd 2abd ebf2 9bbd
000002b0: f9d3 89bd bc43 97bc 5b66 50bd df2c e5bc
000002c0: 5396 1fbd 15ce 8abc 61d7 99bd 608b ffbc
000002d0: 87da 48bd ec98 0ebd f2a3 1dbd fdf8 00bc
000002e0: 2f30 963d b5f5 4c3d 4737 303d 222d 9c3c
000002f0: fc74 fb3c f32f 1b3d 1af8 7abd 862c 61bb
00000300: 51ac c03b a00b ebbc 7aaa 93bd ad84 923d
00000310: 8918 dfbb c170 383c af12 593d 3e58 203d
00000320: 6b6d 463b cb86 413c c168 99bc ea38 efbc
00000330: 4a48 40bd e846 43bd 7536 46bc 77ee ddbb
00000340: e8b0 68bd 8a4a 993c 907a 48bd 00ca 43bd
00000350: db5c 09bd 75a2 11ba f7f8 2d3d 8b11 dbbc
00000360: e360 a93b ede3 923d 6d2c 513c 20a2 2d3d
00000370: 25e8 623d 0157 993d 85ca 3abc 5b3b 38bb
00000380: 9919 e2bc 6d81 9c3b cd78 6fbd 0f7e 543c
00000390: 3e38 65bb 3b65 b23c d227 453d f04f f53c
000003a0: ef6c c7bc 5449 2ebc 66cf 3ebd 3d7b a2bd
000003b0: 5174 6abb 30ba 813c bead 78bd a908 95bd
000003c0: 6165 0fbc 632e 343d d574 3cbd 6c59 063c
000003d0: f402 46bd ed8f 093d c08b 463d 96d7 a63d
000003e0: 87c6 d3bc 20e6 ca3d 1c06 50bb 8191 66bd
000003f0: 8874 3f3d 06b0 23bd 2434 d7bc 8b92 02bd

projection.bias f4 [5]
0.04441113 -0.019218279 -0.03597222 0.010213162 -0.013501763
00000000: 72e8 353d a76f 9dbc 9b57 13bd 1b55 273c
00000010: 8036 5dbc
