result/Dliner/classification_CropMapping_t32ulu_3in4Period_0.5train_DLinear/checkpoint.pth (torch, 8535 bytes, 6 tensors)

Linear_Seasonal.weight f4 [10, 10]
000000 78 df a4 3d 92 3c bb 3d d9 46 7a 3d 7c 77 c1 3d
       0.08050436 0.09142412 0.06110272 0.09446618
000010 73 2e 52 3e b0 0d 4e 3e c6 1c 41 3e 86 2e 47 3e
       0.20525531 0.20122409 0.18858632 0.19451341
000020 3d a9 b2 3d 42 9b 47 3d cd 9a ca bd 0a ed d6 3d
       0.08723686 0.04873205 -0.09892807 0.1049443
000030 c7 fa f9 3d df 41 8f 3e 7f 58 03 3e 7b 39 44 3d
       0.12206035 0.27979943 0.12826727 0.04790638
000040 f6 0a d4 3c 11 a7 48 3d 01 11 90 3e f5 02 38 3e
       0.025884133 0.048987452 0.28137973 0.17969878
000050 bf 05 a8 bc dc cd fd 3d 1a 68 b1 3c 94 3a 9b 3e
       -0.020510552 0.1239278 0.021656085 0.3031813
000060 76 6c 8d 3e 56 05 51 3e bb 31 4b 3e 84 f3 4c 3e
       0.27621812 0.20412192 0.1984319 0.20014769
000070 23 63 1c 3e 01 e9 dc bb 16 40 0d 3d 65 3f 2b 3e
       0.15272193 -0.0067416434 0.034484945 0.16723402
000080 87 a8 bc 3d 20 2c 79 3e 77 c0 95 3e df 73 0a 3e
       0.092118315 0.24333239 0.29248402 0.13520764
000090 33 8e f9 3d ba 9b 13 3e fc ad 28 3e 41 6c 8c 3d
       0.121853255 0.14414874 0.1647262 0.06856585
0000a0 c5 f1 80 bd 27 91 e0 3d d8 1b 1f 3e e3 b7 a1 3e
       -0.06296114 0.109651856 0.15537965 0.31585607
0000b0 8c 95 c0 3d 27 53 09 3c 25 4a e3 bb 80 32 23 3c
       0.09403524 0.0083816415 -0.006936329 0.009960771
0000c0 d9 0e a3 3e 5a 76 65 3e 46 dd 17 bc d9 d4 65 3e
       0.31847265 0.22408429 -0.009269064 0.22444476
0000d0 2f bd e3 bc 31 66 61 3e 5e 7c 8c 3e a9 41 70 3e
       -0.02780017 0.22011639 0.27438635 0.23462547
0000e0 14 76 5f 3e 31 94 68 3e cd de 95 bc 57 6c 97 bc
       0.21822387 0.2271278 -0.018294716 -0.018484278
0000f0 75 36 ae 3c 3c 97 8b 3d b4 72 33 bd bf f6 ce 3d
       0.021266202 0.06815955 -0.04381056 0.10105657
000100 0c 6b aa 3e a7 25 8d 3e 9f 83 8a 3e 19 5f 8c 3e
       0.33284795 0.2756779 0.27053544 0.27416304
000110 ef 7d b9 3d 09 1b 94 bc 19 87 3b bd 1f 65 ea bc
       0.09057223 -0.018079298 -0.045783136 -0.028612671
000120 09 ed 5e 3d 29 b4 2e 3d d9 da 11 3e 2f d2 05 3e
       0.054425273 0.042652283 0.1424364 0.1306846
000130 07 71 e6 3d c0 18 fb 3d 7d 9e f8 3d 62 af f1 3d
       0.11252027 0.1226058 0.12139604 0.1180103
000140 5a 1e e6 3d 9b 2d c5 3d 46 9a 1e bd 79 23 a4 3c
       0.11236258 0.09627839 -0.038721345 0.020036446
000150 bd 80 50 3e 84 01 45 3e 6f db 40 3e b2 5d 3e 3e
       0.2036161 0.1923886 0.18833707 0.1859043
000160 de ca 35 3d 69 76 e7 3c 15 97 ca bc 1c 6a 6d 3e
       0.044382922 0.028254705 -0.024730245 0.23185009
000170 2b 2e 5a bd 80 a9 77 3e ed 08 a2 3e 8b 5f 81 3e
       -0.053266685 0.24185753 0.31647435 0.25268206
000180 ec eb 6c 3e 63 4f 73 3e b8 bf c0 3d f7 5a 5c bd
       0.23136872 0.23760752 0.094115674 -0.05379769

Linear_Seasonal.bias f4 [10]
000000 fa d9 73 3e 25 ef 49 3d 6d 26 80 be 8b 74 87 3e
       0.2381362 0.04930033 -0.25029317 0.26456103
000010 f4 d2 0e 3e b1 23 2f be 1a 0f e1 3c 12 cc 6d 3e
       0.1394766 -0.17103459 0.027473021 0.23222378
000020 76 16 76 3e 9b 52 01 3e
       0.24032006 0.12629168

Linear_Trend.weight f4 [10, 10]
000000 e6 0e fb 3d 6f f1 f2 3d 8c cb eb 3d d8 7a e5 3d
       0.12258701 0.11862456 0.11513433 0.11205071
000010 ac ef df 3d 07 17 db 3d 13 db d6 3d 44 26 d3 3d
       0.10934386 0.106977515 0.10491004 0.10310033
000020 e2 e4 cf 3d f7 05 cd 3d c4 f7 76 3e 06 c5 76 3e
       0.10151078 0.10010903 0.24117953 0.24098596
000030 e5 85 76 3e 7e 3f 76 3e 5c f5 75 3e c7 a9 75 3e
       0.24074514 0.24047658 0.24019378 0.23990546
000040 3b 5e 75 3e ab 13 75 3e 22 cb 74 3e a3 84 74 3e
       0.23961727 0.23933284 0.23905614 0.23878722
000050 ca 88 3f 3e 4f 4b 3e 3e 5a d9 3c 3e a0 39 3b 3e
       0.18704525 0.18583415 0.18442288 0.18283701
000060 07 73 39 3e e9 8c 37 3e b9 8d 35 3e b7 7b 33 3e
       0.18110286 0.17924847 0.17729844 0.17527662
000070 a2 5b 31 3e ce 31 2f 3e 6e ce 9b 3e e4 39 a0 3e
       0.17320111 0.17108843 0.3043093 0.31294167
000080 6a 12 a4 3e 61 f9 a6 3e f1 55 a8 3e b8 89 a7 3e
       0.320453 0.32612136 0.32878068 0.3272226
000090 e9 18 a5 3e 75 ef a1 3e c8 4f 9e 3e bc 56 99 3e
       0.32245567 0.31628004 0.30920243 0.29948986
0000a0 66 28 89 3e 88 12 8a 3e bd ca 8a 3e 14 5d 8b 3e
       0.26788634 0.26967263 0.27107802 0.2721945
0000b0 35 d2 8b 3e b9 30 8c 3e 6f 7d 8c 3e 79 bc 8c 3e
       0.27308813 0.27380922 0.27439448 0.27487543
0000c0 4c f0 8c 3e 87 1b 8d 3e 92 78 32 3e 57 eb 23 3e
       0.27527082 0.27560064 0.17428806 0.16007744
0000d0 db 60 16 3e c3 11 0a 3e b6 18 fe 3d ea 8a ea 3d
       0.14685385 0.13483338 0.12407057 0.11452277
0000e0 ae 45 d9 3d 62 0a ca 3d 00 98 bc 3d 97 b2 b0 3d
       0.106089935 0.098652616 0.09208679 0.08627813
0000f0 7e 06 73 3e c6 62 5c 3e 28 89 48 3e ee ab 37 3e
       0.23732945 0.21522054 0.19583571 0.1793668
000100 ce 82 29 3e 37 a2 1d 3e c2 a0 13 3e c5 23 0b 3e
       0.16553804 0.15393911 0.14416793 0.13587864
000110 bc e1 03 3e c2 40 fb 3d 18 34 24 3e 45 70 25 3e
       0.1287908 0.12268211 0.16035497 0.16156109
000120 38 65 26 3e e9 23 27 3e 0c b9 27 3e 52 2e 28 3e
       0.1624955 0.16322292 0.16379184 0.1642392
000130 8f 8a 28 3e 7f d3 28 3e 14 0d 29 3e 61 3a 29 3e
       0.16459106 0.1648693 0.16508895 0.16526176
000140 7b 4f ee 3d 45 43 d9 3d cc 81 c8 3d e7 0a bb 3d
       0.116362534 0.10608534 0.09790382 0.09132939
000150 a5 17 b0 3d a3 11 a7 3d 2a 8a 9f 3d 6d 2e 99 3d
       0.0859826 0.08157661 0.077900246 0.07479558
000160 29 c1 93 3d 4a 13 8f 3d 00 ee 30 3e f9 1c 2b 3e
       0.07214577 0.06986101 0.1727829 0.16710271
000170 24 32 25 3e 4d 39 1f 3e f4 3c 19 3e af 46 13 3e
       0.16132408 0.15549202 0.14964658 0.14382432
000180 d0 5f 0d 3e 16 90 07 3e 6d de 01 3e 08 a0 f8 3d
       0.13806081 0.13238558 0.12682505 0.121398985

Linear_Trend.bias f4 [10]
000000 bb cc 4e 3e 16 2b 2c 3d b4 88 93 be ae 62 43 be
       0.20195286 0.042033277 -0.28815234 -0.19080612
000010 df 55 48 bd 72 f2 00 3d 1a 32 10 3e f0 86 93 3e
       -0.048910018 0.031481214 0.14081612 0.28813887
000020 18 7f 91 3e 00 80 91 be
       0.28417277 -0.2841797

projection.weight f4 [5, 270]
000000 bc ee 58 3c 4a bb a7 bd 6a 79 9e bd ca ab 61 3d
       0.013240512 -0.081900194 -0.07738002 0.05509547
000010 26 1d 4a ba 4f 67 89 bd ec 21 1a 3c e4 0b 09 3d
       -0.0007710032 -0.06709158 0.009407502 0.033458605
000020 00 29 57 3c af 92 c9 bb ab 76 5b 3d 2c 76 3e 3d
       0.013132334 -0.0061515193 0.053579967 0.046499416
000030 7c f4 85 3d 23 9f a6 3d 15 5e 67 3d cd 9c 3c 3d
       0.06540772 0.08135822 0.056486208 0.046047974
000040 82 ae 64 3d ff b2 7f 3d fb cb 24 3d 6c 06 6f bc
       0.055830486 0.062426563 0.040233593 -0.014588933
000050 c2 08 b8 bc 82 7a 5d 3d 70 ac 18 3d c6 8d ce 3c
       -0.022465114 0.05407191 0.037273824 0.025214087
000060 b2 ec 6b 3c 3f 1c 89 3c 71 ed 22 bd 14 27 da bd
       0.014399694 0.016737102 -0.039777223 -0.10651985
000070 f8 ef 00 be 4b 85 f3 bd 0c 72 58 bc 30 65 8d 3c
       -0.12591541 -0.11890658 -0.013210785 0.017260164
000080 2b 36 1a be 8c 6b 19 bb 5a ad ba 3d 13 a1 df bb
       -0.15059726 -0.002341005 0.091150954 -0.0068246215
000090 fa ad 39 3d 71 49 ad 3c 6b 78 e1 bc fe 24 d9 bb
       0.045331933 0.021153184 -0.02752324 -0.0066267243
0000a0 f6 1d 85 bd 9e c7 17 bd 0f 3b 63 be 07 8f 1b 3d
       -0.06499855 -0.037055604 -0.22190498 0.0379782
0000b0 28 32 e5 bd 7e 68 c2 bd 11 c0 90 3d 39 54 24 bd
       -0.11191207 -0.094925866 0.07067884 -0.040119383
0000c0 e2 67 74 bd 3b 00 1a bd 30 86 ab bd e5 63 27 bd
       -0.059669383 -0.037597876 -0.083752036 -0.04086675
0000d0 f4 23 9e bc 36 16 19 3e 58 51 f1 bc ea 42 9e bd
       -0.019304253 0.14949879 -0.029457733 -0.077276066
0000e0 6a c6 a6 bc d5 34 ac 3d 5e 65 18 3d a5 e7 9c bd
       -0.020358283 0.084085144 0.037206046 -0.0766137
0000f0 90 ed 1b bd f5 dc 94 3a 1d ee d3 3b cb 60 0f 3d
       -0.038068354 0.0011357354 0.0064675943 0.03500442
000100 11 40 91 3c 6e 98 39 3d c5 e9 91 3d 5c 05 06 3e
       0.017730745 0.045311384 0.07124666 0.13087982
000110 8a 99 8b 3d 40 6b dd 3d db 3c 78 3d ed d8 00 bd
       0.068163946 0.10811472 0.06060491 -0.031456877
000120 77 9a 16 3d ec 4b b1 3d 3b cb 55 3d c5 a5 64 bc
       0.036768403 0.08657059 0.05219577 -0.013955538
000130 cb 9e 93 bc 78 91 e5 3c 02 2e 90 bd be 89 8b bd
       -0.018020054 0.028023466 -0.07040025 -0.068133816
000140 2a 79 4b 3d 12 ef f4 bc bd b3 d8 bd 2c 26 42 be
       0.049676098 -0.029899154 -0.10581157 -0.18959874
000150 b7 62 a0 3b f6 e0 2d 3d 5a 7a 1e be 8c 3e f9 bc
       0.00489458 0.042450868 -0.15476361 -0.030425332
000160 81 a4 02 3e 74 d4 b4 bc c7 a0 fc 3c 75 1f e6 3d
       0.12758066 -0.022073962 0.030838383 0.11236469
000170 40 39 5d 3d b4 15 c1 3d 57 ae 01 3e 68 c5 36 bc
       0.054009676 0.09427968 0.12664162 -0.011155464
000180 97 5d ac bd 56 5e 58 3d 24 68 db 3b 81 aa 75 bd
       -0.08416288 0.05282434 0.006695764 -0.05997706
000190 d8 aa ac 3d 63 17 59 bc d8 5f b5 bd 72 3f f3 bd
       0.08431023 -0.013250205 -0.08856171 -0.118773356
0001a0 05 2b 1b bc b3 2e 3c bb 3f 94 04 be 16 60 1c 3e
       -0.009470706 -0.0028714358 -0.12947176 0.15271029
0001b0 14 ea eb bd 57 88 35 be e6 e1 05 be 49 6c 6b 3d
       -0.11519256 -0.17727791 -0.13074455 0.057476316
0001c0 1d ee 1b 3d 6b 67 f3 bd 9b b6 ad bc 24 84 b1 3d
       0.03806888 -0.1188496 -0.021205237 0.08667782
0001d0 17 73 59 3d e6 70 02 3c 3a 50 da bc 86 ee 02 bd
       0.053088274 0.007961487 -0.026649583 -0.031965755
0001e0 81 82 14 3d 94 17 a5 bd 16 52 1d be 5e e9 3e be
       0.03625727 -0.08061138 -0.15363345 -0.1864371
0001f0 6a 9c 35 3d a5 0d ef bd 97 cb 94 bd fb 96 f7 3c
       0.04433862 -0.11672524 -0.07265394 0.03022336
000200 6c bd a7 bd 24 86 09 be f5 4c 33 bd c2 98 ea bd
       -0.08190426 -0.13430077 -0.043774564 -0.114549175
000210 ac 1f 61 3c a9 68 4f bc 52 9f 27 3e e7 72 c2 bc
       0.013740461 -0.01265923 0.1636937 -0.02373643
000220 53 e2 9f bd 1e f4 b8 bd 78 25 f6 3a 8a 09 d7 3c
       -0.0780684 -0.09030937 0.0018779477 0.026249666
000230 34 f5 ac bc c3 76 15 3d 43 fc 94 3d 6b 9f 2a bc
       -0.021113016 0.036490213 0.072746776 -0.010413985
000240 a7 66 a1 3b d6 e6 c9 3c d9 5f f2 3c 38 75 36 3e
       0.004925567 0.024646204 0.02958672 0.17818153
000250 7a 68 2d 3e 14 2d 2b 3e f5 e2 6c 3e c7 76 e4 3c
       0.16934386 0.16716415 0.23133452 0.027888669
000260 d2 d4 2b 3c 12 1d f8 bb 94 fc 01 3d fd 71 9d 3d
       0.010487752 -0.007571825 0.031735018 0.07687757
000270 40 7f 99 3c c7 68 1f bd 26 09 a8 3c 79 8d 05 be
       0.018737435 -0.038918283 0.020512175 -0.13042249
000280 a1 f1 5d bd 61 7b 1f bd 95 aa 90 ba 9e 29 e2 bd
       -0.054185513 -0.038936023 -0.0011037166 -0.11043094
000290 e4 c1 24 be d2 7e 9f 3c 46 7b 21 3d f6 4c d7 bd
       -0.16089588 0.019469652 0.039424203 -0.10512726
0002a0 aa ce e7 bb c0 a5 41 3d ec 29 2a 3c d0 22 84 bd
       -0.007074197 0.047277212 0.0103859715 -0.064519525
0002b0 87 09 13 bc 16 4a 86 3d 10 7e 16 3e 42 24 47 3e
       -0.008974439 0.065570995 0.14696527 0.19447425
0002c0 55 df e5 3d a0 ba 69 3e 2a 5c 08 3d 78 d2 75 3d
       0.11224238 0.22825098 0.03329102 0.06001517
0002d0 e0 4e 29 bd 70 d3 c1 3c 89 ba 0b bd 3a 0b 81 3d
       -0.041334987 0.023660392 -0.03411344 0.063009694
0002e0 eb f4 99 3b 5c 21 e1 bc 7b d2 dc bd 60 e0 08 bd
       0.004698386 -0.027481727 -0.107823335 -0.033417106
0002f0 36 d9 46 bd ed 43 b2 3c 8f 1d d1 bd 98 96 b1 bd
       -0.048546992 0.021760905 -0.10210716 -0.086713016
000300 2d 40 77 3d e5 42 54 3d c9 65 c1 bd 1c 04 c2 3c
       0.060363937 0.051821608 -0.09443242 0.0236836
000310 2a 9f e7 3c 54 dc 3a 3d 50 dd fa 3c 94 f5 07 3c
       0.028274138 0.045620278 0.030623108 0.0082982965
000320 dc bc 00 3c a1 36 59 3d 92 2e 80 bb 17 3b 55 3d
       0.007857528 0.053030614 -0.0039118016 0.052058306
000330 3f 3a ae bc 7b 90 59 3d fa a9 58 3d da e0 01 3d
       -0.021268008 0.053116303 0.052896477 0.031708576
000340 ec 84 1e bc 9a cf 68 3d 19 b4 5a bd d1 06 fd bc
       -0.009675246 0.05683861 -0.05339441 -0.03088704
000350 37 aa 5c bd 99 02 a7 bd de 91 bc bc 2b 97 65 bc
       -0.053873267 -0.08154792 -0.023018774 -0.014013092
000360 bc df 90 bd f1 3c 54 bc ed 29 ca bd ba fc d6 3b
       -0.07073924 -0.012953983 -0.09871278 0.006560889
000370 cf 71 84 3d 42 1f 9b 3c 59 b7 e9 bb 76 12 14 3d
       0.0646702 0.018935803 -0.0071324524 0.03615042
000380 f2 bb 2f 3c f0 ff 32 3d 68 45 c2 3c a8 da 2f 3d
       0.010725962 0.043701112 0.023714736 0.042933136
000390 47 ca 85 3a 64 bc c2 3d 6e fd 93 3d 6d 17 d0 3d
       0.0010207378 0.09508589 0.07226072 0.10160718
0003a0 63 90 9f bc ec 3f 60 3d 6d d4 e0 bb aa 20 27 bd
       -0.019478029 0.05474846 -0.0068612606 -0.040802635
0003b0 c0 55 44 3d 56 99 4c 3d b1 9e 38 bd 9f ce 5b bd
       0.04793334 0.04995092 -0.045073215 -0.053663846
0003c0 16 87 8f 3a a2 c1 09 3b 8d d3 6f bd f1 b8 95 bd
       0.0010950293 0.0021019955 -0.05855136 -0.073106654
0003d0 39 cb aa bd ed 8e 06 be a4 e4 3f 3a f0 87 9c 3d
       -0.08339543 -0.1314046 0.0007320142 0.076431155
0003e0 63 69 ab bd 94 c2 07 3d 19 f9 9d 3d 6d cd 85 bc
       -0.0836971 0.03314455 0.07713527 -0.016333306
0003f0 27 5c 86 3d 4f 83 ec 3a ef 1a 90 3d 69 af 22 3e
       0.065605454 0.0018044504 0.07036387 0.15887226

projection.bias f4 [5]
000000 9e 19 49 3d 40 8e 0d 3d bf 1b 29 bd ba 6b 02 bd
       0.049096696 0.03455949 -0.041286226 -0.031841017
000010 b8 a6 d3 3c
       0.025836334
