result/Dliner/classification_CropMapping_t32ulu_4in4Period_0.01train_DLinear/checkpoint.pth (torch, 10711 bytes, 6 tensors)

Linear_Seasonal.weight f4 [10, 10]
00000000: 65d7 e43d 612b e13d 1a39 e03d 8f1a ea3d
00000010: 9b9f ce3d 7642 bd3d 8bc1 b53d 5100 c43d
00000020: a351 e03d 7fdb c63d 44a2 9e3d 64d6 a73d
00000030: 5ab1 a23d 0741 d13d cf44 f13d d900 d53d
00000040: 1a5a d43d be34 cf3d d957 ec3d d7c4 ea3d
00000050: f91c e03d aaaa f13d 5c43 fb3d 4e88 f73d
00000060: c2c7 bc3d 166c ab3d 4168 ad3d fef7 af3d
00000070: b24f f83d ee3d e23d b70d 9d3d 36b5 a53d
00000080: 376f b33d 7d57 f93d 4e74 be3d 0aac aa3d
00000090: 24d2 a83d 04a5 a83d 34e5 ef3d c5e8 f43d
000000a0: 1287 d63d 6585 d03d 8fd4 f33d 9c91 cf3d
000000b0: b125 af3d 3404 ad3d 025a ab3d 2279 ab3d
000000c0: cf91 a23d 7754 ef3d 1d74 a13d 6cdf a63d
000000d0: 7fc7 9d3d 86ce b33d ab32 013e 35dd ff3d
000000e0: ca1c 003e 8ad7 ff3d dc8b ec3d a3ca 963d
000000f0: 7462 9d3d 3c24 a13d c1c8 ea3d 2709 d33d
00000100: 19e9 a33d 39fb 9d3d ed23 9e3d fbf3 9d3d
00000110: 48a6 fd3d 2ef9 fc3d 3b5d fa3d 4286 d13d
00000120: 3d71 f53d 3ab3 c53d 5bf9 a03d aefd a13d
00000130: 6e30 a03d 2d0a a13d 7e7b b43d 57a4 f53d
00000140: 3617 b73d 3ece 9f3d a577 ad3d 48d8 9b3d
00000150: 8953 a23d 2cda ce3d ecc3 cf3d 8035 c33d
00000160: ae5e c63d a5e7 f93d 969f b63d 6de0 e93d
00000170: 6938 9b3d 5994 d63d 6fe1 fd3d e3c5 fc3d
00000180: b5be fc3d 1172 fc3d fb62 a13d 4425 9e3d
0.11173896 0.10994602 0.10948391 0.11430847 0.10089036 0.09241192 0.08874806 0.09570373
0.10953071 0.09709834 0.077457935 0.08195189 0.079439834 0.10217481 0.11780702 0.10400552
0.10368748 0.10117482 0.11540193 0.114633255 0.10943026 0.1180013 0.12268707 0.12086545
0.09217788 0.08370225 0.084671505 0.08592223 0.12124576 0.110469684 0.076686315 0.08091204
0.08761447 0.1217489 0.09299527 0.08333595 0.08243206 0.08234599 0.11713639 0.1195846
0.10474981 0.10181693 0.11905777 0.10135195 0.08552111 0.08448067 0.08366777 0.083727136
0.07937967 0.11686032 0.07883475 0.08148083 0.077040665 0.087796256 0.12616985 0.12493364
0.12510982 0.12492283 0.115501136 0.07362869 0.07684794 0.07868239 0.11464072 0.1030448
0.08003444 0.077139325 0.07721696 0.07712551 0.12385231 0.12352215 0.122248136 0.10230686
0.11984489 0.096533254 0.07860061 0.07909714 0.07821737 0.07863269 0.08812617 0.11994236
0.08939974 0.078030095 0.08470086 0.07609612 0.07926089 0.10100207 0.10144791 0.09531689
0.096860275 0.12202386 0.08917157 0.11419759 0.07579119 0.10477514 0.12396514 0.123424314
0.12341062 0.12326444 0.07880207 0.077219516

Linear_Seasonal.bias f4 [10]
00000000: 8c2d 703e 593c 093d b210 80be 68ed 823e
00000010: 5661 293e d510 18be e42f 2a3c da4e 7c3e
00000020: 2db2 853e 4dbd 053e
0.23454875 0.033504818 -0.25012738 0.25571752 0.16541037 -0.14850171 0.010387395 0.24639454
0.261125 0.13060494

Linear_Trend.weight f4 [10, 10]
00000000: 0df3 bf3d bf96 bf3d 4153 bf3d f321 bf3d
00000010: 60fe be3d 69e5 be3d a5d4 be3d 4bca be3d
00000020: d9c4 be3d 25c3 be3d 76f9 f13d f4c4 f63d
00000030: a8cc f93d 9d87 fb3d ad44 fc3d e13d 003e
00000040: aa24 003e def0 ff3d 2588 ff3d 181a ff3d
00000050: 67c6 013e b6c2 013e a5b7 013e e4a5 013e
00000060: 188e 013e d870 013e ca4e 013e 6e28 013e
00000070: 56fe 003e 06d1 003e 894c e93d e240 ef3d
00000080: cc77 f33d 5d72 f63d a408 f93d 445d fa3d
00000090: f9db fe3d a1e5 fe3d 34c8 fe3d 0899 fe3d
000000a0: c420 d23d 0c72 da3d 2348 de3d 3789 e13d
000000b0: b81d e43d 141a e63d eea0 e73d a9d0 e83d
000000c0: 02c0 e93d 6b7f ea3d 31dc b63d 635b b63d
000000d0: 31d6 b53d 0e4d b53d bec0 b43d 6b32 b43d
000000e0: baa3 b33d fe16 b33d af8f b23d 5d13 b23d
000000f0: 87c1 fa3d e81e fc3d 41f7 fc3d 2379 fd3d
00000100: eded 003e 1101 013e 9308 013e 9a08 013e
00000110: c303 013e d8fb 003e c482 e53d deee e63d
00000120: 07eb e73d 319c e83d b31a e93d 8576 e93d
00000130: 13ba e93d 7bec e93d 7512 ea3d 512f ea3d
00000140: 07d2 9d3d 88fc 9d3d f72b 9e3d f560 9e3d
00000150: 549c 9e3d 00df 9e3d 0b2a 9f3d bc7e 9f3d
00000160: 8ade 9f3d 3d4b a03d 796f ac3d 5107 ab3d
00000170: e1e2 a93d a0f1 a83d c727 a83d d67c a73d
00000180: 5dea a63d aa6b a63d 27fd a53d f39b a53d
0.0937253 0.093549244 0.09342051 0.09332647 0.09325862 0.093211 0.093179025 0.09315928
0.093148895 0.093145646 0.11815159 0.120492846 0.12197238 0.122817256 0.12317786 0.12523605
0.12513986 0.12497114 0.124771394 0.12456149 0.1267334 0.12671933 0.12667711 0.12660939
0.1265186 0.12640703 0.12627712 0.12613079 0.12597021 0.12579736 0.11391551 0.11682297
0.11888084 0.12033532 0.12159851 0.1222482 0.124443 0.12446142 0.124405295 0.12431532
0.10260156 0.10666284 0.10853603 0.110125 0.11138481 0.11235443 0.11309992 0.11367924
0.11413576 0.11450084 0.08928717 0.089041494 0.088787444 0.08852588 0.08825825 0.08798679
0.08771463 0.0874462 0.08718812 0.086950995 0.12243944 0.123105824 0.123518474 0.123766206
0.12590761 0.12598063 0.12600927 0.12600937 0.12599091 0.12596071 0.11206582 0.11276029
0.11324125 0.11357916 0.113820456 0.11399559 0.11412444 0.11422058 0.11429302 0.11434806
0.07706075 0.07714182 0.077232294 0.07733337 0.07744661 0.077573776 0.07771691 0.077878445
0.07806118 0.078268506 0.08419699 0.08351005 0.08295227 0.08249211 0.08210712 0.081781074
0.0815017 0.08126004 0.081049256 0.080863856

Linear_Trend.bias f4 [10]
00000000: 4920 4b3e 7cf0 d63c fa72 93be ff70 4cbe
00000010: 9738 bcbc e53d 5d3d 0466 fd3d 88c8 9a3e
00000020: 1b26 9c3e 984a 8fbe
0.19836535 0.026237719 -0.28798658 -0.1996498 -0.022976203 0.054014105 0.123729736 0.30231118
0.30497822 -0.27986598

projection.weight f4 [5, 380]
00000000: 6cdf 1c3c b4bc 0dbd 4897 c1bc 34e4 e43c
00000010: cd09 90bc b193 20bd 650a 163c 517b 4fbc
00000020: 87eb 8abb 3a1f 51bc 3d89 f63c ddb7 bd3c
00000030: 494d a2b9 60b2 1ebc a81e 06bb 666c 19bd
00000040: bca4 3f3c 3919 be3c afa6 b63c 631e 15bd
00000050: 9a19 2dbd 594f cd3c 32aa b13c f3ab 4b3c
00000060: 87eb bb3c 3dae e13c fe49 24bd 806b 69bd
00000070: 8405 373b d18f 313c 3c60 2fbd 355c 49bd
00000080: e7e0 8fbd e1be 44bc 3de7 4dbc a35e 3bbd
00000090: b0d6 233b 026c c4bc 6772 6abd 5b8a e6bc
000000a0: cb69 94bd 9be8 f53c 34b4 dcbc 78f3 673b
000000b0: 6e4e 48bd 318e 5cbc eb16 2d3c 2c07 133c
000000c0: 5bf8 063d d000 cf3c 6478 08bd 9988 2cbc
000000d0: f946 04bc e0f7 983c 570b 0fbd cba8 51bd
000000e0: c2b4 a93c ae58 763d 2b1b 9fbc 5241 71bd
000000f0: 8bf6 4abd b9d9 85bd c952 14bd e998 8d39
00000100: 8b8c 633c bce7 c13c 5811 eb3c 2814 ae3c
00000110: fb11 7e3b b38a cb3c 9ee0 e6b9 b7e7 75bd
00000120: 03a9 363c e0b0 123d 0d73 bf3c f4d9 c0bc
00000130: e112 093b 5587 023d 554c dabc d263 bebc
00000140: 1a07 0d3d 9d59 0d3d 6f24 e93c 974f e53b
00000150: a0e3 efbb 4999 c03b b9af c6bc 3deb 3b3c
00000160: 4138 423d 75dd c4bc 5847 543c 61ef 833d
00000170: ddd1 743c 06e8 a63c 771b 203d 32a3 a83b
00000180: c5ee 02bd 900e bc3a b395 843d 7765 fc3a
00000190: f9d4 6f3d f0f9 2b3d bc2c 133d 3ce3 4ebc
000001a0: d174 783d d730 883d f143 fcbc ccde 823d
000001b0: 2d38 d4bc 5495 9bbc db8f 3d3d c034 573d
000001c0: 0d19 983a 2db6 71bb 4b66 f4bc 746b a3bc
000001d0: 850a 56bb 4ec2 0dbd 5533 ccbc 10e1 70bd
000001e0: 50a7 bb3c 85b4 4bbc 02f5 3ebd 7057 4a3b
000001f0: f642 253c a99b 3fbd 7f90 efbc 97ed 8dbc
00000200: 531a 06bd 2f1f 0bbd 3aef 953c f7c1 8fbd
00000210: 94c9 913c 8e73 943c dabb 813c 6224 e0bc
00000220: 7375 08bd 0a3f dbbc da86 bcbc 527b fabc
00000230: 7b2c 2d3d aa34 7b3d 590c b7ba bfc2 f1bc
00000240: 410e 93bc 92e2 fcbb a8c4 29bc 613d d73c
00000250: 2caf 073b 9f04 f13c 62c6 6e3c 2ef4 06bd
00000260: 54cd 82bd a0d5 1abd 6f4a a3bc 2ea4 5d3a
00000270: d6c4 debc ebcd 20bd b69f b93b a4bf 633a
00000280: e0de a03c ad41 81bd 51fe 233c 0de2 f1bc
00000290: 6194 24bd ddc9 d3bb f356 47bc 8dba 27bd
000002a0: a757 9d3c a47d 1dbd 82dc cdbb c1ec f9bc
000002b0: c4cc 1abd 6431 c33c 2e66 92bc c66e 243c
000002c0: 6fa8 40bc e682 b33c ba6a 92bc c761 893c
000002d0: 89d8 34bc 3a43 cfbc ea71 84bd c789 c03c
000002e0: 83c7 79ba 002b b8bc c116 0cbd 2c8f e43c
000002f0: 6fff 44bd 873b d03c 9384 fbbc 4d22 7bbc
00000300: f5a0 133d 3cf5 c53c e3cf 68bc ffa9 093d
00000310: e0ac 563c 84df 5f3d 14d5 d73c 6063 cf3c
00000320: 957f c13c 3df6 3c3d 7684 5cbc c1f0 723d
00000330: b5f2 eabb 5e6e 363d 567b 853d ca95 7c3d
00000340: 349c e9bb 2e07 863d ada9 b9bb 28eb 443b
00000350: f81e dfbc 4b55 39bd d0c8 52bb 56e4 22bd
00000360: 9d69 bebc ecbe 4f3d 68b9 44bc 804c aabb
00000370: 4b21 0f3d b722 583d 5672 833a 9847 04bb
00000380: ee7c 183c e1a2 393d 2654 ed3c 6692 443d
00000390: b043 55bd e760 b03a a76a 283c 7c98 323c
000003a0: 9f2b 72bc f3c2 ac3c 7694 9abc 642e 22bd
000003b0: 658c a33c 8b8f b53c ca53 41bd 5557 5cbd
000003c0: db1a 4c3c 0bb0 953c ea05 81bd 40af 8fbd
000003d0: 4293 14bd d0f2 77bd b94c d7bc 5645 013d
000003e0: 7f19 49bd 3daf d73c 6820 10bd 04de 19bd
000003f0: bac5 ff3c 3c60 0dbd 59d1 3f3d d866 763c
0.009574752 -0.03460379 -0.023631707 0.027940847 -0.017582798 -0.03920335 0.009157752 -0.012663678
-0.004239503 -0.012763793 0.030094737 0.023158962 -0.0003095663 -0.009686083 -0.002046505 -0.037456892
0.011696991 0.023205386 0.022296278 -0.036405932 -0.042260744 0.02506225 0.0216876 0.012431133
0.022939457 0.027548904 -0.040109627 -0.056987286 0.0027926872 0.010837511 -0.042816386 -0.0491602
-0.070253186 -0.0120084 -0.0125673385 -0.04574455 0.002499979 -0.023977283 -0.05723801 -0.028142145
-0.07246741 0.030018141 -0.026941396 0.0035392921 -0.04890292 -0.013461635 0.010564546 0.008973878
0.032951694 0.025268942 -0.03331794 -0.010530614 -0.008073562 0.018672884 -0.034922924 -0.051186364
0.020716075 0.060143165 -0.019422134 -0.058900185 -0.049551528 -0.06535668 -0.036211763 0.00027007543
0.0138884885 0.02367007 0.028694794 0.021249846 0.0038768041 0.02484641 -0.0004403637 -0.060035434
0.011148694 0.035813212 0.02337029 -0.023541428 0.0020915794 0.031867344 -0.026647726 -0.023240957
0.0344306 0.03450929 0.028459756 0.0069980132 -0.007320836 0.005877648 -0.024253713 0.011469659
0.04741693 -0.02403138 0.012956463 0.06442142 0.014942613 0.02037431 0.039088693 0.0051464075
-0.03196599 0.0014347602 0.06473865 0.0019256313 0.058552716 0.041986406 0.035931334 -0.012627419
0.06065828 0.066499405 -0.030794116 0.063901514 -0.025905693 -0.018992104 0.04627977 0.05254054
0.0011604145 -0.0036882267 -0.029833933 -0.019948699 -0.0032660079 -0.03460913 -0.02492682 -0.058808386
0.02290693 -0.012433176 -0.046620376 0.003087487 0.0100867655 -0.04677931 -0.029243706 -0.017325206
-0.03273995 -0.033965286 0.018302549 -0.07019418 0.017796315 0.018121507 0.015836645 -0.027361099
-0.033315133 -0.026763458 -0.023013521 -0.030576382 0.042278748 0.06132952 -0.0013965472 -0.029511807
-0.017951133 -0.007717439 -0.010361828 0.026274385 0.0020703776 0.029421149 0.014573665 -0.03294771
-0.063868195 -0.037801385 -0.019932954 0.00084549456 -0.027193468 -0.03925888 0.005664791 0.00086879195
0.019637525 -0.06311355 0.010009364 -0.029526735 -0.040180568 -0.006463273 -0.012166726 -0.040949393
0.019206835 -0.0384499 -0.00628239 -0.0305084 -0.037792936 0.023827262 -0.017870989 0.010036176
-0.011758908 0.021913003 -0.017873157 0.016770257 -0.011037954 -0.02530061 -0.0646704 0.023503197
-0.0009528326 -0.022481441 -0.034201387 0.0279003 -0.048095163 0.02541901 -0.030702865 -0.015328002
0.036042172 0.024164788 -0.01420972 0.033609387 0.01310274 0.05465652 0.02634672 0.02531594
0.023620406 0.04613327 -0.0134593155 0.059311632 -0.007170046 0.044538848 0.06517665 0.061666287
-0.0071292166 0.06544338 -0.005665979 0.003004739 -0.027236447 -0.045247357 -0.003216315 -0.03976854
-0.02324372 0.050719187 -0.012007095 -0.005197108 0.03494386 0.05276748 0.0010028582 -0.0020184275
0.009307129 0.04532135 0.02897079 0.04799118 -0.052066505 0.0013456614 0.010279334 0.010900613
-0.014780908 0.021089053 -0.01886962 -0.039595023 0.019964406 0.022163173 -0.047199048 -0.053794224
0.012457575 0.01827242 -0.06299956 -0.07015848 -0.03627325 -0.0605343 -0.026281701 0.031560265
-0.04909658 0.026328677 -0.035187155 -0.037565246 0.031222213 -0.034515604 0.04683051 0.015039168

projection.bias f4 [5]
00000000: 7fd4 32bd f6e6 993c 0816 a83c 93ce a6bb
00000010: aa8d 2dbd
-0.043659683 0.018786889 0.020518318 -0.0050905435 -0.04237143
