result/Dliner/classification_CropMapping_t31tfj_4in4Period_0.05train_DLinear/checkpoint.pth (torch, 15319 bytes, 6 tensors)

Linear_Seasonal.weight f4 [10, 10]
0	0x3dadccd1	0.08486331
1	0x3deb8437	0.11499827
2	0x3e0743ff	0.13209532
3	0x3e07f39f	0.13276528
4	0x3d71a9f0	0.058999956
5	0x3d6bfdfb	0.05761526
6	0x3d677c61	0.0565151
7	0x3d6a3832	0.0571825
8	0x3dbff235	0.09372369
9	0x3e16edb9	0.14739121
10	0x3d79795b	0.06090675
11	0x3d89b29c	0.0672352
12	0x3d9a0cf3	0.07522001
13	0x3d8cf2e7	0.068822674
14	0x3d9786b0	0.073987365
15	0x3d8e1020	0.06936669
16	0x3d86fc49	0.06591088
17	0x3d8621aa	0.0654939
18	0x3e10a64f	0.14125942
19	0x3e0b16ea	0.1358296
20	0x3d51a88b	0.051186126
21	0x3d4566a6	0.048193596
22	0x3d482b29	0.048869286
23	0x3d5ddfdb	0.054168563
24	0x3e11a9fd	0.14225002
25	0x3e127009	0.1430055
26	0x3e1277b8	0.14303482
27	0x3e122f7e	0.1427593
28	0x3e170636	0.14748463
29	0x3dbcbab7	0.092153005
30	0x3d5c67dc	0.053809986
31	0x3d8bb4e2	0.0682161
32	0x3d8544fc	0.06507298
33	0x3da902fb	0.082525216
34	0x3decc00b	0.11560067
35	0x3dd3a584	0.10334304
36	0x3dc38948	0.09547669
37	0x3dc3f015	0.095672764
38	0x3e0f32ff	0.13984297
39	0x3e12fe47	0.14354812
40	0x3dbe8162	0.093020216
41	0x3dc8e355	0.09808985
42	0x3deb1f97	0.11480635
43	0x3dc660c2	0.09686424
44	0x3d8f0d5d	0.06984971
45	0x3d8d656c	0.0690411
46	0x3d8bd601	0.068279274
47	0x3d8cc39c	0.06873247
48	0x3dc75da2	0.09734656
49	0x3e13cd76	0.14433846
50	0x3d88ba01	0.066761024
51	0x3d904c9f	0.07045864
52	0x3deb36d5	0.11485068
53	0x3d9207c5	0.07130388
54	0x3d7b5242	0.061357744
55	0x3d7aff11	0.061278407
56	0x3d7dbc80	0.061947346
57	0x3d7d746c	0.061878607
58	0x3e13d1b1	0.1443546
59	0x3e1135f1	0.14180733
60	0x3d6c291d	0.057656396
61	0x3d5d7a8b	0.054071944
62	0x3d64d0ad	0.05586307
63	0x3d7e97c5	0.062156457
64	0x3e05c0e3	0.13061862
65	0x3e02aefe	0.12762067
66	0x3e027bcf	0.12742542
67	0x3e026849	0.12735094
68	0x3e18398e	0.14865705
69	0x3dd6295e	0.10457109
70	0x3d817b8f	0.06322395
71	0x3d8ff155	0.07028452
72	0x3d695afb	0.05697153
73	0x3d9eed89	0.0776015
74	0x3e0b8ef8	0.13628757
75	0x3e080196	0.13281855
76	0x3e073716	0.13204607
77	0x3e05df0f	0.13073371
78	0x3e02da58	0.12778604
79	0x3db390b5	0.08767835
80	0x3d7b5510	0.06136042
81	0x3db0f788	0.08640963
82	0x3d64b06f	0.055832323
83	0x3de35ff8	0.11102289
84	0x3e09f70c	0.13473147
85	0x3e039f9b	0.12853853
86	0x3e01a041	0.12658788
87	0x3dfcb7ff	0.12339782
88	0x3def529a	0.11685677
89	0x3dbe585b	0.09294196
90	0x3d9e95f0	0.07743442
91	0x3dbc964f	0.092083566
92	0x3da5e6ee	0.08100687
93	0x3da7872e	0.0818008
94	0x3daf46c8	0.08558422
95	0x3d993108	0.07480055
96	0x3d971298	0.07376593
97	0x3d92d1b3	0.07168903
98	0x3ded8e44	0.11599401
99	0x3e011c38	0.12608421

Linear_Seasonal.bias f4 [10]
0	0x3e876f23	0.26451978
1	0x3d007d87	0.031369712
2	0xbe80e9bb	-0.25178322
3	0x3e8fe0d1	0.2810121
4	0x3e259442	0.16169837
5	0xbe29290b	-0.16519563
6	0x3a8e0325	0.0010834677
7	0x3e5efafe	0.21775433
8	0x3e86b675	0.2631108
9	0x3e14fcb9	0.14549531

Linear_Trend.weight f4 [10, 10]
0	0x3e1b0b3b	0.15141003
1	0x3e1b6876	0.15176567
2	0x3e1bae76	0.1520327
3	0x3e1be248	0.15223038
4	0x3e1c07d1	0.15237357
5	0x3e1c2219	0.15247382
6	0x3e1c3380	0.1525402
7	0x3e1c3ddc	0.15257972
8	0x3e1c42aa	0.15259805
9	0x3e1c4314	0.15259963
10	0x3e199b9d	0.15000768
11	0x3e1996fc	0.14999002
12	0x3e19870c	0.14992923
13	0x3e196dab	0.14983241
14	0x3e194c07	0.14970408
15	0x3e1922e4	0.14954716
16	0x3e18f285	0.14936264
17	0x3e18bb35	0.14915164
18	0x3e187d53	0.14891557
19	0x3e1839e5	0.14865835
20	0x3dfd7f6d	0.1237782
21	0x3dfdf254	0.12399736
22	0x3dfe302c	0.12411532
23	0x3dfe449a	0.124154285
24	0x3dfe3a12	0.1241342
25	0x3dfe195b	0.1240718
26	0x3dfde999	0.12398071
27	0x3dfdb045	0.12387136
28	0x3dfd71a3	0.1237519
29	0x3dfd309f	0.12362789
30	0x3e0ab5ac	0.13545865
31	0x3e0ba440	0.13636875
32	0x3e0c88df	0.13724087
33	0x3e0d69f6	0.13809952
34	0x3e105a04	0.14096838
35	0x3e114408	0.14186108
36	0x3e12325f	0.14277028
37	0x3e131d08	0.14366543
38	0x3e13f98f	0.14450668
39	0x3e14bffb	0.1452636
40	0x3e179608	0.14803326
41	0x3e18b59b	0.14913027
42	0x3e1bb152	0.15204361
43	0x3e1c7c03	0.15281682
44	0x3e1d261c	0.15346569
45	0x3e1db267	0.15400086
46	0x3e1e22bf	0.15442942
47	0x3e1e795d	0.15475984
48	0x3e1eb94b	0.15500371
49	0x3e1ee642	0.15517524
50	0x3e186f9c	0.14886326
51	0x3e18f4ac	0.14937085
52	0x3e195f82	0.1497784
53	0x3e19b44e	0.15010187
54	0x3e19f687	0.15035449
55	0x3e1a2908	0.15054715
56	0x3e1a4e39	0.15068902
57	0x3e1a6835	0.15078814
58	0x3e1a78af	0.150851
59	0x3e1a8140	0.15088367
60	0x3df872d4	0.12131277
61	0x3df8dfc2	0.121520534
62	0x3df938c9	0.12169034
63	0x3df98213	0.12183013
64	0x3df9bebc	0.12194583
65	0x3df9f165	0.122042455
66	0x3dfa1bd2	0.122123376
67	0x3dfa3f8f	0.12219154
68	0x3dfa5dd6	0.12224929
69	0x3dfa7794	0.12229839
70	0x3e080a20	0.13285112
71	0x3e06a48e	0.1314871
72	0x3e055c1b	0.13023417
73	0x3e042bb2	0.12907293
74	0x3e03107a	0.12799254
75	0x3e0208d1	0.12698676
76	0x3e01133b	0.12604992
77	0x3e002e69	0.12517704
78	0x3dfeb267	0.12436371
79	0x3dfd24e9	0.12360556
80	0x3e0abd81	0.13548853
81	0x3e0ab1cb	0.13544385
82	0x3e0a92f9	0.13532628
83	0x3e0a6237	0.13514028
84	0x3e0a2116	0.13489184
85	0x3e09d179	0.13458814
86	0x3e097581	0.1342373
87	0x3e090f48	0.13384736
88	0x3e08a0d7	0.13342606
89	0x3e082c28	0.13298094
90	0x3e1399d2	0.14414147
91	0x3e13229b	0.1436867
92	0x3e1295d7	0.14314972
93	0x3e0fecd2	0.14055184
94	0x3e0f466a	0.13991705
95	0x3e0e9d0b	0.13927095
96	0x3e0df71b	0.13863795
97	0x3e0d5979	0.13803662
98	0x3e0cc764	0.13747936
99	0x3e0c4217	0.13697086

Linear_Trend.bias f4 [10]
0	0x3e69d11a	0.22833672
1	0x3cc572db	0.024102619
2	0xbe944c03	-0.28964242
3	0xbe328a2a	-0.17435518
4	0xbcdaa153	-0.026688254
5	0x3d18dcef	0.037320074
6	0x3dea5821	0.114425905
7	0x3e8c1e92	0.27367073
8	0x3e9d2a60	0.30696392
9	0xbe87aae1	-0.26497558

projection.weight f4 [5, 610]
0	0xbbaf7bc4	-0.00535533
1	0x3cd2f178	0.025749907
2	0x3cf96517	0.030443711
3	0x3d94025e	0.07227014
4	0xbc27d855	-0.010244449
5	0x3c964e7b	0.01834797
6	0x3d24bb34	0.040217593
7	0xbd101809	-0.03517917
8	0x3c24d771	0.010061131
9	0xbb9e31f5	-0.0048277327
10	0x3c421317	0.011845372
11	0x3c8956bf	0.016764997
12	0x3d3f4fc1	0.04670692
13	0x3c913906	0.017727386
14	0x3c9808e8	0.018558934
15	0x3c8e3fdb	0.017364433
16	0x3d7aebff	0.06126022
17	0x3d27f2cf	0.041003045
18	0x3d1676d6	0.036734425
19	0xbb3c3199	-0.0028716086
20	0xbd3cf88a	-0.046135463
21	0x3ca966f8	0.020678982
22	0x3b827dd5	0.0039822855
23	0x3c2bfe28	0.010497607
24	0x3d04b327	0.032397415
25	0x3d37408e	0.0447393
26	0xbcbd61df	-0.023117958
27	0xbd4004c9	-0.046879563
28	0xbbe15301	-0.00687635
29	0x3d0ce112	0.03439433
30	0x3c3f19b0	0.011663839
31	0x3bc7be92	0.006095716
32	0xbca5f6a5	-0.02025921
33	0x3d000e5a	0.031263687
34	0x3d11f5bd	0.035634745
35	0x3c029ade	0.0079714935
36	0x3d34cb87	0.04413941
37	0x3cabf692	0.020991597
38	0xbc43ea4a	-0.011957714
39	0xbba42cb4	-0.005010212
40	0xbd137f99	-0.03601036
41	0x3ce444d6	0.027864855
42	0xbd3051ec	-0.043046877
43	0xbbd6a1cc	-0.0065500494
44	0xbc0c9c35	-0.0085821645
45	0xbb33e998	-0.0027452465
46	0x3d359a8f	0.04433685
47	0x3d35b491	0.044361655
48	0x3d8419a0	0.064502
49	0x3d6caf20	0.0577842
50	0xbcb3820e	-0.0219126
51	0xbc5cff68	-0.013488628
52	0xbbccd22c	-0.0062506404
53	0x3ccff363	0.02538461
54	0xbc5d5650	-0.013509348
55	0xbd07f47c	-0.033192143
56	0x3b59acd4	0.0033214586
57	0x3d0de976	0.034646474
58	0x3d0a9483	0.033833038
59	0xbd1fc70f	-0.039008196
60	0x3b0a096b	0.0021062742
61	0xbd8ac075	-0.067749895
62	0x3cd464d0	0.025926977
63	0x3d4c5908	0.049889594
64	0x3d11dc3a	0.035610415
65	0x3b26bf9b	0.0025443796
66	0x3d36e8ef	0.044655737
67	0x3d3dcf5e	0.04634034
68	0xbc95df80	-0.01829505
69	0x3c5422e9	0.012947776
70	0xbc29f9be	-0.010374485
71	0xbd85cb1b	-0.0653288
72	0xbb96c0ad	-0.0046006055
73	0x3d974909	0.07386977
74	0x3ca901d9	0.020630764
75	0xbc9f3663	-0.019435113
76	0x3c86d7da	0.016460348
77	0x3d72fa30	0.05932063
78	0xbd0503ba	-0.032474257
79	0xbd1224e6	-0.03567972
80	0x3c8da78f	0.017291812
81	0xbcb05257	-0.021523638
82	0xbc88fc70	-0.016721934
83	0xbd4bf982	-0.049798496
84	0xbd441ee4	-0.047881022
85	0xbd1a7ae2	-0.037714846
86	0xbd66a838	-0.05631277
87	0xbcee6821	-0.029102387
88	0xb9f838ac	-0.0004734447
89	0xbd6afff7	-0.057373013
90	0xbaf4bc42	-0.0018671828
91	0x3d886e72	0.06661691
92	0x3ce9b8f2	0.028530572
93	0x3c30d89b	0.01079383
94	0x3d1cbe57	0.03826746
95	0x3c8e8b05	0.017400274
96	0xbc0218c8	-0.007940479
97	0x3c76261c	0.015023734
98	0x3d77f8ff	0.060540196
99	0x3b6a4b96	0.003575062
100	0x3cb3c378	0.021943793
101	0x3c838ce6	0.016058397
102	0xbc8aab03	-0.016927248
103	0xbd4bdd44	-0.049771562
104	0xbc00a8f1	-0.007852779
105	0x3d2c32b5	0.042040545
106	0xbc9f0f56	-0.019416492
107	0x3d595ef0	0.053069055
108	0xbc898158	-0.016785309
109	0xbc627ae7	-0.0138232475
110	0x3d162cda	0.036663868
111	0x3b0d630e	0.0021573934
112	0xbd1dc19e	-0.038514726
113	0xbd339448	-0.043842584
114	0xbd05d611	-0.032674853
115	0xbc5673c4	-0.013089124
116	0xbc13a364	-0.009011123
117	0xbd2d817d	-0.042359818
118	0xbd474158	-0.0486463
119	0xbbb173ef	-0.0054154317
120	0x3c36e23e	0.011162339
121	0xbbc82009	-0.0061073345
122	0xbd5c9aaf	-0.053858455
123	0x3d0475d9	0.03233895
124	0x3cde3e2c	0.027129255
125	0xbc62b73f	-0.013837635
126	0xbd0f75eb	-0.035024565
127	0x3c403b8f	0.01173295
128	0xbc849e72	-0.016188834
129	0xbd2f4d76	-0.042798482
130	0x3ba9aba5	0.0051779323
131	0xbd891877	-0.066941194
132	0xbc4f92de	-0.012669293
133	0xbccf5182	-0.02530742
134	0x3d2f4000	0.042785645
135	0xbce1f6ab	-0.02758344
136	0xbd0515e8	-0.032491595
137	0xbc6ca391	-0.014443294
138	0x3bd58035	0.0065155276
139	0xbcd45397	-0.025918765
140	0x3a6005be	0.00085457775
141	0x3cda9ff2	0.026687596
142	0xbd42fabf	-0.04760241
143	0xbd1e9714	-0.038718298
144	0xbd0e1a15	-0.034692843
145	0xbd049eee	-0.03237813
146	0xbcf1b58d	-0.029505515
147	0xba9ecc4b	-0.0012115327
148	0xbcb74d36	-0.022375684
149	0x3bc90bb4	0.0061354283
150	0xbc46c608	-0.012132175
151	0xbce1b985	-0.027554283
152	0xbd043ac9	-0.032282624
153	0xbb84d440	-0.0040536225
154	0xbc9df902	-0.019283775
155	0x3ca6f5a5	0.020380804
156	0xbc97f12c	-0.018547617
157	0xbc099c3a	-0.008399064
158	0x3c8900e9	0.016724067
159	0xbc804015	-0.015655557
160	0x3cd792f4	0.02631519
161	0xbd57074f	-0.052497204
162	0x3c7a2797	0.015268228
163	0xbcd8801f	-0.02642828
164	0xbd007952	-0.0313657
165	0xbca89472	-0.020578597
166	0xbbae94d7	-0.0053278017
167	0xbcb8b9e6	-0.02254958
168	0x3c9948a8	0.018711403
169	0xbcccf532	-0.025019262
170	0xbc3f5931	-0.01167898
171	0xbd5b571a	-0.053549863
172	0xbd2d0206	-0.042238258
173	0x3bb0ceef	0.005395762
174	0xbcfc2199	-0.03077774
175	0xbc1bacef	-0.00950168
176	0xbcbd6188	-0.023117796
177	0x3a804bac	0.0009788177
178	0xbd6b2396	-0.057406984
179	0xbc70c48a	-0.014695296
180	0xbd033657	-0.032034244
181	0xbcf69138	-0.030098543
182	0xbd330e66	-0.043714903
183	0xbafddd33	-0.0019368291
184	0x3d45df63	0.04830874
185	0x3cc2b443	0.023767596
186	0x3c7f39d1	0.015577749
187	0x3c828491	0.015932353
188	0x3bc2f51b	0.005949629
189	0x3d2ef91d	0.04271804
190	0xbd64d9d3	-0.055871796
191	0xbc9e1dd7	-0.019301338
192	0x3c56e878	0.013116948
193	0xbbbcfd92	-0.0057675326
194	0xbd64d0ca	-0.05586318
195	0x3d70f304	0.058825508
196	0xbc0ae257	-0.008476815
197	0x3c5b2c44	0.013377253
198	0x3d34d4ba	0.044148184
199	0x3d34532f	0.044024643
200	0xbb06bf64	-0.0020560855
201	0x3c2036ad	0.009778661
202	0xbcc037ad	-0.023464048
203	0xbbeed884	-0.0072889943
204	0xbd54d700	-0.051962852
205	0xbcaf4943	-0.021397239
206	0xba4c911b	-0.0007803605
207	0xbb13e512	-0.0022566956
208	0xbd3c815f	-0.046021815
209	0x3c218730	0.009858891
210	0xbd43d497	-0.047810163
211	0xbd0f59c7	-0.034997728
212	0xbcd701e9	-0.026246028
213	0xbc3e3cb2	-0.011611151
214	0x3d00be72	0.031431623
215	0xbc2d398f	-0.010572805
216	0xbc73561f	-0.014852076
217	0x3d6a87b2	0.057258315
218	0x39c452a9	0.0003744562
219	0x3d0549e5	0.032541174
220	0x3d7278f1	0.05919737
221	0x3d62de0a	0.055387534
222	0x3c0c0ef4	0.008548487
223	0x3c596367	0.013268328
224	0xbaa33edc	-0.0012454647
225	0x3cf6e1b2	0.030136917
226	0xbc6eec03	-0.014582637
227	0x3d33a29f	0.04385626
228	0xbaa9e612	-0.0012962243
229	0x3d22372b	0.039603394
230	0x3d3f41a1	0.046693448
231	0x3d2358b8	0.03987953
232	0xbc4c42af	-0.0124670705
233	0x3aafeaf6	0.0013421464
234	0xbcdde183	-0.027085071
235	0xbd8c1006	-0.06838994
236	0x3b824a00	0.0039761066
237	0x3c421dc4	0.011847917
238	0xbd54ce87	-0.051954772
239	0xbd73e18b	-0.059541266
240	0x3c4921e5	0.0122761475
241	0x3d5a0875	0.05323072
242	0xbd62e1e7	-0.05539122
243	0xbcae0ef9	-0.021247374
244	0xbd30914f	-0.043107327
245	0x3c154f10	0.009113088
246	0x3cc55832	0.024089906
247	0x3d62330c	0.055224463
248	0xbd047327	-0.03233638
249	0x3d96347f	0.073342316
250	0x3a0b17f0	0.0005305996
251	0xbd54d5ed	-0.051961828
252	0x3cd171f1	0.025567027
253	0xbd0e0678	-0.034674138
254	0xbaaed689	-0.0013339083
255	0xbc531acf	-0.01288481

projection.bias f4 [5]
0	0x3d2375be	0.03990721
1	0xbc91bcdc	-0.01779025
2	0xbd160cb2	-0.0366332
3	0x3c6fc6ff	0.014634847
4	0xbc4b7083	-0.012416962
