result/Dliner/classification_CropMapping_t32ulu_4in4Period_0.5train_DLinear/checkpoint.pth (torch, 10711 bytes, 6 tensors)

Linear_Seasonal.weight f4 [10, 10]
0	0x3c9eb817	0.01937489
1	0x3e01a2b9	0.1265973
2	0x3d98921a	0.07449742
3	0x3e5038c1	0.2033415
4	0x3e49328e	0.19648191
5	0x3e0cae35	0.1373833
6	0x3e089085	0.1333638
7	0x3e117c79	0.14207639
8	0x3dd3536f	0.10318648
9	0x3d693e92	0.056944437
10	0x3b3f65e3	0.0029205016
11	0x3e119236	0.14215931
12	0x3d5664ba	0.052342154
13	0x3e87e791	0.2654386
14	0x3e605b0f	0.21909736
15	0x3e0746fb	0.1321067
16	0x3e01e592	0.1268523
17	0x3dfeb5c9	0.124370165
18	0x3df68e8f	0.1203891
19	0x3dda7d47	0.10668426
20	0x3c8c94c8	0.017160788
21	0x3e4e1a2d	0.20127173
22	0x3e291654	0.16512424
23	0x3e75e71f	0.24013947
24	0x3e4d7638	0.20064628
25	0x3dd9f481	0.106423385
26	0x3deb5c5a	0.11492224
27	0x3df9a9b8	0.121905744
28	0x3e1659fc	0.14682764
29	0x3d988e87	0.0744906
30	0xbc9ca603	-0.01912213
31	0x3e19dcc4	0.15025622
32	0x3dc9dda0	0.09856725
33	0x3e90ea4e	0.2830376
34	0x3e2dce89	0.16973318
35	0x3d8fc1dc	0.070193976
36	0x3d7cf04c	0.061752602
37	0x3d8a8fc8	0.06765705
38	0x3e1eaefa	0.15496436
39	0x3e16a3b2	0.14710882
40	0xbaff9c44	-0.0019501527
41	0x3e345f0b	0.17614381
42	0x3e14b104	0.14520651
43	0x3e9a95fa	0.30192548
44	0x3e01046c	0.12599343
45	0x3d94cdfa	0.072658494
46	0x3d8863e3	0.06659677
47	0x3d960e5d	0.07326958
48	0x3d98e066	0.074646756
49	0x3e0fd09c	0.14044422
50	0xbb95eef1	-0.004575603
51	0x3dc9b82c	0.09849581
52	0xbd057f21	-0.032591943
53	0x3e38b529	0.18037857
54	0x3e8d8268	0.27638555
55	0x3e786e93	0.2426093
56	0x3e7d7112	0.24750164
57	0x3e791440	0.24324131
58	0x3d48a12e	0.048981838
59	0xbd8ca7e8	-0.06867963
60	0xbcc52a87	-0.02406813
61	0x3dc80e67	0.09768372
62	0x3e29bc01	0.16575624
63	0x3e9279f6	0.28608674
64	0x3dd2fbe3	0.1030195
65	0x3d0de52e	0.03464239
66	0x3cd80f20	0.0263744
67	0x3d153317	0.036425676
68	0x3e4ab62d	0.19796057
69	0x3e36e23c	0.17859739
70	0x3d4f33b8	0.050586432
71	0x3e07c143	0.13257317
72	0x3dffb609	0.12485892
73	0x3e302527	0.17201672
74	0x3dc0a63b	0.09406706
75	0x3d7f3961	0.06231058
76	0x3d49238f	0.049106177
77	0x3d79f03d	0.061020125
78	0x3dc78c78	0.09743589
79	0x3e1997ea	0.14999357
80	0x3d8a8aaf	0.06764733
81	0x3d05fa7a	0.032709576
82	0x3ca97783	0.02068687
83	0x3d4b6506	0.04965689
84	0x3da7e982	0.08198835
85	0x3dddbff5	0.108276285
86	0x3ddd8876	0.108170435
87	0x3db78bfc	0.08962247
88	0x3dc34ccb	0.095361315
89	0x3e09d354	0.13459522
90	0xbc06cf7b	-0.008228178
91	0x3e223e34	0.15844041
92	0xbc697bbc	-0.014250692
93	0x3e33e35f	0.17567204
94	0x3e60fde4	0.21971852
95	0x3e4ab298	0.1979469
96	0x3e4bcee1	0.19903137
97	0x3e48d12f	0.19611047
98	0xba86f84c	-0.0010297387
99	0x3c31daff	0.010855435

Linear_Seasonal.bias f4 [10]
0	0x3e56c0e7	0.20972024
1	0x3bf1f628	0.0073840804
2	0xbe82c649	-0.25541905
3	0x3e6a295f	0.22867344
4	0x3e1d1f03	0.15343861
5	0xbe1db256	-0.15400061
6	0xbc0ec782	-0.008714559
7	0x3e7438d8	0.23849809
8	0x3e8283ef	0.25491282
9	0x3e003f40	0.12524128

Linear_Trend.weight f4 [10, 10]
0	0x3e675959	0.22592677
1	0x3e610af2	0.21976832
2	0x3e5ae8f2	0.21377924
3	0x3e54faaa	0.20798746
4	0x3e4f4d20	0.20244265
5	0x3e49e969	0.19717945
6	0x3e44d4da	0.19221821
7	0x3e40109a	0.18756333
8	0x3e3b9b6c	0.18321007
9	0x3e3772d6	0.179149
10	0x3e7c6c71	0.24650742
11	0x3e7fecf9	0.24992742
12	0x3e7cc0db	0.24682944
13	0x3e78ee02	0.24309543
14	0x3e74e00e	0.23913595
15	0x3e70ca6a	0.23514715
16	0x3e6cc9e1	0.23123886
17	0x3e68ef3e	0.22747514
18	0x3e65437d	0.22389026
19	0x3e61cb27	0.22050153
20	0x3e7c3717	0.2463039
21	0x3e7bba4c	0.24582785
22	0x3e7b06c7	0.24514304
23	0x3e7a240f	0.24427818
24	0x3e7918ce	0.24325868
25	0x3e77ebb3	0.24211006
26	0x3e76a231	0.24085309
27	0x3e7541b7	0.2395085
28	0x3e73cefe	0.2380943
29	0x3e724e4e	0.23662683
30	0x3e847869	0.25873116
31	0x3e8503d2	0.25979477
32	0x3e8628e2	0.26203066
33	0x3e861a7f	0.2619209
34	0x3e85b20d	0.26112404
35	0x3e84a2c1	0.2590542
36	0x3e8326f3	0.25615653
37	0x3e8183de	0.2529592
38	0x3e7fb9eb	0.24973266
39	0x3e7c8463	0.24659877
40	0x3e728bdb	0.23686163
41	0x3e71ea53	0.23624544
42	0x3e6f2b16	0.2335628
43	0x3e6c6c29	0.23088135
44	0x3e69bda4	0.22826248
45	0x3e672b4b	0.22575109
46	0x3e64bc17	0.22337376
47	0x3e6272ff	0.2211418
48	0x3e6050d3	0.21905832
49	0x3e5e5459	0.21711864
50	0x3e23e734	0.16006166
51	0x3e1f7a71	0.15574051
52	0x3e1a905e	0.15094134
53	0x3e1525b4	0.14565164
54	0x3e0f3b30	0.13987422
55	0x3e08d51e	0.13362548
56	0x3e01fdbe	0.12694451
57	0x3df58984	0.1198912
58	0x3de6803f	0.1125493
59	0x3dd719cf	0.105029695
60	0x3e801217	0.250138
61	0x3e802f62	0.2503615
62	0x3e7e53b6	0.2483662
63	0x3e7c48ea	0.2463719
64	0x3e7a50cd	0.24444886
65	0x3e7872c9	0.24262537
66	0x3e76b1d2	0.2409127
67	0x3e750e39	0.23931207
68	0x3e738756	0.23782095
69	0x3e721b2d	0.23643179
70	0x3e7b9f1c	0.24572414
71	0x3e734dc2	0.23760131
72	0x3e6c250f	0.23061012
73	0x3e660dcd	0.22466202
74	0x3e60dfaf	0.21960329
75	0x3e5c72fd	0.2152824
76	0x3e58a4fd	0.21156688
77	0x3e55597d	0.20834918
78	0x3e527990	0.20554185
79	0x3e4ff2fa	0.20307532
80	0x3d8ff10e	0.070283994
81	0x3d913a04	0.07091144
82	0x3d929258	0.07156819
83	0x3d93fac7	0.07225566
84	0x3d9573e5	0.07297496
85	0x3d96fedb	0.073728286
86	0x3d989c51	0.0745169
87	0x3d9a4de2	0.07534386
88	0x3d9c14f3	0.07621183
89	0x3d9df32b	0.07712396
90	0x3dfa8323	0.122320436
91	0x3de75360	0.112951994
92	0x3dd6f0cf	0.10495149
93	0x3dc8eef9	0.098112054
94	0x3dbce8f0	0.09224117
95	0x3db28904	0.0871754
96	0x3da98733	0.0827774
97	0x3da1a8f7	0.078935556
98	0x3d9abe2d	0.075558044
99	0x3d94a08d	0.07257185

Linear_Trend.bias f4 [10]
0	0x3e31b3a4	0.17353684
1	0x38f54f60	0.00011697295
2	0xbe96288e	-0.29327816
3	0xbe682272	-0.2266939
4	0xbd0f2552	-0.0349477
5	0x3d46b7bf	0.048515078
6	0x3dd64704	0.10462764
7	0x3e96bd7e	0.29441446
8	0x3e98f7d9	0.29876593
9	0xbe92098b	-0.28522906

projection.weight f4 [5, 380]
0	0xbb64fe30	-0.0034941547
1	0xbda9f6c6	-0.082990214
2	0xbdb62cca	-0.088952616
3	0x3d335a0b	0.043787044
4	0x3c252fb5	0.010082175
5	0xbd812722	-0.06306292
6	0x3c917a84	0.017758615
7	0x3d0f9939	0.035058234
8	0x3ca3b5bb	0.019984117
9	0x3b934a85	0.0044949674
10	0x3d4b8e78	0.049696416
11	0x3d43cf36	0.047805034
12	0x3d1c6dee	0.038190775
13	0x3d2da638	0.042394847
14	0x3c672a23	0.014109167
15	0xbcaf34e1	-0.02138752
16	0x3d283d3d	0.041074026
17	0x3cf9fde3	0.03051657
18	0x3cd57927	0.026058747
19	0xbd03a7e9	-0.032142553
20	0xbd0e9eb7	-0.03481933
21	0x3c7d8643	0.015473905
22	0x3c86f34c	0.016473435
23	0x3c2baea1	0.0104786465
24	0x3c7f0be9	0.015566804
25	0x3c97944d	0.018503333
26	0xbbf37fbd	-0.007430999
27	0xbd0daa91	-0.034586493
28	0x3cd6be89	0.026213901
29	0xbbe111f5	-0.0068685957
30	0xbd5d93b9	-0.054095957
31	0xbd44c0a7	-0.04803529
32	0xbd8f73ab	-0.07004484
33	0xbc11c786	-0.008897668
34	0x3a249944	0.0006278942
35	0xbd6e9ec3	-0.058256876
36	0x3ca7d607	0.020487798
37	0x3c95aec5	0.018271813
38	0xbdc514ee	-0.09623133
39	0xbdd889eb	-0.10573181
40	0xbe3365ba	-0.17519274
41	0x3d3a644f	0.045505818
42	0x3c192d97	0.009349248
43	0xbd3a7c88	-0.04552892
44	0xbd16a640	-0.036779642
45	0x3d96e430	0.07367742
46	0x3d2a50f6	0.041581117
47	0x3d87f8e2	0.066392675
48	0x3db4287f	0.087967865
49	0x3db33500	0.08750343
50	0x3d3a2325	0.045443673
51	0x3da35f66	0.0797718
52	0xbca3de76	-0.020003539
53	0xbc8d6219	-0.01725869
54	0x3bb0c95a	0.0053950967
55	0xbda3bc2c	-0.07994875
56	0x3b17891d	0.0023122497
57	0x3d8af2c3	0.067845844
58	0xbd3f4045	-0.04669215
59	0xbdf4ddfa	-0.11956401
60	0xbdd06cd5	-0.10177008
61	0xbdd4ab65	-0.103842534
62	0xbd96ab6e	-0.07356916
63	0xbd150608	-0.036382705
64	0x3db13b14	0.086538464
65	0x3dff110b	0.124544226
66	0x3d840163	0.06445577
67	0xbca799d6	-0.020459097
68	0xbc5d3f89	-0.0135039175
69	0x3caed20b	0.02134039
70	0x3b9a9a0f	0.0047180722
71	0xbd153651	-0.036428753
72	0x3db1f967	0.08690148
73	0x3cd59c81	0.026075603
74	0x3d5dd0d8	0.054154247
75	0x3d92af1d	0.071623065
76	0xbcb9da4d	-0.022687102
77	0xbcb7badf	-0.022427974
78	0xbdcc37ea	-0.09971602
79	0xbc2d8797	-0.010591409
80	0x3d72e5d6	0.05930122
81	0xbb48af90	-0.0030622222
82	0x3cef0b49	0.029180186
83	0x3d3a9cc1	0.04555965
84	0x3c2773b7	0.01022046
85	0x3c7ea384	0.015541915
86	0xbc55b305	-0.01304317
87	0x3ce269f7	0.027638419
88	0x3d81588d	0.06315718
89	0xbb9997d4	-0.004687289
90	0xbbb33db3	-0.0054700016
91	0x3d03c15b	0.03216682
92	0x3cd2b87a	0.02572273
93	0xbb5503a0	-0.0032503381
94	0x3cf26c57	0.029592676
95	0x3adcb02b	0.001683717
96	0xbd5a060a	-0.053228416
97	0xbd08b4dd	-0.03337561
98	0x3d309308	0.04310897
99	0xbc39fbc0	-0.011351526
100	0x3d444e60	0.047926307
101	0x3cf9d652	0.030497704
102	0x3d92314b	0.07138308
103	0x3caf32e6	0.021386575
104	0x3dbf0ad3	0.093282364
105	0x3d54cf8d	0.05195575
106	0xbcfe6ffb	-0.031059256
107	0x3d5fa418	0.05459985
108	0xbcb4e6c6	-0.022082698
109	0xbc434607	-0.011918551
110	0x3d845b82	0.06462766
111	0x3d06cd41	0.03291059
112	0x3ca08230	0.019593328
113	0x3c3502a1	0.01104799
114	0xbd908fa2	-0.07058646
115	0xbdd189c8	-0.10231358
116	0xbde7bbb3	-0.11315098
117	0xbc8c6798	-0.017139241
118	0x3c2f58de	0.01070234
119	0xbdde22a4	-0.10846451
120	0x3d28b01f	0.041183587
121	0x3d9e77b1	0.07737673
122	0xbc1364dd	-0.008996216
123	0x3d658922	0.056038983
124	0x3d6f0f28	0.058364064
125	0x3a92087a	0.0011141442
126	0x3b8bc9dc	0.004266007
127	0x3c9fd32b	0.019509872
128	0xbdd33589	-0.103129454
129	0xbe26f292	-0.1630347
130	0x3d4f2859	0.050575588
131	0xbdf5e524	-0.12006596
132	0xbb9321a8	-0.004490096
133	0x3cc8f993	0.024533069
134	0xbccdde9c	-0.025130562
135	0xbdd40b36	-0.10353701
136	0xbdbb1819	-0.09135456
137	0xbd851413	-0.064979695
138	0xbd1955fa	-0.03743551
139	0xbd394df0	-0.045240343
140	0x3e01e5ce	0.1268532
141	0x3e46365f	0.19356678
142	0x3d08aab9	0.03336594
143	0xbd19a86a	-0.037514128
144	0x3d1d3b7f	0.038386818
145	0xbc08b516	-0.0083439555
146	0x3d3f1d65	0.046658892
147	0x3dde7f6e	0.10864149
148	0x3e15a4a2	0.14613584
149	0x3cb4a467	0.02205105
150	0x3d45f27f	0.048326965
151	0x3c3aad29	0.011393824
152	0xbdce67a6	-0.10078363
153	0xbdec54a8	-0.115395844
154	0xbdfc3823	-0.12315395
155	0x3c920fc5	0.017829785
156	0x3b837405	0.0040116333
157	0xbda53a3e	-0.080677494
158	0x3ccf9b60	0.025342643
159	0x3da22d5a	0.079188064
160	0x3d62162f	0.055196937
161	0xbcc28638	-0.023745641
162	0x3d46b845	0.048515577
163	0x3c2b7463	0.0104647605
164	0xbc3c74fa	-0.011502499
165	0x3cc8d57c	0.02451586
166	0xbd67c6d8	-0.056586117
167	0xbe050fa9	-0.12994255
168	0x3d55ae28	0.05216804
169	0xbd9cf7a2	-0.0766442
170	0xbc06a01b	-0.008216883
171	0xbcbad7f5	-0.022808054
172	0xbd8d813c	-0.06909415
173	0xbd3caba2	-0.04606212
174	0xbd8a15f6	-0.0674247
175	0xbc88f32b	-0.016717514
176	0xbc5d5a69	-0.013510325
177	0x3c80405d	0.01565569
178	0x3d75e7a7	0.060035374
179	0x3e074f6f	0.13213895
180	0x3cc3068e	0.023806836
181	0xbcf6bbb3	-0.030118799
182	0xbc393665	-0.011304473
183	0x3cdd105c	0.02698534
184	0x3d5e401e	0.054260366
185	0x3d4c6d13	0.04990871
186	0x3dc0f996	0.09422605
187	0x3cba6a8b	0.022755882
188	0xbc8d0a86	-0.017216932
189	0x3d924ca4	0.07143524
190	0xbd754e52	-0.059889145
191	0xbd93a282	-0.0720873
192	0xbcec9574	-0.028879859
193	0x3d1df95f	0.038567897
194	0x3c67ac4e	0.014140202
195	0xbbd194da	-0.0063959183
196	0x3b0f6cf7	0.0021885016
197	0x3e04921b	0.1294636
198	0x3cfde2ec	0.030991994
199	0x3cfd55bd	0.030924672
200	0x3d102236	0.035188876
201	0x3d87bef6	0.0662822
202	0x3dcda1c2	0.100406185
203	0x3e4b39d5	0.1984628
204	0x3dc6014f	0.09668218
205	0x3e5f4bf3	0.21806316
206	0x3dde72d0	0.108617425
207	0x3e067874	0.13131887
208	0xbc80c310	-0.015718013
209	0x3d912d47	0.07088714
210	0x3d5b7a54	0.053583458
211	0x3d99c4f0	0.07508266
212	0xbce50b87	-0.027959598
213	0xbd96f205	-0.0737038
214	0xbdf1fd10	-0.11815846
215	0xbdf8fb68	-0.12157327
216	0xbcb1b12d	-0.02169093
217	0xbdbb4524	-0.09144047
218	0x3cc3f3cc	0.023919962
219	0xbde5fa4d	-0.11229382
220	0xbdb4410b	-0.088014685
221	0x3cec8050	0.028869778
222	0xbd937403	-0.07199862
223	0xbd98972a	-0.07450707
224	0xbd693247	-0.056932714
225	0x3cddf4ae	0.027094211
226	0x3d45cd5d	0.048291553
227	0x3e4321a7	0.19055806
228	0xbdb0f356	-0.08640163
229	0xbd9c465c	-0.076306075
230	0xbdbc662a	-0.09199174
231	0x3cdcd8d3	0.026958859
232	0x3c96f1fe	0.018425938
233	0xbcbb720c	-0.02288153
234	0xbae2a9a7	-0.0017292992
235	0x3d24c602	0.040227897
236	0x3d67f663	0.056631457
237	0x3d6cbbfb	0.05779646
238	0xbc6e14c2	-0.014531316
239	0xbca93427	-0.020654751
240	0x3ca6cda5	0.02036173
241	0x3c5c577d	0.013448593
242	0xbe053794	-0.13009483
243	0xbe446212	-0.19178036
244	0xbc5ae2bc	-0.013359722
245	0xbde0e592	-0.10981287
246	0xbd2a8be7	-0.041637328
247	0x3d25a6a4	0.040442124
248	0xbdb96898	-0.09053153
249	0xbd4f5250	-0.05061561
250	0xbdb31129	-0.087435074
251	0xbd894aba	-0.06703706
252	0x3d0d7dda	0.03454385
253	0xbcff31a8	-0.031151608
254	0x3e05aeb0	0.13054919
255	0x3e1375ef	0.14400457

projection.bias f4 [5]
0	0xbd1b82b4	-0.037966445
1	0x3cbf0e19	0.023322152
2	0x3c0a5a3f	0.008444368
3	0xbc9b9cf2	-0.018995736
4	0xbd0e8edb	-0.034804206
