result/Dliner/classification_CropMapping_t31tfm_3in4Period_0.5train_DLinear/checkpoint.pth (torch, 12375 bytes, 6 tensors)

Linear_Seasonal.weight f4 [10, 10]
0	0xbd8c65db	-0.06855365
1	0xbc6e8a6f	-0.014559372
2	0xbda6f475	-0.08152095
3	0x3dbc193f	0.09184503
4	0x3e804fb9	0.25060824
5	0x3e48a758	0.19595087
6	0x3e7228aa	0.23648325
7	0x3e4bf29d	0.19916768
8	0x3eabdfe2	0.33569247
9	0x3cef6203	0.02922154
10	0xbdb28b8f	-0.08718025
11	0xbd4ed53d	-0.05049633
12	0xbe029d1c	-0.12755245
13	0x3dcd232b	0.100164734
14	0x3e90c8cd	0.282782
15	0x3e5d935c	0.21638244
16	0x3e835560	0.25651073
17	0x3e5ccccf	0.21562503
18	0x3ea4cbe3	0.32186803
19	0x3c6ee229	0.014580288
20	0xbde37a24	-0.11107281
21	0xbd4fbf91	-0.0507198
22	0xbddc1a62	-0.107472196
23	0x3d82d58e	0.063883886
24	0x3e942f46	0.28942317
25	0x3e7ccb1f	0.2468686
26	0x3e91c752	0.28472382
27	0x3e78c8dd	0.24295373
28	0x3e5f5f88	0.21813786
29	0x3b253716	0.0025209836
30	0xbd89b370	-0.06723678
31	0xbcfec10a	-0.031097908
32	0xbdd35ddb	-0.10320636
33	0x3e4747eb	0.19461028
34	0x3e832dd9	0.25620916
35	0x3e59d89b	0.21274035
36	0x3e806a27	0.25080988
37	0x3e584b15	0.21122392
38	0x3ea617a0	0.324399
39	0x3bfa88f7	0.007645722
40	0xbd39aa53	-0.04532845
41	0x3dbbab05	0.09163479
42	0x3eb27250	0.3485284
43	0x3e9ba842	0.30401808
44	0x3c4b4705	0.012407069
45	0xbdecf8d6	-0.11570899
46	0xbe192c62	-0.14958337
47	0xbdd96907	-0.106157355
48	0x3eb5595b	0.35419735
49	0x3ea7bfa4	0.32763398
50	0xbe156832	-0.14590529
51	0xbd9ce6bc	-0.076611966
52	0xbe105a66	-0.14096984
53	0x3df37bad	0.11888824
54	0x3e9d960f	0.30778548
55	0x3e6fd81c	0.23422283
56	0x3e8f468d	0.27983513
57	0x3e6fc9f2	0.2341688
58	0x3eb0a8dc	0.3450383
59	0x3c5a6e7b	0.013332005
60	0xbd9c7212	-0.07638945
61	0xbd9c5d9f	-0.07635044
62	0xbe16c5d9	-0.1472391
63	0xbcaa8e30	-0.020819753
64	0x3e8ea5d0	0.2786088
65	0x3e7b96a4	0.24569184
66	0x3e935f83	0.28783807
67	0x3e77fe99	0.24218215
68	0x3e60ebc9	0.21964945
69	0xbbce1db5	-0.0062901624
70	0xbca86790	-0.020557195
71	0x3db5b53f	0.088724606
72	0x3ea338b1	0.3187919
73	0x3e0cf262	0.13764337
74	0x3cfc4d7d	0.030798668
75	0xbd992d94	-0.074793965
76	0xbdcece37	-0.10097926
77	0xbd83ea6a	-0.06441195
78	0x3eb46d5d	0.35239688
79	0x3e855ad0	0.26045847
80	0x3ab82f13	0.0014052115
81	0x3db1a09e	0.086732134
82	0xbdac4d60	-0.084131956
83	0x3e64deae	0.2235057
84	0x3e9dbfb3	0.30810317
85	0x3e5a15c6	0.21297368
86	0x3e7c21e4	0.24622303
87	0x3e67b2fa	0.22626868
88	0x3e5d9fcf	0.21642993
89	0x3baf6255	0.0053522983
90	0xbdce24ce	-0.10065614
91	0x3cde3373	0.027124142
92	0x3da2656d	0.07929502
93	0x3e894d98	0.26817012
94	0x3e81537e	0.25259012
95	0x3d97c065	0.07409743
96	0x3d841357	0.06449001
97	0x3d8be991	0.06831659
98	0x3ea350e8	0.31897664
99	0x3e75f3d7	0.24018799

Linear_Seasonal.bias f4 [10]
0	0x3e826e35	0.25474706
1	0xbc42bf6d	-0.01188646
2	0xbe944b38	-0.28963637
3	0x3e570d65	0.21001203
4	0x3e347df5	0.17626174
5	0xbe4f97f1	-0.20272805
6	0x3cd19c5b	0.025587251
7	0x3e76687e	0.24063298
8	0x3e75e9e8	0.2401501
9	0x3e081c91	0.13292147

Linear_Trend.weight f4 [10, 10]
0	0x3e56afa1	0.20965435
1	0x3e58dcd6	0.21177992
2	0x3e5abad8	0.21360338
3	0x3e5a3fe6	0.21313438
4	0x3e5b87db	0.21438543
5	0x3e5c8b01	0.21537401
6	0x3e5d4e98	0.21612012
7	0x3e5dd885	0.21664627
8	0x3e5e2edc	0.21697563
9	0x3e5e5783	0.2171307
10	0x3e51c847	0.20486556
11	0x3e53c8f5	0.20682128
12	0x3e559e9f	0.2086129
13	0x3e574685	0.21022995
14	0x3e58bf58	0.21166742
15	0x3e5a082c	0.2129218
16	0x3e5b2126	0.21399364
17	0x3e5c0b65	0.21488722
18	0x3e5cc859	0.21560802
19	0x3e5d5a56	0.21616492
20	0x3e2f411f	0.17114685
21	0x3e2f8bc1	0.17143156
22	0x3e2fa420	0.17152452
23	0x3e2f8f26	0.1714445
24	0x3e2f5262	0.1712127
25	0x3e2ef364	0.17085034
26	0x3e2e7778	0.17037761
27	0x3e2de419	0.16981544
28	0x3e2d3dff	0.16918181
29	0x3e2c8971	0.16849305
30	0x3e447c3d	0.19188018
31	0x3e46743c	0.19380277
32	0x3e484713	0.19558363
33	0x3e49f54a	0.19722477
34	0x3e4b7f3b	0.19872753
35	0x3e4ce5b9	0.20009507
36	0x3e4e29c3	0.20133118
37	0x3e4f4ce4	0.20244175
38	0x3e505064	0.20343167
39	0x3e513625	0.20430811
40	0x3e8dec56	0.27719373
41	0x3e90b825	0.2826549
42	0x3e9331f3	0.28749046
43	0x3e956397	0.29177544
44	0x3e9755d2	0.29557663
45	0x3e991051	0.2989526
46	0x3e9a99c2	0.30195433
47	0x3e9bf853	0.30462894
48	0x3e9d3108	0.3070147
49	0x3e9e4863	0.30914602
50	0x3e59366a	0.21212164
51	0x3e5c6a2f	0.21524881
52	0x3e5f4072	0.21801928
53	0x3e61ba53	0.22043733
54	0x3e63da7e	0.22251317
55	0x3e65a447	0.22425948
56	0x3e671d19	0.22569694
57	0x3e6849ef	0.22684453
58	0x3e6931b1	0.22772862
59	0x3e69daa7	0.22837315
60	0x3e0e3f21	0.1389127
61	0x3e0ba696	0.13637766
62	0x3e08bd8d	0.13353558
63	0x3e05aadc	0.13053459
64	0x3e028ec9	0.1274978
65	0x3dff03ac	0.12451872
66	0x3df92f66	0.12167244
67	0x3df3bfa8	0.1190179
68	0x3deec7d7	0.1165921
69	0x3dea4a95	0.11440007
70	0x3e7c497f	0.24637412
71	0x3e82106d	0.25403157
72	0x3e85619e	0.26051039
73	0x3e8827a2	0.26592737
74	0x3e8a5fe1	0.27026275
75	0x3e8c0f07	0.27355215
76	0x3e8d4ae5	0.27596202
77	0x3e8e2cd3	0.27768573
78	0x3e8ecab0	0.27889013
79	0x3e8f35fb	0.2797087
80	0x3e2901ca	0.16504589
81	0x3e25f220	0.16205645
82	0x3e22eb31	0.15910031
83	0x3e1ff6a9	0.15621437
84	0x3e1d1bc2	0.1534262
85	0x3e1a5ef6	0.15075287
86	0x3e17c323	0.14820533
87	0x3e1549b5	0.14578898
88	0x3e12f2e3	0.14350466
89	0x3e10bde1	0.14134933
90	0x3e967ff7	0.29394504
91	0x3e99ec8f	0.30063292
92	0x3e9cdcd1	0.3063722
93	0x3e9f5aae	0.3112387
94	0x3ea171e4	0.31532204
95	0x3ea32db2	0.318708
96	0x3ea49a21	0.3214884
97	0x3ea5c1a5	0.32374302
98	0x3ea6ae6c	0.32554948
99	0x3ea7697d	0.3269767

Linear_Trend.bias f4 [10]
0	0x3e5fcf16	0.21856341
1	0xbc9ce77e	-0.019153353
2	0xbea7ad81	-0.3274956
3	0xbe7b3e6a	-0.24535528
4	0xbc46a7fb	-0.012125011
5	0xb95eb8c1	-0.00021240396
6	0x3e0e4380	0.13892937
7	0x3e97d56a	0.2965501
8	0x3e9168f5	0.28400388
9	0xbe8e1b07	-0.27754995

projection.weight f4 [7, 330]
0	0xbd954391	-0.07288278
1	0xbd700131	-0.058594886
2	0xbd4b0c49	-0.049572263
3	0x3de41d48	0.111383975
4	0xbd257258	-0.04039225
5	0xbda22867	-0.079178624
6	0x3b957286	0.0045607714
7	0x3dd53bed	0.104118206
8	0xbd1a728b	-0.037706893
9	0xbc7aeb6c	-0.015314918
10	0x3d9aa150	0.07550299
11	0x3da22020	0.079162836
12	0xbced5163	-0.028969472
13	0x3cda139f	0.026620684
14	0x3de37277	0.11105817
15	0x3d1de332	0.03854675
16	0x3ce08ebe	0.027411815
17	0x3ca878b9	0.020565378
18	0xbc84ada5	-0.016196081
19	0xbdf7fbb2	-0.12108554
20	0xbc066de4	-0.008204911
21	0x3d94502e	0.072418556
22	0xbb3750bf	-0.0027971712
23	0x3d0b4474	0.03400083
24	0x3dcd7d92	0.10033716
25	0x3da6272c	0.0811294
26	0xbd350946	-0.044198297
27	0xbc2b5c4e	-0.010459019
28	0x3d3d93dc	0.046283588
29	0x3e0f1c62	0.13975671
30	0xbb9afeb5	-0.0047300705
31	0xbc1f63f8	-0.009728424
32	0xbc27d015	-0.010242482
33	0xbde5433c	-0.111944646
34	0xbd8b0eae	-0.06789909
35	0xbdab2eb3	-0.083585165
36	0x3d8a8acf	0.06764757
37	0xbd6de4c7	-0.058079507
38	0xbe02a203	-0.12757115
39	0xbd3ff3f4	-0.04686351
40	0x3d85f19f	0.06540226
41	0xbbfda16c	-0.0077401903
42	0xbda65e46	-0.0812345
43	0x3d16377a	0.036674
44	0x3c131ef4	0.008979548
45	0xbdaa6bad	-0.08321319
46	0x3d4572c6	0.04820516
47	0x3e1520fa	0.14563361
48	0x3e0db639	0.13839044
49	0x3d11425f	0.035463687
50	0xbd59caf5	-0.05317207
51	0xbdc741ca	-0.09729345
52	0xbdfb927e	-0.122838005
53	0x3d65127f	0.055925842
54	0x3c668560	0.014069885
55	0xbdb29ad6	-0.08720939
56	0x3d17870f	0.036994036
57	0x3e132c74	0.14372426
58	0x3d51e7c4	0.05124642
59	0xbd83f578	-0.06443304
60	0x3b6d308a	0.0036192262
61	0x3b97e084	0.0046349186
62	0x3e00c276	0.12574181
63	0x3d420659	0.047369335
64	0x3cfc9143	0.030830985
65	0x3d8c6331	0.06854857
66	0xbd5f473a	-0.054511286
67	0x3c1ea8d5	0.009683807
68	0xbc04e428	-0.008111037
69	0x3d734acf	0.059397515
70	0xbbcb9268	-0.0062125213
71	0xbda6ce89	-0.08144862
72	0xbbcff283	-0.0063460483
73	0x3e278f6f	0.1636331
74	0xbc6f8c41	-0.0146208415
75	0xbd0a876a	-0.033820547
76	0xbc8277c9	-0.015926259
77	0x3d62ca05	0.055368442
78	0xbd9b5bfb	-0.07585903
79	0xbcb1ea13	-0.02171806
80	0x3ded4588	0.11585528
81	0x3dad8a3e	0.08473633
82	0x387aac95	5.9765374e-05
83	0xbd501ed9	-0.05081067
84	0xbd8f8e64	-0.07009581
85	0xbddf11b6	-0.1089205
86	0xbd1a5844	-0.037681833
87	0x3c6a8917	0.014314911
88	0xbbae22e9	-0.00531422
89	0xbd36b8d1	-0.04460985
90	0x3dda3e0f	0.10656368
91	0x3dc10671	0.09425057
92	0xbcd549cb	-0.026036164
93	0x3d0c496b	0.034249704
94	0x3d431926	0.047631405
95	0x3e09aef0	0.1344564
96	0xbd248073	-0.04016156
97	0x3c1903d0	0.009339288
98	0x3dbb685f	0.091507666
99	0xbe02709e	-0.12738273
100	0xbcac97cd	-0.021068478
101	0xbcaaf3fc	-0.020868294
102	0x3d74244e	0.059604935
103	0xbda42028	-0.08013946
104	0xbd026f1a	-0.031844236
105	0x3c5c5688	0.013448365
106	0x3d7e8723	0.062140595
107	0xbc331691	-0.010930673
108	0xbd9df4d1	-0.07712711
109	0xbd00c8e2	-0.031441577
110	0x3d858393	0.065192364
111	0xbc13e93c	-0.009027775
112	0x3a8b165e	0.0010611524
113	0x3dc680a1	0.09692503
114	0x3d9af803	0.07566836
115	0xbb792c56	-0.003802081
116	0xbc51fa0d	-0.012815964
117	0xbdc006fa	-0.09376331
118	0xbe34eb7e	-0.17667958
119	0xbd039073	-0.03212018
120	0x3db95ad7	0.090505295
121	0xbdaa6e28	-0.08321792
122	0xbc8a8004	-0.016906746
123	0x3dfe8ef1	0.12429608
124	0x3db15d0c	0.086603254
125	0xbd67ac77	-0.05656096
126	0x3cc24249	0.023713248
127	0x3d3691fd	0.04457282
128	0x3e021d18	0.12706411
129	0x3c4fcb13	0.012682694
130	0x3d924eb1	0.071439154
131	0xbbf3dadd	-0.007441862
132	0xbdcea8d2	-0.10090794
133	0xbdefc102	-0.11706735
134	0xbd9d4126	-0.07678442
135	0x3d558577	0.052129235
136	0xbde881c6	-0.11352877
137	0xbe07f76b	-0.13277976
138	0xbcf00b83	-0.029302364
139	0x3db919af	0.09038102
140	0xbd0a7835	-0.033806045
141	0x3ccd5f05	0.025069723
142	0x3c0e3876	0.0086804535
143	0x3d08c1b3	0.03338785
144	0xbd54e848	-0.051979333
145	0x3c8cfe24	0.017211027
146	0x3d974383	0.07385924
147	0x3c7a2b3e	0.015269099
148	0xbbe21de6	-0.006900537
149	0x3d409122	0.04701341
150	0xbe10c6cb	-0.14138333
151	0xbdf51063	-0.11966016
152	0xbd263aba	-0.04058335
153	0xbd236fc5	-0.039901514
154	0xbda7aab1	-0.08186854
155	0xbd98719c	-0.07443544
156	0xbe32971e	-0.17440459
157	0xbdb75495	-0.089516796
158	0xbbb08ad2	-0.0053876424
159	0x3cf21637	0.029551608
160	0x3e1a3692	0.1505988
161	0x3d81a5a9	0.06330425
162	0x3c15abcc	0.009135198
163	0xbdaaa500	-0.083322525
164	0x3d1ca658	0.038244575
165	0xbdc61ee9	-0.096738644
166	0xbd616f4a	-0.055037774
167	0xbd8fc427	-0.07019835
168	0x3d9a53cc	0.07535514
169	0xbd82c713	-0.06385627
170	0xbd7e8e92	-0.062147684
171	0xbdb00224	-0.08594158
172	0x3dde0c3c	0.10842177
173	0xbc578afa	-0.013155693
174	0xbcea93f8	-0.02863501
175	0x3d120e74	0.035658315
176	0x3d44362d	0.04790323
177	0xba860ebb	-0.0010227779
178	0xbc645006	-0.013935095
179	0x3e121cb5	0.14268763
180	0x3d8528bd	0.06501911
181	0xbc5453b1	-0.012959407
182	0xbdaf3a01	-0.08555985
183	0xbd22c76a	-0.039740957
184	0xbde315af	-0.1108812
185	0x3bc869e1	0.0061161374
186	0x3cacb41f	0.021081982
187	0xbbca6d82	-0.006177605
188	0xbcd7cf45	-0.026343951
189	0x3e22b35b	0.15888731
190	0x3d1ff019	0.039047334
191	0xbce29725	-0.027659962
192	0x3db810aa	0.089875534
193	0x3dca02f0	0.098638415
194	0x3df568da	0.119828895
195	0x3d8a1064	0.067414075
196	0x3d1bae1f	0.03800785
197	0x3da92813	0.08259597
198	0xbd8c03c6	-0.06836657
199	0xbd0f8e16	-0.035047613
200	0xbcbc3ab9	-0.02297722
201	0x3d910863	0.07081678
202	0xbd848c9c	-0.064721316
203	0xbc109c53	-0.008826333
204	0xbd96c7f3	-0.07362356
205	0x3e016b9f	0.1263871
206	0xbbe5f8e6	-0.0070181964
207	0x3cc8ea4f	0.02452579
208	0xbc99646c	-0.018724643
209	0x3dae93b9	0.085242696
210	0xbd9eccec	-0.077539295
211	0x3c026327	0.00795821
212	0x3da06662	0.07832028
213	0x3d719c18	0.058986753
214	0x3bc86d99	0.0061165807
215	0xbd8d258e	-0.068919286
216	0xbdbfc3ce	-0.09363519
217	0xbd9493a7	-0.07254725
218	0xbc937c6b	-0.018003663
219	0x3d593b5f	0.053035136
220	0x3cad761c	0.021174483
221	0x3da27fad	0.079345085
222	0x3df5eec9	0.12008435
223	0x3d879791	0.06620706
224	0x3b093433	0.0020935654
225	0x3da9857a	0.08277412
226	0x3d52ad02	0.051434524
227	0x3e22ea2b	0.1590964
228	0xbadd9606	-0.0016905672
229	0x3d8f791f	0.07005524
230	0x3d8cc6d2	0.068738595
231	0xbd8dc46b	-0.069222294
232	0xbde9ae82	-0.11410238
233	0xbd771b4b	-0.060328763
234	0x3d7d5dce	0.061857037
235	0xbde9503b	-0.11392256
236	0xbd2832f3	-0.041064214
237	0x3cfe2667	0.031024171
238	0x3d719301	0.058978084
239	0xbdb03fa6	-0.0860589
240	0x3c8926d1	0.016742142
241	0x3d746b21	0.05967248
242	0xbc06339b	-0.008191015
243	0xbdc47f6f	-0.095946185
244	0xbae6a817	-0.0017597702
245	0x3c978d10	0.018499881
246	0xbcdb6e3e	-0.026785966
247	0x3c72f1f4	0.014828194
248	0xbcca599a	-0.024700928
249	0xbd8a4568	-0.067515194
250	0xbdafcc01	-0.085838325
251	0xbc210bc8	-0.009829469
252	0x3d3d1f32	0.04617233
253	0xbdc1f980	-0.094714165
254	0xbd0f5191	-0.034989897
255	0xbd9f88a9	-0.07789738

projection.bias f4 [7]
0	0x3ca1c08c	0.019745134
1	0x3d6c022d	0.057619262
2	0x3ce60ff3	0.028083777
3	0x3cf364c4	0.029711135
4	0xbdd719c8	-0.10502964
5	0x3c0a24b2	0.0084316
6	0x3d909f9d	0.07061694
