result/Dliner/classification_CropMapping_t32ulu_4in4Period_0.1train_DLinear/checkpoint.pth (torch, 10711 bytes, 6 tensors)

Linear_Seasonal.weight f4 [10, 10]
00000000: 6c31 5f3d b4d4 b33d f95b ad3d 0f42 0a3e
00000010: ee6e 1a3e 1382 f83d 6591 f33d b0f3 023e
00000020: f910 c13d 00d1 933d e61d 1e3d 7d4e b33d
00000030: 85cd 713d c691 383e 6f1b 323e 4999 ea3d
00000040: 6eea e53d be66 dc3d 3628 073e c012 f13d
00000050: f1b5 813d b6b7 203e 3683 243e 7921 393e
00000060: 9dd3 113e 5c84 bb3d 13c0 cc3d f529 d13d
00000070: add6 0e3e fad5 bd3d f9bb e13c e17d ac3d
00000080: 8d01 b63d 8d2e 4a3e 7a77 f53d 45dc 8d3d
00000090: e206 8c3d e751 8a3d 6c47 1b3e 7d58 123e
000000a0: 97f4 603d 9459 e43d 6e06 f73d c035 473e
000000b0: 47ed d73d 2716 9f3d 62be 993d c0cd 9d3d
000000c0: 7e52 a63d 0597 0a3e 4f03 373d 40e5 9a3d
000000d0: be44 d83c 2275 ed3d 47d3 4c3e 7159 423e
000000e0: 6c29 463e 2ef0 413e ff36 ad3d ba13 1cbc
000000f0: 895d d03c 1e79 8c3d 9859 0b3e c61c 4a3e
00000100: 6695 a63d ba24 3b3d 8823 3a3d 3fe6 403d
00000110: 159a 323e 2777 253e cb55 d53d cc6a bb3d
00000120: e03a e23d 6399 be3d 6409 9e3d dc3b 883d
00000130: bbed 7a3d ff4d 843d 6895 c13d c967 0b3e
00000140: fab6 c03d 817c 593d e9e6 413d dfcc 533d
00000150: b223 8c3d ea36 df3d 1991 d43d 0adf c33d
00000160: 85d0 be3d 2d5f 063e 6fdf 253d 3f0e 013e
00000170: d38a f43c 5c09 ff3d 48f8 323e 9e03 2c3e
00000180: fc64 2d3e d31b 2a3e 27d8 0b3d 1108 1e3d
0.05449049 0.08780804 0.08464808 0.13501762 0.15081379 0.12134185 0.11892966 0.12788272
0.094270654 0.07217598 0.038602732 0.08755205 0.05903389 0.18024358 0.17393278 0.11455018
0.112263545 0.10761784 0.13198933 0.117711544 0.06333531 0.1569508 0.16065678 0.18079175
0.1424088 0.09156105 0.09997573 0.10213081 0.1394908 0.092693284 0.027555453 0.08422447
0.088870145 0.1974432 0.11985679 0.06926779 0.0683725 0.06753903 0.15163964 0.14291568
0.05492076 0.11149898 0.12061773 0.19454098 0.10543304 0.07767897 0.07507016 0.07705259
0.08121203 0.13534172 0.04468089 0.07563257 0.026399966 0.11594607 0.20002471 0.18979432
0.19351739 0.18939278 0.08457755 -0.009526188 0.025435226 0.06859039 0.13608396 0.19737539
0.08133964 0.045689322 0.04544404 0.04709458 0.1744159 0.16158734 0.10416754 0.09151229
0.11046386 0.093066 0.07716635 0.06652042 0.061261874 0.06460189 0.09452325 0.1361381
0.094099 0.05309725 0.047339354 0.051709052 0.06842746 0.10899146 0.10379238 0.09564026
0.09317116 0.13122244 0.040496286 0.1260309 0.029851353 0.12452957 0.17477524 0.16798255
0.16933054 0.16612177 0.034141686 0.03858191

Linear_Seasonal.bias f4 [10]
00000000: d9e7 673e 3efe a83c 7ed5 80be 087a 793e
00000010: 0750 253e 221f 17be eb22 95ba f77b 7a3e
00000020: 6933 853e a2d2 043e
0.22647037 0.020629045 -0.25162882 0.24362957 0.1614381 -0.1475797 -0.0011378204 0.24461351
0.26015785 0.12970975

Linear_Trend.weight f4 [10, 10]
00000000: 70a8 153e 0122 133e b492 103e 9009 0e3e
00000010: b391 0b3e d132 093e 0cf2 063e c0c5 023e
00000020: 3cc7 003e 09d4 fd3d 2192 493e c5c5 493e
00000030: ce2a 493e 7e10 483e c69b 463e 36e7 443e
00000040: 4c10 433e b62e 413e c151 3f3e 4082 3d3e
00000050: d080 463e 5f28 463e a6ac 453e d411 453e
00000060: 185c 443e 348f 433e 24af 423e ddbe 413e
00000070: bcc1 403e 67ba 3f3e 38d2 4b3e 4fee 4c3e
00000080: 9f4e 4d3e 85ce 4f3e 1ce1 4f3e 93ea 4e3e
00000090: 7e5b 4d3e f098 4b3e 9fd0 493e 3715 483e
000000a0: 129d 3b3e b593 3b3e 6a5d 3b3e df05 3b3e
000000b0: 2d96 3a3e 9615 3a3e 0a8a 393e 1ff8 383e
000000c0: 3763 383e 10ce 373e 943c fa3d 3e3b f63d
000000d0: ffda f13d 8515 ed3d 95e5 e73d 7247 e23d
000000e0: 393a dc3d 78c0 d53d b9e0 ce3d cda6 c73d
000000f0: 254b 4c3e 65d2 4b3e c4e4 4a3e f3d9 493e
00000100: 43cc 483e ddc5 473e 34cb 463e 0ede 453e
00000110: 12ff 443e b62d 443e a0c9 2c3e a6f6 293e
00000120: 0420 273e d882 243e bb30 223e 2329 203e
00000130: 7864 1e3e 99d9 1c3e 2180 1b3e 1150 1a3e
00000140: ea60 7b3d 18f7 7a3d e19a 7a3d 864f 7a3d
00000150: dd18 7a3d 19fb 793d 46fb 793d ec1e 7a3d
00000160: 686c 7a3d 25eb 7a3d 33c6 d83d 97b9 cc3d
00000170: ec74 c23d 26b2 b93d 2031 b23d c4ba ab3d
00000180: 4621 a63d 773f a13d c9f6 9c3d 9c2e 993d
0.14615035 0.1436844 0.14118463 0.13870835 0.13629799 0.13398291 0.13178271 0.12770748
0.12576002 0.12393958 0.1968465 0.1970435 0.19645235 0.19537541 0.1939536 0.19228825
0.19049186 0.18865475 0.1868353 0.18506718 0.19385076 0.19351338 0.19304141 0.19245082
0.19175756 0.19097596 0.19012123 0.18920465 0.18823904 0.1872345 0.19904411 0.20012783
0.20049523 0.20293625 0.20300716 0.2020667 0.20054433 0.1988256 0.19708489 0.19539343
0.18321636 0.18318065 0.18297353 0.18263958 0.1822135 0.18172297 0.18119064 0.180634
0.18006597 0.179497 0.122185856 0.12023018 0.11809348 0.1157637 0.11323086 0.11048783
0.107532926 0.10437101 0.10101456 0.097486116 0.1995054 0.19904478 0.1981383 0.19712047
0.1960917 0.19509073 0.19413453 0.19322988 0.19237927 0.19158062 0.16873789 0.16597995
0.16320807 0.16065538 0.15838902 0.15640692 0.15468013 0.15317382 0.15185596 0.15069605
0.06137172 0.061270803 0.06118286 0.061110996 0.061058868 0.06103048 0.06103065 0.061064646
0.06113854 0.061259408 0.105846785 0.09996336 0.09494957 0.09067182 0.08700776 0.08385232
0.08111815 0.07873433 0.07664258 0.07479593

Linear_Trend.bias f4 [10]
00000000: 96da 423e ffeb 5a3c c637 94be c9d1 58be
00000010: 11c3 dcbc cf04 613d 88cb e53d 25df 993e
00000020: 54a7 9b3e efbf 8fbe
0.19028696 0.01336193 -0.28948802 -0.21173777 -0.026948484 0.054936226 0.11220461 0.30053058
0.304011 -0.2807612

projection.weight f4 [5, 380]
00000000: 68d0 29bb 5c09 80bd f50e 21bd 8ce1 043d
00000010: 65c8 fe3b 38d3 37bd ea8f 3b3c 45ba 8e3c
00000020: 6ae8 08bc c4bf 44bb a54c 2b3d 02bd 0b3d
00000030: 1a46 9d3c b9de a93c c21f 3d3c dfb6 c0bc
00000040: 1bb5 a93c fcbc d63c f176 bc3c dd32 87bc
00000050: 6046 20bd 33f3 b63c b74c a13c a683 453c
00000060: 51c3 913c e110 a43c fd58 81bc 3910 3bbd
00000070: 90a1 d43c 3caf 77bb 0c3b 5cbd 8ce2 5bbd
00000080: 0357 a0bd 2d8b 8cbc 795c 31bc 816b 34bd
00000090: 3861 ec3b ef9e d4bb fb32 c1bd e8a1 9fbd
000000a0: eb63 d9bd 3a79 263d adb7 783c 5543 5cbc
000000b0: c0ab 46bd ec8d ea3c 8c54 7ebb 098d 2b3d
000000c0: abd8 8c3d 142b 5d3d a197 c73b eb92 213d
000000d0: 2f1d b0bb 6375 f53b fc0c 09bd f03f b7bd
000000e0: d458 79bb ba03 a23d 0dea 63bd cb14 d1bd
000000f0: bdc2 b4bd 24c0 c3bd c635 88bd 88c9 f2bc
00000100: ff72 7f3d adbc a73d 51c9 7d3d 68dd 22bc
00000110: cddf 7ebc 06db c63b 4681 80bc 5ee2 82bd
00000120: d783 2a3d 26d9 2a3d ace9 043d 7fb5 b03b
00000130: 9ea1 95bc 9f99 bdbb eadc 52bd 373a b4bc
00000140: 0062 613d df98 963c 6a9e d23c 88b0 f23c
00000150: 62ec b3bc 5ccc 3e3c a3bc 88bc 632a 8d3c
00000160: e079 593d acca 55bc 8b8c 863a a5ae 3d3d
00000170: e60d b03b 3b47 72bb 6150 f83c 14cb 6a3c
00000180: 60e5 66bd 23c2 acbc 481f 4f3d 51c4 02bc
00000190: 1b31 4a3d 0af9 033d d747 793d 0c24 b03b
000001a0: a3fd be3d e5af 543d 4dc2 09bd ed66 573d
000001b0: 7f76 e7bc 222f 95bc 82ba 553d b165 3d3d
000001c0: 7ce7 b53b 984c 11bb bea0 8abd f6a3 8fbd
000001d0: 6263 15bd 6319 b3bc f808 7e3c f81e 98bd
000001e0: 1522 ef3c c4df e83c 3b59 72bd 97df 013d
000001f0: 7ac5 223d d786 c8bc 475b 13bc 676c 4d3c
00000200: f162 83bd 8893 b3bd 1c46 d93b 7a84 f2bd
00000210: 52de 0bbc 8de4 153d a683 f5bc b8d4 9ebd
00000220: 2eb4 95bd 4179 5fbd d5fe 30bd 781f 40bd
00000230: f217 c23d 0bbb 043e d740 fb3c ef93 3cbd
00000240: 9bc6 d23b 7a30 bfbc 31dc 683c d81a 933d
00000250: 15c0 9a3d 4a51 173d 969c d53c 47fd ffbc
00000260: a036 c9bd bd97 aebd 3d22 50bd 33ab 3d3c
00000270: 32c6 2d3c d607 52bd ca9c 5a3c b896 2b3d
00000280: 63da 1f3c dc79 25bd 0e16 0e3d 2229 1cbc
00000290: 27cc a5bc bb9c c53c 922b d9bc 1632 94bd
000002a0: 65ea 603c 96a8 9dbd f7ad 92bc 507a 3bbc
000002b0: 6e53 99bd ab97 aebc e755 56bd 3127 28bc
000002c0: 40ca cabc f852 113c 23a7 043d f500 a23d
000002d0: 37a6 ab3c 3b88 2abd 211c 52bd ad58 2a3c
000002e0: b72b 5d3c dee0 bb3b 86b2 853c 3711 123d
000002f0: 9bb1 16bd b1cd 0f3d 5c0f 77bd a560 69bd
00000300: a1be 623c 2ad6 e13c 2494 453c 8c4b 523c
00000310: eaaf 46ba 2e9c c73d 3c92 2d3b 673a fa3c
00000320: 1484 143d 423f 7b3d 8d6e 3d3d 339b fd3d
00000330: 5a0f 5a3d 18d3 f83d 9370 c43d 58d4 e33d
00000340: 3115 94bc 1b7b a83d eb8a 603d a102 2a3d
00000350: 488d 0bbd 2cdc 96bd 66f9 68bd 0f99 b9bd
00000360: a2c5 59bc f033 3cbb 615e 973c 210c 7fbd
00000370: dff9 e5bc 079e c83c 9e00 62bd 1251 70bd
00000380: a7b2 0cbd 3321 273d f119 003d 2a85 003e
00000390: 0c5d abbd dd32 3abd 930a a1bc b877 a23c
000003a0: b39c a73c 57e9 0a3c d199 40bc 3d18 5a3b
000003b0: d1b9 363c 90dd 2e3d e2f8 d7bc b98d 19bd
000003c0: 1f5a aa3c 9d4c eb3c e05a c1bd 632d f7bd
000003d0: 4782 4fbd 09cd d8bd 5cbf 36bd e7bd 523d
000003e0: 6f17 c0bd 3a82 c3bc fd1e 93bd 8557 76bd
000003f0: f8a7 b93c e2ba 1fbd 6944 d53d 2d0c b13d
-0.0025911573 -0.06251785 -0.039320905 0.03244166 0.0077753537 -0.04487917 0.011447886 0.017422805
-0.008356193 -0.0030021528 0.04182114 0.0341158 0.019198466 0.020736085 0.011543216 -0.0235247
0.02071624 0.026213162 0.023005934 -0.016503746 -0.039129615 0.022332763 0.0196899 0.012055313
0.01779333 0.02002758 -0.015789503 -0.045669768 0.025955945 -0.0037793657 -0.05376725 -0.05368285
-0.07829096 -0.017156208 -0.01082527 -0.044047836 0.007213738 -0.006488673 -0.09433552 -0.07794553
-0.10614761 0.040642954 0.0151805105 -0.013443788 -0.048503637 0.028632127 -0.0038807718 0.04188255
0.06877264 0.05399616 0.0060910736 0.039446753 -0.0053745727 0.0074908 -0.03345965 -0.08947742
-0.003804733 0.07910867 -0.05564313 -0.10209044 -0.08826206 -0.09558132 -0.066508815 -0.029637113
0.06236553 0.08190284 0.06195957 -0.009940483 -0.015556288 0.00606859 -0.015686642 -0.06390832
0.04162964 0.041710995 0.03244941 0.00539273 -0.018265542 -0.0057861353 -0.05148021 -0.022000415
0.0550251 0.018383441 0.025710303 0.029625192 -0.021963302 0.011645403 -0.016691511 0.017232126
0.053094745 -0.013048809 0.0010265274 0.046309132 0.0053727506 -0.0036968726 0.030311765 0.014330644
-0.056371093 -0.021088665 0.05056694 -0.007981376 0.049363237 0.032219924 0.060859527 0.005375391
0.09325721 0.05192556 -0.033632565 0.052588392 -0.028254746 -0.018210951 0.05217982 0.04623956
0.0055512767 -0.0022170898 -0.067689404 -0.07013695 -0.036471732 -0.021862691 0.015505068 -0.07427782
0.029191056 0.028427012 -0.059167128 0.031707373 0.03973911 -0.02447836 -0.00899393 0.012538052
-0.06415356 -0.08768374 0.006630672 -0.11841674 -0.008536892 0.036594916 -0.029970001 -0.07755417
-0.07309757 -0.054558996 -0.043211777 -0.04690501 0.094772235 0.12961976 0.030670566 -0.046039518
0.006432367 -0.023338545 0.014212654 0.071828544 0.07556168 0.036942758 0.026075643 -0.031248702
-0.09824872 -0.085250355 -0.050813902 0.011576462 0.0106063355 -0.051277004 0.0133430455 0.041891783
0.009756657 -0.040399417 0.034689 -0.009531291 -0.020238949 0.024122586 -0.026510034 -0.07236116
0.013727759 -0.07698171 -0.017905219 -0.011442736 -0.07486616 -0.021312555 -0.052328017 -0.01026325
-0.024754643 0.008869879 0.032385956 0.07910339 0.02095328 -0.041633826 -0.051296357 0.0103971185
0.013499192 0.0057335934 0.016320478 0.03566095 -0.03679047 0.035108272 -0.060317382 -0.056976933
0.013839395 0.027567942 0.012059245 0.012835395 -0.0007579314 0.09746586 0.0026484868 0.030545427
0.036258772 0.061339624 0.046248008 0.123831175 0.053237297 0.12149638 0.09591784 0.11124486
-0.018076511 0.082266055 0.054819982 0.041506413 -0.034070283 -0.07366213 -0.05687847 -0.09062397
-0.013291748 -0.002871748 0.01847762 -0.062267426 -0.02807325 0.024489416 -0.05517637 -0.058671065
-0.034350064 0.040803146 0.03127474 0.12550798 -0.08367357 -0.045458663 -0.019658362 0.019832477
0.020460462 0.008478484 -0.011755423 0.0033278607 0.0111527005 0.042691767 -0.026363794 -0.037488673
0.020794926 0.028723055 -0.09441161 -0.12069204 -0.05066135 -0.10585982 -0.04461609 0.051450636
-0.093794696 -0.023865808 -0.07183645 -0.06014206 0.022663102 -0.038996585 0.10413439 0.086449005

projection.bias f4 [5]
00000000: 9674 21bd eb3a ab3c d057 363c 6e4e 7ebc
00000010: 2602 17bd
-0.039417826 0.020902118 0.011129335 -0.015521629 -0.036867283
