result/Dliner/classification_CropMapping_t32ulu_4in4Period_0.05train_DLinear/checkpoint.pth (torch, 10711 bytes, 6 tensors)

Linear_Seasonal.weight f4 [10, 10]
0.077694215 0.100765795 0.09773964 0.12505503 0.1434905 0.10851017 0.108426414 0.11607293
0.1039766 0.07841499 0.052262813 0.08220473 0.057958346 0.15715776 0.1636285 0.12811413
0.12714177 0.12174365 0.12400113 0.106916375 0.07427111 0.13501832 0.14563298 0.16664484
0.12925805 0.09118281 0.0984678 0.10070071 0.13667573 0.092843264 0.045878865 0.078823864
0.08248962 0.17670162 0.11978738 0.06838977 0.06688595 0.06554485 0.14180662 0.13938728
0.06336482 0.099049516 0.11948184 0.16860564 0.10122857 0.080665685 0.078504615 0.0792287
0.078215614 0.12904334 0.05331474 0.071975105 0.042839404 0.107789375 0.17569877 0.1695393
0.17220294 0.16908365 0.09953461 0.015649902 0.04078814 0.06278129 0.13516137 0.16906369
0.07151763 0.04608651 0.046490308 0.04725186 0.16257031 0.15500751 0.109233804 0.089344375
0.11395698 0.08133481 0.07237148 0.06499851 0.060824934 0.063195415 0.09220703 0.13887626
0.09668926 0.058989935 0.049595937 0.053966284 0.06352217 0.11036249 0.10498295 0.09603767
0.080605455 0.1296153 0.04719466 0.12155545 0.041894898 0.12835385 0.15990855 0.15586118
0.15653327 0.15474132 0.04522869 0.047305282
00000000: 251e 9f3d 4c5e ce3d b82b c83d 6d0e 003e
00000010: 2cef 123e 943a de3d ab0e de3d a5b7 ed3d
00000020: aff1 d43d 0a98 a03d 8811 563d f45a a83d
00000030: bb65 6d3d f7ed 203e 3b8e 273e 5a30 033e
00000040: 7431 023e bc54 f93d 4ef4 fd3d f9f6 da3d
00000050: 741b 983d 3e42 0a3e d020 153e f2a4 2a3e
00000060: 395c 043e 0ebe ba3d 7ca9 c93d 2d3c ce3d
00000070: b9f4 0b3e 9c24 be3d 7aeb 3b3d 686e a13d
00000080: 51f0 a83d 45f1 343e 1653 f53d f00f 8c3d
00000090: 80fb 883d 613c 863d c135 113e 8abb 0e3e
000000a0: 6ac5 813d 79da ca3d e5b2 f43d f5a6 2c3e
000000b0: ed50 cf3d 0d34 a53d 07c7 a03d a842 a23d
000000c0: 822f a03d f023 043e 8f60 5a3d af67 933d
000000d0: 5f78 2f3d adc0 dc3d 61ea 333e b69b 2d3e
000000e0: f855 303e 4424 2d3e cdd8 cb3d 3934 803c
000000f0: 7711 273d 7a93 803d be67 0a3e 081f 2d3e
00000100: d677 923d 35c5 3c3d 9f6c 3e3d 2b8b 413d
00000110: d578 263e 4aba 1e3e f9b5 df3d 2ffa b63d
00000120: 4762 e93d dd92 a63d 8037 943d f01d 853d
00000130: 9123 793d 996c 813d 0ad7 bc3d 9435 0e3e
00000140: 0505 c63d 6e9f 713d 1c25 4b3d c00b 5d3d
00000150: e917 823d bb05 e23d 4d01 d73d 66af c43d
00000160: 7914 a53d e0b9 043e 304f 413d 10f2 f83d
00000170: fc99 2b3d 316f 033e 11bf 233e 139a 1f3e
00000180: 424a 203e 8274 1e3e b841 393d 2fc3 413d

Linear_Seasonal.bias f4 [10]
0.22961287 0.01783544 -0.25588012 0.23514092 0.16125442 -0.15078169 -0.0023028366 0.25019464
0.26226363 0.12587318
00000000: a31f 6b3e a11b 923c b802 83be c8c8 703e
00000010: e11f 253e 8466 1abe 30eb 16bb 8319 803e
00000020: 6b47 863e e6e4 003e

Linear_Trend.weight f4 [10, 10]
0.11354257 0.11312083 0.112651266 0.1121451 0.111612745 0.11106425 0.11050833 0.10995221
0.10940195 0.10886228 0.17261608 0.17650095 0.17755467 0.17738995 0.17626517 0.1747336
0.17304134 0.17130215 0.16957572 0.16789638 0.17061645 0.17012426 0.16957092 0.1689649
0.16831349 0.16762398 0.1669031 0.1661567 0.16539061 0.16460976 0.16473792 0.16959429
0.1719061 0.17396568 0.17560448 0.17636985 0.17630608 0.17573394 0.17490397 0.17395931
0.15735239 0.15734866 0.15720086 0.1569524 0.15663813 0.15628389 0.15590836 0.1555256
0.15514396 0.154769 0.109448336 0.108093396 0.10663355 0.10506367 0.10337931 0.10157828
0.09966099 0.09763146 0.09549831 0.09327556 0.17890269 0.17884693 0.17835741 0.17768025
0.17693876 0.17618996 0.17546141 0.1747649 0.1741061 0.17348626 0.16332904 0.16176789
0.15991335 0.15808013 0.15638833 0.15487127 0.15352622 0.15233798 0.1512874 0.15035596
0.062089458 0.06191704 0.061743516 0.061569605 0.061396267 0.061224595 0.061055817 0.060891703
0.060733907 0.060584825 0.09564742 0.09128738 0.08758608 0.084433645 0.08173446 0.07940894
0.07739197 0.07563106 0.07408371 0.07271567
00000000: 0289 e83d e5ab e73d b5b5 e63d 55ac e53d
00000010: 3995 e43d a775 e33d 3152 e23d a02e e13d
00000020: 210e e03d 30f3 de3d 45c2 303e aabc 343e
00000030: e4d0 353e b6a5 353e db7e 343e 5ded 323e
00000040: c031 313e d569 2f3e 42a5 2d3e 07ed 2b3e
00000050: 14b6 2e3e 0e35 2e3e 00a4 2d3e 2205 2d3e
00000060: 5f5a 2c3e 9fa5 2b3e a5e8 2a3e fb24 2a3e
00000070: 285c 293e 768f 283e 0fb1 283e 20aa 2d3e
00000080: 2708 303e 0f24 323e a9d1 333e 4c9a 343e
00000090: 9589 343e 99f3 333e 071a 333e 6422 323e
000000a0: fc20 213e 0220 213e 43f9 203e 21b8 203e
000000b0: bf65 203e e208 203e 71a6 1f3e 1a42 1f3e
000000c0: 0fde 1e3e c47b 1e3e 7326 e03d 1260 dd3d
000000d0: b162 da3d 9f2b d73d 88b8 d33d 4608 d03d
000000e0: 101b cc3d 01f3 c73d 9e94 c33d 4207 bf3d
000000f0: 4432 373e a623 373e 53a3 363e d0f1 353e
00000100: 6f2f 353e 246b 343e 28ac 333e 92f5 323e
00000110: df48 323e 62a6 313e ba3f 273e 7ba6 253e
00000120: 53c0 233e c2df 213e 4324 203e 9396 1e3e
00000130: fa35 1d3e 7dfe 1b3e 16eb 1a3e eaf6 193e
00000140: 8451 7e3d b99c 7d3d c5e6 7c3d 6930 7c3d
00000150: a77a 7b3d a4c6 7a3d aa15 7a3d 9469 793d
00000160: 1ec4 783d cb27 783d cbe2 c33d e1f4 ba3d
00000170: 5560 b33d 8ceb ac3d 6664 a73d 28a1 a23d
00000180: ae7f 9e3d 75e4 9a3d 33b9 973d f4eb 943d

Linear_Trend.bias f4 [10]
0.19342947 0.010568352 -0.29373932 -0.22022647 -0.02713222 0.05173413 0.11103944 0.30611148
0.30611676 -0.28459793
00000000: 6012 463e e226 2d3c 0065 96be 0c83 61be
00000010: 6444 debc 2be7 533d a568 e33d a5ba 9c3e
00000020: 56bb 9c3e d2b6 91be

projection.weight f4 [5, 380]
0.00034970592 -0.052274857 -0.028762555 0.027407046 -0.0001006674 -0.04270761 0.0122505585 0.013440831
-0.013856908 -0.003317408 0.03888581 0.03161908 0.013429105 0.011788413 0.0068645133 -0.029307941
0.012673502 0.024805997 0.022084558 -0.023418963 -0.041340318 0.02282989 0.02121602 0.013251776
0.0199451 0.023215225 -0.01949715 -0.04713294 0.018573506 0.002448669 -0.049152132 -0.049581975
-0.0750252 -0.013951943 -0.010295001 -0.03849288 0.009232276 -0.01159441 -0.085105166 -0.065194115
-0.08542045 0.023785232 0.0038094583 -0.0034468055 -0.04540777 0.025957733 -0.0052700127 0.044008452
0.06400437 0.054171205 0.0061432654 0.037106913 0.0050170296 0.02417231 -0.03735998 -0.07402281
0.0026400257 0.077033855 -0.045003746 -0.090805 -0.07682115 -0.08704787 -0.06636575 -0.025988486
0.054207098 0.059445277 0.062527634 -0.0062115723 -0.023840846 0.021472627 -0.02587478 -0.076128766
0.019288514 0.048599638 0.03538914 0.0015811758 -0.016636064 0.0032733518 -0.037873186 -0.024573902
0.04947458 0.020268362 0.026640236 0.024204906 -0.020441232 0.011664984 -0.020154638 0.014541985
0.0503418 -0.017302455 0.0027734453 0.05048313 -0.0015364715 0.00021116706 0.029911608 0.013797376
-0.0531806 -0.017012283 0.05281999 -0.0064644236 0.049802523 0.03274318 0.055253103 -0.00075311423
0.084611654 0.05697587 -0.03426055 0.055022202 -0.029191867 -0.019031052 0.04923375 0.055617176
0.009664311 -0.0044794115 -0.05692139 -0.05608732 -0.01511359 -0.038508367 0.0035470158 -0.06408784
0.030850278 0.025310148 -0.061555024 0.03613208 0.03676238 -0.023493832 -0.008044716 0.012644844
-0.057221215 -0.07202079 0.005464172 -0.1114933 -0.0016905194 0.034167822 -0.026278216 -0.07138502
-0.06749332 -0.050121244 -0.04511367 -0.04687867 0.087173074 0.10918321 0.030597018 -0.04259012
-0.0081219375 -0.008737075 -0.00040557288 0.060032573 0.05471164 0.04373967 0.027646948 -0.02903452
-0.0885415 -0.07125022 -0.031091137 -0.002771331 0.00054517447 -0.04211209 0.014236653 0.04011198
0.005274634 -0.039230634 0.030513508 -0.011702396 -0.0206867 0.022166088 -0.023239028 -0.06202007
0.010489625 -0.06883724 -0.013599461 -0.01458455 -0.06964519 -0.012148041 -0.04322938 -0.0043562353
-0.027457122 0.009564954 0.023808606 0.0593049 0.021203393 -0.038334765 -0.060274407 0.024709683
0.0043467167 -0.001042283 0.002199356 0.041849013 -0.037121877 0.03384203 -0.060722735 -0.055658266
0.024004545 0.02532507 0.0062653245 0.016763298 0.0026628892 0.08902275 0.012881786 0.032223426
0.030532477 0.05584403 0.022149062 0.10287909 0.031737953 0.090224676 0.07528219 0.09998104
-0.024692541 0.080616824 0.038939983 0.028944144 -0.028813217 -0.063033946 -0.04467946 -0.078568645
-0.0066071902 0.017085094 0.016595237 -0.042168356 -0.009803121 0.036906388 -0.042088002 -0.04270062
-0.018024161 0.047938984 0.034195542 0.08817713 -0.07371323 -0.030924153 -0.00017452429 0.009322167
0.010159243 0.017613025 -0.010579285 -0.0013826446 0.0050886176 0.043473583 -0.030243209 -0.039485306
0.019983547 0.02731942 -0.088705905 -0.10678704 -0.051946547 -0.098575234 -0.041608047 0.04709127
-0.088925354 -0.01609435 -0.06565976 -0.05606774 0.018754866 -0.041606143 0.09203899 0.06560801
00000000: bc58 b739 291e 56bd 739f ebbc be84 e03c
00000010: 661d d3b8 2dee 2ebd 91b6 483c ee36 5c3c
00000020: 1608 63bc df68 59bb ba46 1f3d 0283 013d
00000030: c005 5c3c 3024 413c b6ef e03b 3517 f0bc
00000040: 85a4 4f3c f235 cb3c adea b43c 20d9 bfbc
00000050: 7754 29bd c005 bb3c 38cd ad3c fa1d 593c
00000060: e863 a33c db2d be3c 7db8 9fbc 780e 41bd
00000070: 7727 983c d979 203b bf53 49bd 7816 4bbd
00000080: d0a6 99bd b196 64bc 5dac 28bc b6aa 1dbd
00000090: f942 173c 7bf6 3dbc 9e4b aebd 7e84 85bd
000000a0: ebf0 aebd 3fd9 c23c 1ba8 793b cde3 61bb
000000b0: 7ffd 39bd 50a5 d43c 12b0 acbb 3542 343d
000000c0: b914 833d a0e2 5d3d 724d c93b 6bfd 173d
000000d0: e565 a43b 0205 c63c c706 19bd 4599 97bd
000000e0: 4804 2d3b edc3 9d3d d955 38bd f9f7 b9bd
000000f0: 6854 9dbd 2746 b2bd c4ea 87bd cee5 d4bc
00000100: 4308 5e3d e47c 733d 7d0e 803d 728a cbbb
00000110: e14d c3bc 5de7 af3c 59f7 d3bc 66e9 9bbd
00000120: f202 9e3c 6a10 473d 34f4 103d 753f cf3a
00000130: 5b48 88bc bb85 563b ea20 1bbd 354f c9bc
00000140: dba5 4a3d d609 a63c a03c da3c 5e49 c63c
00000150: 5f74 a7bc 7d1e 3f3c 571b a5bc 8141 6e3c
00000160: 3433 4e3d e1bd 8dbc b1c2 353b 66c7 4e3d
00000170: 6e63 c9ba ba6c 5d39 3009 f53c 640e 623c
00000180: e7d3 59bd 585d 8bbc c659 583d 84d3 d3bb
00000190: bbfd 4b3d b61d 063d 1451 623d a46c 45ba
000001a0: e048 ad3d 885f 693d ca54 0cbd f65e 613d
000001b0: c823 efbc 02e7 9bbc 54a9 493d d6ce 633d
000001c0: 0f57 1e3c 07c8 92bb 6726 69bd d1bb 65bd
000001d0: fe9e 77bc f3ba 1dbd 0d75 683b 7c40 83bd
000001e0: b9b9 fc3c 3a57 cf3c 1f21 7cbd 3bff 133d
000001f0: 2694 163d 2376 c0bc fccd 03bc 522c 4f3c
00000200: cb60 6abd a37f 93bd cc0c b33b 9956 e4bd
00000210: 6b94 ddba 8ff3 0b3d 6a45 d7bc 4f32 92bd
00000220: f039 8abd ef4b 4dbd 1dc9 38bd d903 40bd
00000230: cc87 b23d 729b df3d 99a6 fa3c fa72 2ebd
00000240: e011 05bc f325 0fbc 12a3 d4b9 b7e4 753d
00000250: 5019 603d 5e28 333d da7b e23c cdd9 edbc
00000260: 3f55 b5bd a3eb 91bd d7b2 febc 389f 35bb
00000270: 0aea 0e3a ba7d 2cbd da40 693c 764c 243d
00000280: d6d6 ac3b 4db0 20bd 77f7 f93c 68bb 3fbc
00000290: 2777 a9bc a895 b53c c65f bebc c208 7ebd
000002a0: addc 2b3c 8afa 8cbd 46d0 5ebc 09f4 6ebc
000002b0: 23a2 8ebd 9408 47bc 4a11 31bd c0be 8ebb
000002c0: c2ed e0bc 53b6 1c3c 440a c33c b2e9 723d
000002d0: bdb2 ad3c ea04 1dbd 4ce2 76bd f66b ca3c
000002e0: e76e 8e3b 379d 88ba 1223 103b df69 2b3d
000002f0: 1c0d 18bd f19d 0a3d 67b8 78bd ecf9 63bd
00000300: 2ea5 c43c 8576 cf3c 5a4d cd3b 2f53 893c
00000310: de83 2e3b 8f51 b63d 200e 533c b6fc 033d
00000320: 3f1f fa3c b6bc 643d f371 b53c 46b2 d23d
00000330: a8ff 013d b7c7 b83d 8d2d 9a3d dcc2 cc3d
00000340: 0348 cabc 6f1a a53d 887f 1f3d 451c ed3c
00000350: b209 ecbc f117 81bd cf01 37bd 99e8 a0bd
00000360: 2181 d8bb 0af6 8b3c bcf2 873c bab8 2cbd
00000370: 459d 20bc 272b 173d 7864 2cbd d8e6 2ebd
00000380: 68a7 93bc ab5b 443d a010 0c3d 3696 b43d
00000390: f6f6 96bd a654 fdbc 8200 37b9 01bc 183c
000003a0: f472 263c 3149 903c bd54 2dbc db39 b5ba
000003b0: 6bbe a63b 5b11 323d 9bc0 f7bc 58bb 21bd
000003c0: 89b4 a33c facc df3c 71ab b5bd 2ab3 dabd
000003d0: e7c5 54bd d0e1 c9bd 336d 2abd c7e2 403d
000003e0: 7f1e b6bd 4cd8 83bc a078 86bd 49a7 65bd
000003f0: cea3 993c 346b 2abd f07e bc3d 7e5d 863d

projection.bias f4 [5]
-0.03999977 0.021559425 0.0115674045 -0.015303241 -0.042578466
00000000: ccd6 23bd 649d b03c 3685 3d3c 72ba 7abc
00000010: c266 2ebd
