result/Dliner/classification_CropMapping_t31tfm_4in4Period_0.2train_DLinear/checkpoint.pth (torch, 16023 bytes, 6 tensors)

Linear_Seasonal.weight f4 [10, 10]
0	0x3cc31b95	0.023816863
1	0x3d2af328	0.041735798
2	0x3a848888	0.001011149
3	0x3e209c55	0.15684636
4	0x3e452272	0.19251421
5	0x3e3269a5	0.17423113
6	0x3e52c956	0.20584616
7	0x3e348caa	0.17631784
8	0x3e477f63	0.19482188
9	0x3cd05dce	0.025435355
10	0x3b465ce2	0.0030267765
11	0x3d61c45f	0.055118915
12	0x3e8451e1	0.2584372
13	0x3e6cbec8	0.23119652
14	0x3cb78f30	0.022407144
15	0x3b357fc4	0.0027694562
16	0xbbf51cd0	-0.0074802414
17	0x3bea41eb	0.0071489713
18	0x3e524b63	0.2053657
19	0x3e498788	0.19680607
20	0x3cd00707	0.025393976
21	0xbb4adfef	-0.0030956229
22	0x3ce5ee7e	0.028067823
23	0x3e050999	0.12991942
24	0x3e3045fe	0.172142
25	0x3e227b8e	0.15867445
26	0x3e46514d	0.19366951
27	0x3e3046f1	0.17214562
28	0x3e376227	0.17908536
29	0x3dafa6f7	0.08576768
30	0x3c694efd	0.014240024
31	0x3dc7db4e	0.09758626
32	0x3e8720eb	0.26392302
33	0x3e6fc39f	0.23414467
34	0x3cd667e4	0.026172586
35	0x3b8e9a44	0.004351886
36	0xbbb2efe0	-0.0054607242
37	0x3c3e7d11	0.011626498
38	0x3e5dd74b	0.21664159
39	0x3e45c485	0.19313248
40	0xbbc3b4bf	-0.0059724743
41	0x3cbdce55	0.023169676
42	0x3d381845	0.04494502
43	0x3e1c18a0	0.15243769
44	0x3e2e73a4	0.17036301
45	0x3e061f7b	0.13097946
46	0x3e243200	0.16034698
47	0x3e0d945e	0.13826129
48	0x3e686890	0.22696137
49	0x3e008cc7	0.12553702
50	0x39cad0ec	0.000386841
51	0x3d83955a	0.06424971
52	0xbd3577a5	-0.044303555
53	0x3e351ffa	0.1768798
54	0x3e7a0fb2	0.2442005
55	0x3e732e9f	0.23748253
56	0x3e853818	0.2601936
57	0x3e6be102	0.23035052
58	0x3d9397e4	0.07206705
59	0xbc2da252	-0.010597782
60	0xbc49e1e8	-0.012321927
61	0x3d0e3fcd	0.034728814
62	0x3e62c5b2	0.22145727
63	0x3e72851e	0.23683593
64	0x3ddb4edd	0.10708401
65	0x3d393803	0.045219433
66	0x3d4db2b1	0.05021924
67	0x3d681db3	0.05666895
68	0x3e6790c4	0.22613817
69	0x3e3b458f	0.18288253
70	0xbca17f12	-0.019713912
71	0x3d809e87	0.06280237
72	0x3e31c857	0.1736158
73	0x3e450863	0.1924148
74	0x3e4bf449	0.19917406
75	0x3de522ab	0.11188253
76	0x3e44fcb5	0.19237025
77	0x3e1a6b42	0.15079978
78	0x3e5fdb62	0.21861032
79	0x3debe5e8	0.115184605
80	0xb9434b1c	-0.0001862463
81	0x3d4eb6d8	0.050467342
82	0x3df0c5d4	0.11756483
83	0x3e54de6f	0.20787977
84	0x3e4b49c3	0.19852357
85	0x3e2afc30	0.16697764
86	0x3e509cc3	0.203723
87	0x3e2e692c	0.17032307
88	0x3e1c1757	0.15243278
89	0x3d2cb49b	0.042164426
90	0x3a8ff0b0	0.0010981765
91	0x3d47d175	0.04878374
92	0x3d770266	0.06030502
93	0x3e4b6ca0	0.19865656
94	0x3e51cb8f	0.20487808
95	0x3e35f628	0.17769682
96	0x3e52b691	0.20577456
97	0x3e336107	0.17517482
98	0x3e33fb44	0.17576319
99	0x3d03e6d6	0.032202564

Linear_Seasonal.bias f4 [10]
0	0x3e6dbc6a	0.23216406
1	0x3c63a57b	0.013894434
2	0xbe8e09ab	-0.2774175
3	0x3e8f83d6	0.2803027
4	0x3e0deb82	0.1385937
5	0xbe36d327	-0.17853986
6	0x3d332edc	0.04374586
7	0x3e754061	0.2395034
8	0x3e8bf62a	0.27336246
9	0x3dcbbda4	0.099482805

Linear_Trend.weight f4 [10, 10]
0	0x3e2516b0	0.16121936
1	0x3e273c4c	0.16331595
2	0x3e294479	0.16530026
3	0x3e2b2c05	0.16716011
4	0x3e2cf057	0.16888557
5	0x3e2e8ede	0.17046687
6	0x3e300580	0.17189598
7	0x3e315272	0.17316607
8	0x3e327488	0.17427266
9	0x3e336b3e	0.17521378
10	0x3e6cf668	0.23140872
11	0x3e6d5ca2	0.23179868
12	0x3e6d46cc	0.23171538
13	0x3e6ce5c4	0.23134524
14	0x3e6c5556	0.23079428
15	0x3e6ba77b	0.23013107
16	0x3e6ae83a	0.2294015
17	0x3e6a2020	0.22863817
18	0x3e6954c9	0.22786249
19	0x3e688a36	0.22708973
20	0x3e1581c5	0.14600284
21	0x3e17174c	0.14754981
22	0x3e18813d	0.1489305
23	0x3e19befa	0.15014258
24	0x3e1ad177	0.15118967
25	0x3e1bba0f	0.15207694
26	0x3e1c7b1d	0.15281339
27	0x3e1d16fb	0.15340798
28	0x3e1d90a2	0.15387204
29	0x3e1deb3b	0.15421765
30	0x3e670a1c	0.2256245
31	0x3e68a9eb	0.22721069
32	0x3e697a58	0.22800577
33	0x3e69b4a9	0.22822823
34	0x3e698b34	0.22807008
35	0x3e69219d	0.22766729
36	0x3e688ffc	0.22711176
37	0x3e67e683	0.22646527
38	0x3e672f7f	0.22576712
39	0x3e667211	0.2250445
40	0x3e43cde0	0.19121504
41	0x3e453421	0.19258167
42	0x3e46764f	0.19381069
43	0x3e479922	0.1949201
44	0x3e48a171	0.19592835
45	0x3e4993cc	0.19685286
46	0x3e4a744c	0.19770926
47	0x3e4b46f1	0.19851281
48	0x3e4c0e98	0.19927442
49	0x3e4ccb6a	0.19999471
50	0x3e0a38df	0.13498257
51	0x3e043ba8	0.12913382
52	0x3dfd0fb5	0.123565115
53	0x3df256c5	0.11832956
54	0x3de85acb	0.113454424
55	0x3ddf1f95	0.10894696
56	0x3dd6a19d	0.10480044
57	0x3dced832	0.1009983
58	0x3dc7b807	0.09751897
59	0x3dc133f2	0.09433736
60	0x3e64b4d8	0.22334611
61	0x3e662a68	0.22477114
62	0x3e675173	0.22589664
63	0x3e683560	0.22676611
64	0x3e68e02e	0.22741768
65	0x3e695b17	0.22788654
66	0x3e69ae15	0.22820313
67	0x3e69dffd	0.22839351
68	0x3e69f69d	0.22847982
69	0x3e69f6ee	0.22848102
70	0x3e4de551	0.20107009
71	0x3e505d1a	0.20348015
72	0x3e52952b	0.20564716
73	0x3e548e5c	0.20757431
74	0x3e564a92	0.20926884
75	0x3e57cc49	0.21074022
76	0x3e591691	0.21200015
77	0x3e5a2d0e	0.2130625
78	0x3e5b13e2	0.21394303
79	0x3e5bcefa	0.21465674
80	0x3e34c719	0.17654075
81	0x3e3316f8	0.1748923
82	0x3e31560a	0.17317978
83	0x3e2f8923	0.17142157
84	0x3e2db4c6	0.16963491
85	0x3e2bdd2f	0.16783594
86	0x3e2a05b8	0.16603744
87	0x3e2831f8	0.16425312
88	0x3e2664a5	0.1624933
89	0x3e249ff0	0.16076636
90	0x3e3f5c84	0.18687636
91	0x3e3e1ec5	0.18566425
92	0x3e3cc99c	0.18436283
93	0x3e3b6223	0.18299155
94	0x3e39ece8	0.18156779
95	0x3e386df6	0.18010697
96	0x3e36e86f	0.17862104
97	0x3e355faa	0.17712274
98	0x3e33d5cc	0.17562026
99	0x3e324d15	0.17412217

Linear_Trend.bias f4 [10]
0	0x3e48af27	0.19598065
1	0x3bd92a51	0.006627359
2	0xbea16bf7	-0.31527683
3	0xbe33443a	-0.17506495
4	0xbd4bf387	-0.049792793
5	0x3cc469b0	0.023976177
6	0x3e20dbb2	0.15708807
7	0x3e97414d	0.29542008
8	0x3ea26a13	0.31721553
9	0xbe9f39c9	-0.31098774

projection.weight f4 [7, 460]
0	0xbd21d34a	-0.03950814
1	0xbd5566a1	-0.052099828
2	0xbd386670	-0.045019567
3	0x3da651b1	0.0812105
4	0xbc4c087b	-0.012453194
5	0xbd220376	-0.03955408
6	0xba139b87	-0.00056307804
7	0x3d8ea554	0.069651276
8	0x3b0c50c8	0.0021410454
9	0x3cab5c59	0.020918058
10	0x3d87c9b5	0.066302694
11	0x3db89c29	0.0901416
12	0xbb46fd81	-0.0030363502
13	0x3cc4dec5	0.024032006
14	0x3da6c25c	0.0814254
15	0x3cf37d0a	0.02972271
16	0x3d9dd8db	0.077073775
17	0xbb8e52c1	-0.004343361
18	0x3cc81fdc	0.024429254
19	0xbd0b6bbc	-0.03403829
20	0xbcbd7d7b	-0.023131123
21	0x3da44e7a	0.08022781
22	0x3b9c7c22	0.00477554
23	0x3d5d20fe	0.053986542
24	0x3d983622	0.074322
25	0x3d98ba7c	0.07457444
26	0xbd547507	-0.05186942
27	0xbca939ea	-0.020657498
28	0x3d01f377	0.031726327
29	0x3db33071	0.08749474
30	0x3b8e4d4e	0.0043427115
31	0xbc6cf59b	-0.014462854
32	0xbc1fe5b8	-0.009759359
33	0xbd99e018	-0.075134456
34	0xbd600ea3	-0.05470146
35	0xbdbcd2fb	-0.09219929
36	0x3da4a11f	0.08038544
37	0xbcacb834	-0.021083929
38	0xbd8e74d4	-0.06955877
39	0xbd7834b6	-0.060597144
40	0xbd75f507	-0.06004813
41	0x3d9f70ca	0.07785185
42	0xbcf91c9d	-0.030409152
43	0x3d03db4e	0.032191567
44	0xbd8cb491	-0.06870378
45	0xbd97bbc1	-0.07408858
46	0xbda2ed52	-0.079554215
47	0xbda25fd7	-0.07928436
48	0xbd578449	-0.05261639
49	0x3d99f181	0.07516766
50	0xbdd1c0db	-0.102418624
51	0xbdd5a621	-0.10432077
52	0xbc9e23e2	-0.01930422
53	0x3dd18e50	0.10232222
54	0xbd24b5b2	-0.04021234
55	0xbce07510	-0.02739957
56	0x3d820830	0.06349218
57	0x3da168b6	0.078813
58	0xbc6f51e7	-0.014606929
59	0xbc8f70a1	-0.01750976
60	0x3c950d89	0.01819493
61	0xbcf8c99c	-0.030369572
62	0x3bdc027c	0.0067141633
63	0xbcecae5d	-0.028891737
64	0xbd9ad598	-0.07560271
65	0xbd1ce8d6	-0.038307987
66	0xbab33f76	-0.0013675529
67	0x3d0af2f3	0.0339231
68	0xbd524455	-0.051334698
69	0x39613408	0.00021477055
70	0xbd1b8534	-0.03796883
71	0xbdba30df	-0.09091353
72	0xbc8f0ba9	-0.017461615
73	0x3d7b64ce	0.06137543
74	0x3d52d674	0.05147405
75	0x3d18446f	0.03717464
76	0xbc895704	-0.016765125
77	0xbb09f6f3	-0.0021051734
78	0x3c826861	0.015918912
79	0xbdf22fd8	-0.11825532
80	0xbd322e55	-0.043501217
81	0xbd25013c	-0.04028438
82	0x3dc1a439	0.09455151
83	0xbc340a14	-0.010988731
84	0xbd81eb21	-0.063436754
85	0xbd98d81c	-0.074630946
86	0xbd4ed3e4	-0.050495043
87	0x3cccdf25	0.025008747
88	0x3d046f96	0.03233298
89	0xbd815372	-0.06314744
90	0xbd4ca4ab	-0.049961727
91	0xbbe053c2	-0.006845922
92	0xbd344fbb	-0.04402135
93	0xbcdfeaac	-0.02733358
94	0xbc28b637	-0.01029735
95	0x3b84f471	0.00405746
96	0xbd45962a	-0.04823891
97	0xbced9f5c	-0.029006653
98	0x3c52e2ad	0.0128714265
99	0x3d741e76	0.059599362
100	0x3cad533c	0.021157853
101	0x3d1c5bb1	0.03817338
102	0x3cd94a2f	0.026524631
103	0x3cefe584	0.029284246
104	0x3cc5bc44	0.024137624
105	0x3d7d4c56	0.061840378
106	0x3cf44199	0.029816436
107	0x3dc2c594	0.09510341
108	0x3c87e6a5	0.016589472
109	0xbd97d73d	-0.074141
110	0x3bf87194	0.007581899
111	0x3c9f66c8	0.01945819
112	0xbc74ecd3	-0.014949041
113	0x3d165fc9	0.03671244
114	0xbd119a51	-0.03554756
115	0x3cf6f47e	0.03014588
116	0x3d819d1b	0.063287936
117	0x3ce6e649	0.02818598
118	0xbd94f868	-0.07273942
119	0xbca2960a	-0.019846935
120	0x3dabae95	0.08382908
121	0x3d49f063	0.049301516
122	0x3aa8f25f	0.0012889615
123	0x3d03c81e	0.03217327
124	0x3d76a6b0	0.06021756
125	0xbdaf1967	-0.08549767
126	0xbd5024bb	-0.05081628
127	0xbd46bb22	-0.048518308
128	0x3d839aa7	0.06425982
129	0xbca331fb	-0.019921293
130	0x3c3b8b22	0.011446746
131	0xbd927283	-0.071507476
132	0x3c91e63b	0.017809978
133	0x3d2283f8	0.039676636
134	0x3d3c3f9b	0.045959096
135	0x39e6985a	0.0004398253
136	0xbd05b61b	-0.032644372
137	0xbd4b1624	-0.04958166
138	0xbdde79a6	-0.10863046
139	0xbddec9d2	-0.10878338
140	0xbd965129	-0.07339699
141	0x3dac3df1	0.08410252
142	0xbdcef291	-0.101048596
143	0xbdcdb207	-0.10043722
144	0xbcfe0138	-0.03100644
145	0x3d904aad	0.07045493
146	0xbc8ce2eb	-0.017198047
147	0x3d10bc99	0.03533611
148	0x3d328a48	0.043588907
149	0x3d97f2d7	0.07419365
150	0x3bac8ebc	0.0052660387
151	0xba46d36c	-0.0007584605
152	0x3b217e7a	0.0024642036
153	0xbae834ef	-0.0017715971
154	0x3cbfac83	0.02339769
155	0xbce8d6d9	-0.02842276
156	0xbde99449	-0.11405236
157	0xbd9cc812	-0.07655348
158	0x3c57e698	0.013177536
159	0xbc2f8bf4	-0.01071452
160	0xbd228a7c	-0.03968285
161	0xbd912624	-0.07087353
162	0xbccdf480	-0.025141
163	0xbd6cac10	-0.05778128
164	0xbd7b24bb	-0.061314326
165	0x3cb7d891	0.022442134
166	0x3cfb4371	0.030671807
167	0x3cfb1b26	0.030652594
168	0x3cf3d95e	0.029766735
169	0xbd1206c9	-0.035651002
170	0x3d6ab447	0.057300832
171	0xbe00ad72	-0.12566164
172	0xbd8c7f19	-0.068601795
173	0xbc8f1742	-0.017467145
174	0x3dac45b4	0.08411732
175	0x3d056f43	0.03257681
176	0xbd1f0f43	-0.038832914
177	0xbcdd4501	-0.027010443
178	0xbd2107c5	-0.03931405
179	0x3d361fd0	0.044463933
180	0xbc8ee4bc	-0.017443053
181	0xbcdd18be	-0.026989337
182	0xbdb81510	-0.08988392
183	0xbc85edb0	-0.01634869
184	0xbda0a907	-0.078447394
185	0xbdacb368	-0.084326565
186	0xbdaf92ab	-0.085728966
187	0x3d92eec0	0.07174444
188	0xbd915a9f	-0.07097363
189	0xbcd893ec	-0.026437722
190	0xbd59a390	-0.0531345
191	0x3d9bc7b0	0.07606447
192	0x3ce63236	0.028100114
193	0x3d3e6317	0.04648122
194	0x3cec7162	0.028862659
195	0x3db557d8	0.088546455
196	0xbc8bc28c	-0.01706054
197	0x3d496997	0.049172964
198	0x3dca5b47	0.09880691
199	0x3d63e7db	0.055641036
200	0x3d73a5dd	0.05948435
201	0xbcd60442	-0.026125077
202	0xbd8a8bc0	-0.067649364
203	0x3bac82a5	0.0052645975
204	0xbd07d0a6	-0.033157967
205	0x3d8c20c9	0.06842191
206	0xbbe0db1e	-0.0068620583
207	0x3d6ca5fe	0.05777549
208	0x3c585981	0.013204933
209	0x3d9d397e	0.076769814
210	0xbd808244	-0.06274846
211	0x3c1c2546	0.009530371
212	0x3c7dd9a5	0.015493785
213	0x3d086e19	0.033308122
214	0x3d261b00	0.040553093
215	0x3aaf5070	0.0013375413
216	0x3bd2d385	0.0064339065
217	0xbd6779d3	-0.056512665
218	0xbdc778df	-0.09739851
219	0xbdb17380	-0.08664608
220	0x3dfabca1	0.12243009
221	0x3ca2afd3	0.01985923
222	0xbd53d4a0	-0.051716447
223	0xbd8d6a24	-0.0690501
224	0x3b844f50	0.004037775
225	0x3db58204	0.08862689
226	0x3d1cb6fc	0.038260445
227	0x3d38cfd1	0.045120064
228	0xbd921c7f	-0.071343414
229	0xbce19cdd	-0.027540619
230	0xbcd77754	-0.026302017
231	0xbc31d4fb	-0.010854001
232	0xbd5a1f48	-0.05325249
233	0x3d6b5376	0.05745264
234	0x3c18ecf8	0.0093338415
235	0xbd3c405f	-0.045959827
236	0x3a910531	0.0011064169
237	0x3de709ce	0.11281167
238	0xbd273634	-0.040823177
239	0xbab4bbd9	-0.0013788893
240	0x3d6fb3d2	0.0585211
241	0x3dda703e	0.1066594
242	0xbd524069	-0.051330958
243	0xbcabccdb	-0.020971706
244	0x3d99bd01	0.07506753
245	0x3d5525a3	0.052037846
246	0x3d9da3d4	0.07697263
247	0xbce4105b	-0.02783983
248	0xbc8ada54	-0.01694981
249	0x3d3f4cc1	0.046704058
250	0xbc00e6d4	-0.007867534
251	0x3d8ce8ca	0.068803385
252	0x3d110ea7	0.035414364
253	0x3d617eef	0.055052694
254	0x3e07f900	0.1327858
255	0x3dccf449	0.10007531

projection.bias f4 [7]
0	0x3c9e8d37	0.019354446
1	0xbcf10921	-0.029423298
2	0x3ca4b9c6	0.020108115
3	0xbd1c7b11	-0.038203303
4	0xbd4b4f44	-0.04963614
5	0xbd43fbbd	-0.0478475
6	0x3cd14fab	0.025550684
