result/Dliner/classification_CropMapping_t32ulu_2in4Period_0.5train_DLinear/checkpoint.pth (torch, 6743 bytes, 6 tensors)

Linear_Seasonal.weight f4 [10, 10]
000000 4e 17 64 3d 9a d7 27 3d f1 bd 34 3e 6c e1 7c 3e
       0.055686288 0.040977098 0.17650582 0.24695367
000010 4c ef 2f 3d 92 c7 2a 3d 41 77 1a 3d d6 ca 54 3d
       0.04295282 0.04169423 0.037711386 0.051951252
000020 56 b0 52 3e b1 ea 2f 3e 5d 3a 18 3d a9 a9 04 3e
       0.2057508 0.17179371 0.037165035 0.12955345
000030 a0 52 7b 3d 69 2b 88 3e 63 06 8d 3e 1e 7e 8f 3e
       0.061358094 0.2659562 0.27543935 0.28025907
000040 e8 20 9b 3e 5d 93 8d 3e d6 e2 fe 3d 0a ca a7 bc
       0.30298543 0.27651492 0.12445609 -0.020482082
000050 2d 27 be 3b e9 12 c6 3d 50 92 51 3e 62 b0 d0 3e
       0.00580301 0.096715756 0.2046597 0.4075957
000060 9e 98 cb 3d 1b f6 b4 3d 38 66 c0 3d 85 a9 b9 3d
       0.09941219 0.088360034 0.09394497 0.090655364
000070 40 ae 9d 3e c9 e5 f8 3d 10 9f f0 bd 3c b8 c9 3c
       0.30797005 0.12153203 -0.11749089 0.024623983
000080 15 c2 62 3c d5 6f 88 3e 12 45 81 3e 34 33 83 3e
       0.013840218 0.2664782 0.2524801 0.25625002
000090 81 29 88 3e fb 79 81 3e a7 8b 55 3e 89 73 ac bc
       0.26594165 0.25288376 0.20854054 -0.021051185
0000a0 fd 54 ac 3b c4 07 03 3d b5 17 1a 3e 59 57 c3 3d
       0.005259155 0.031989828 0.15048106 0.095381446
0000b0 60 8b 82 3d c7 04 78 3d 9f fa 6f 3d 8a d4 8a 3d
       0.0637424 0.06055143 0.05858862 0.0677882
0000c0 88 ae 65 3e ed 41 17 3e cb e3 fa 3d 0b 16 21 3e
       0.2242986 0.14771242 0.12250479 0.15731065
0000d0 55 9a dc bc 19 34 06 3e 2a 9e 77 3e b4 b2 7e 3e
       -0.02692906 0.13105811 0.24181429 0.24872857
0000e0 24 d1 85 3e 0d 19 78 3e 5b 6e bb 3b 5b 57 f9 bc
       0.26136124 0.24228306 0.0057199425 -0.030437162
0000f0 7b b2 1a bc 76 b3 fd 3c a3 7b 50 3e d7 b3 fb 3d
       -0.009441967 0.030969363 0.20359664 0.12290161
000100 f0 e9 53 3d 7e 1b 3b 3d 25 48 39 3d ba 95 50 3d
       0.051736772 0.045680515 0.045234818 0.05092404
000110 91 f3 78 3e 02 cd 22 3e 2b 8e 4b bd bd 3a 6c ba
       0.24311663 0.15898517 -0.04969613 -0.0009011438
000120 2d 1b 3b 3e 47 8f b3 3e a5 53 62 3e d6 8a 52 3e
       0.18272085 0.3507025 0.2210222 0.20560774
000130 26 ce 5f 3e 91 4d 5d 3e 00 81 83 3e 98 11 b1 3d
       0.21855983 0.2161162 0.25684357 0.08645934
000140 58 97 4d 3d 54 c4 d9 3c eb 03 1b 3e 9d 03 68 3e
       0.05019316 0.026582874 0.15138213 0.22657628
000150 ae 3c a4 3d fd c8 a5 3d 1d 7a b2 3d 84 c1 c0 3d
       0.08019386 0.08094976 0.087146975 0.0941191
000160 29 f7 8e 3e 12 51 d8 3d a6 99 fd 3c e9 dc 8b 3d
       0.27922943 0.10562338 0.030957054 0.06829245
000170 c2 12 46 3d e7 26 76 3e 23 45 58 3e d5 01 60 3e
       0.048357733 0.24038278 0.21120124 0.21875699
000180 46 14 76 3e 52 a6 64 3e d0 d7 3f 3e 21 34 27 bc
       0.24031171 0.22329071 0.1873467 -0.0102053

Linear_Seasonal.bias f4 [10]
000000 c2 11 90 3e d2 59 ce 3c 61 b6 7f be 00 b6 66 3e
       0.28138548 0.025189314 -0.24971916 0.22530365
000010 32 62 26 3e b8 78 37 be 35 b3 23 3d 44 93 53 3e
       0.16248396 -0.17917144 0.039965827 0.20661646
000020 a4 58 8b 3e 2c 64 ce 3d
       0.27216065 0.100777

Linear_Trend.weight f4 [10, 10]
000000 c8 a3 77 3e 33 c0 7b 3e fa 24 7d 3e d2 11 7e 3e
       0.24183571 0.24585037 0.24721137 0.24811485
000010 23 a8 7e 3e 04 ff 7e 3e 0b 26 7f 3e 00 29 7f 3e
       0.24868827 0.24901968 0.24916856 0.24917984
000020 30 10 7f 3e 1a e2 7e 3e 3e 56 a7 3e b8 5c 99 3e
       0.24908519 0.24890938 0.32682985 0.2995355
000030 4a 8e 8a 3e 6b 6f 7c 3e 1e 3a 67 3e a1 17 55 3e
       0.27061683 0.24651878 0.22580764 0.20809795
000040 d4 86 45 3e cc 17 38 3e a2 6e 2c 3e 9a 3f 22 3e
       0.19289714 0.17977828 0.16839078 0.15844575
000050 06 9c ac 3e 51 fe a3 3e 9d ae 9c 3e ef 72 96 3e
       0.33712786 0.32029966 0.3060197 0.29384562
000060 84 18 91 3e 2c 76 8c 3e dd 6a 88 3e 93 dc 84 3e
       0.28339016 0.27433908 0.2664403 0.25949535
000070 ad b6 81 3e 2e d1 7d 3e 4b 5b 46 3e f6 c3 3b 3e
       0.25334683 0.24786827 0.19370763 0.18336472
000080 2b 5f 32 3e 84 ff 29 3e b1 7f 22 3e 55 c0 1b 3e
       0.17419116 0.16601378 0.15869023 0.15210088
000090 b1 a7 15 3e 1c 20 10 3e 20 17 0b 3e 56 7d 06 3e
       0.1461475 0.14074749 0.1358304 0.1313375
0000a0 a9 d9 c6 3e 1d 7e be 3e 73 dc ad 3e 1b 04 9f 3e
       0.38837937 0.37205592 0.33957252 0.3105782
0000b0 a8 3c 93 3e 2d 18 8a 3e 35 f4 82 3e 8b 95 7a 3e
       0.28757215 0.2697157 0.2557694 0.24471109
0000c0 88 73 71 3e 70 f6 69 3e 41 12 c2 3d 18 c2 a8 3d
       0.23579228 0.22847915 0.09476138 0.082401454
0000d0 76 4f 94 3d 47 83 83 3d f2 02 6b 3d 8c 57 53 3d
       0.072417185 0.064215235 0.057375856 0.051597163
0000e0 e8 1b 3f 3d 5c a2 2d 3d be 66 1e 3d b1 03 11 3d
       0.046657473 0.042391166 0.0386722 0.03540391
0000f0 1c d2 9c 3e ce 51 93 3e 0d d5 8b 3e d9 df 85 3e
       0.3062905 0.2877335 0.27310982 0.26147345
000100 5c 10 81 3e 55 3d 7a 3e c3 ad 73 3e 1b 26 6e 3e
       0.25207794 0.24437459 0.23796754 0.23256724
000110 ce 6e 69 3e 14 5e 65 3e 6b 41 e1 3e c3 84 d5 3e
       0.22796175 0.22399169 0.43995222 0.41702852
000120 b5 cd ca 3e fd 4c c1 3e c6 f7 b8 3e b7 ad b1 3e
       0.39610067 0.3775405 0.36126536 0.34702846
000130 5a 4a ab 3e c0 ab a5 3e c3 b3 a0 3e 8c 49 9c 3e
       0.33455163 0.32357597 0.31387147 0.30524862
000140 e3 9e c3 3e 6d 23 b5 3e c0 2e a8 3e a8 f4 9c 3e
       0.38207158 0.3537859 0.32848167 0.30655408
000150 ed 59 93 3e 35 28 8b 3e 18 26 84 3e 5b 3f 7c 3e
       0.28779545 0.27179113 0.25810313 0.24633543
000160 76 d2 71 3e ea bd 68 3e dd a3 66 3e a1 ca 53 3e
       0.2361544 0.22728696 0.22523446 0.20682766
000170 eb eb 43 3e 47 6b 36 3e ef d0 2a 3e 91 c1 20 3e
       0.19132964 0.1781436 0.16681264 0.1569884
000180 30 f6 17 3e 79 37 10 3e 71 59 09 3e fb 38 03 3e
       0.14840007 0.14083661 0.13413025 0.12814705

Linear_Trend.bias f4 [10]
000000 6c 16 7b 3e 9f d1 92 3c 74 3d 93 be cf 95 6b be
       0.24520272 0.01792222 -0.28757823 -0.23006366
000010 89 31 d4 bc 69 3c bf 3c d6 fc 1c 3e c7 6a 86 3e
       -0.025902526 0.023344235 0.15330824 0.2625334
000020 8e cc a1 3e 3a 90 9e be
       0.31601375 -0.3096941

projection.weight f4 [5, 180]
000000 71 24 ba bc b5 a2 bc bd c1 30 85 bd d0 fb 9b 3d
       -0.022722455 -0.092107214 -0.0650344 0.07616389
000010 6b ca 70 3d 84 6e 0b bd b6 dd 16 3d 4e 0f ba 3d
       0.05878679 -0.034040943 0.036832534 0.090849504
000020 2b 2a 00 3d 5f c4 eb 3c 51 37 ab 3d 1e b7 8f 3d
       0.031290215 0.02878016 0.0836016 0.07017349
000030 ef e5 03 3d 15 c1 70 3b 23 24 44 bd 2f 0c 0d be
       0.032201704 0.003673618 -0.047886025 -0.13774179
000040 5d 0e 07 3d c9 75 49 bd 2d 6c 5c bd 87 de 1b be
       0.032972682 -0.049184594 -0.053814102 -0.15221606
000050 da d3 13 be f9 ee 56 3d 09 19 21 3e 5c ad 94 3c
       -0.14436284 0.052473996 0.15732206 0.01814907
000060 11 2e c6 bd f0 c0 54 3e 07 ac 97 bd d1 3e a5 bd
       -0.09676755 0.20776725 -0.074058585 -0.08068622
000070 1f 2b b9 bb f1 d9 6c 3d ee a4 4a 3e f8 8f 33 3e
       -0.0056508924 0.057825033 0.19789478 0.17535388
000080 32 9d fa 3d 89 be 8d 3e c7 be d4 3d c0 55 1d 3d
       0.12237014 0.2768443 0.103879504 0.038411856
000090 79 da 23 bd d5 d0 bb bd b7 1e 08 be ee c9 81 bb
       -0.040003274 -0.09170691 -0.13292967 -0.0039608395
0000a0 83 cd ff 3b 5e ef 81 3d 18 e1 ce bd d0 d7 d1 3d
       0.0078064813 0.06344484 -0.10101527 0.10246241
0000b0 99 e1 12 bd de e5 01 bd 39 bd 42 3d 2d 22 2e 3d
       -0.035859678 -0.03171336 0.047543738 0.04251306
0000c0 61 55 c1 3d a7 8b a6 3d d4 a4 b7 bd 99 a5 d4 bd
       0.09440113 0.08132105 -0.08966985 -0.10383148
0000d0 03 8f 60 3c 4c b9 23 bd 87 7a 07 be 21 db 14 be
       0.013705972 -0.039971635 -0.13230334 -0.14536716
0000e0 14 cc 6e bd 67 12 5e 3d 31 5d cb 3d 2a fb be bd
       -0.058300093 0.05421677 0.09929884 -0.093252495
0000f0 d7 92 3a be be 79 68 3d c1 38 82 bd c1 3e 0f bc
       -0.18220077 0.056756727 -0.06358481 -0.008742989
000100 bb 46 fa bc e2 c3 e0 3c 50 51 6c 3e c4 6e 8e 3e
       -0.030551305 0.027437154 0.23077893 0.27818882
000110 1c 91 6b 3e ff 98 a8 3e 52 2c 11 3e 1c 71 22 3d
       0.23004574 0.32929227 0.14177063 0.03965865
000120 00 ad 87 bd a6 30 fd bc de 0c 33 bd 27 e4 68 bc
       -0.06624794 -0.030906986 -0.043713443 -0.014214552
000130 3d 7e ab 3d d1 34 e4 3c b2 5b 98 bd 62 ea ad 3d
       0.083736874 0.027857216 -0.074393645 0.084919706
000140 a5 1e a6 3c c2 6b 85 3d 73 2a 1d 3d db f5 92 bb
       0.020278284 0.06514694 0.03837056 -0.0044848747
000150 27 7c 60 bc 20 7f 34 bc cd bf 4f be 1b ad 5a be
       -0.013701475 -0.011016637 -0.2028801 -0.21355097
000160 11 98 88 3c 23 c9 6d be 8d e9 a5 bd b0 66 4c bc
       0.016674073 -0.23221259 -0.08101187 -0.0124756545
000170 d9 a9 a6 bd 35 c2 12 bd 53 b3 94 3d 1f cb 43 bd
       -0.081378646 -0.03582974 0.07260766 -0.047801133
000180 90 23 13 be 88 0e b3 3d df e8 49 3c 50 0f 51 bd
       -0.14369035 0.08743006 0.012323587 -0.051039994
000190 fd 58 39 3d 5c 21 fc 3c ec d6 14 3e c0 15 16 3e
       0.04525088 0.030777626 0.14535111 0.14656734
0001a0 55 06 7a 3e 17 13 af 3e ce 5c 03 3d 78 4e 60 3e
       0.24416478 0.34194252 0.032070927 0.21904933
0001b0 7a 2d 26 be 90 87 1c be a9 43 2f bd a9 3d 5c 3d
       -0.16228285 -0.15286088 -0.042789135 0.05376974
0001c0 24 c0 93 3d e5 1d 14 bd 07 6f 11 bd f3 e3 00 3e
       0.07214382 -0.036161322 -0.035506275 0.12586956
0001d0 69 f7 eb 3c d7 76 12 3c ce 2b 54 bd 0d 62 4f bd
       0.028804498 0.008939466 -0.051799588 -0.050630618
0001e0 a2 90 8f 3d a8 19 58 bd e2 b2 30 be 17 67 21 be
       0.070100084 -0.052758843 -0.17255738 -0.15761982
0001f0 ed 96 3f 3c e4 12 4c be 47 e2 c0 bd cb 37 cb bd
       0.011693698 -0.19929081 -0.09418159 -0.09922751
000200 be ce c8 bd e3 58 1d bb 54 f2 0a 3e 3a 8e ac bd
       -0.09805058 -0.002400928 0.13569003 -0.08425565
000210 03 42 be 3b d5 7c de 3d c7 6e 84 3d 5f 7d 9f 3b
       0.005806209 0.108636536 0.064664416 0.0048672403
000220 cd b7 54 bc 1a 2a 93 ba 04 4f 33 3d 88 2c 61 3d
       -0.012983275 -0.0011227757 0.043776527 0.05497411
000230 32 84 9f 3c 82 68 42 3d ea 9b 1d 3a c8 79 ca bd
       0.019472215 0.047462948 0.0006012308 -0.09886509
000240 e9 32 90 bd d0 f8 8f bd cf 7e 69 bd df 10 7c 3d
       -0.0704096 -0.07029879 -0.0570057 0.061539527
000250 48 95 af 3d 8c 52 62 3d 34 2f cd 3c c2 e3 79 3d
       0.08573395 0.055254504 0.025046922 0.061008222
000260 a4 90 77 bd 94 da c5 bb 72 02 61 3c 86 6f 1d 3d
       -0.060440674 -0.0060380194 0.013733493 0.038436435
000270 82 cc 58 bd 01 8f d8 bc ad e9 b9 bc 30 12 d8 bd
       -0.05292941 -0.026435377 -0.022694433 -0.10550344
000280 e4 47 3d 3d e1 56 2c be fe c3 5c bd fb be e9 bd
       0.04621114 -0.16830017 -0.05389785 -0.1141338
000290 d5 0a 00 be e2 48 0d bc 42 1a ca 3d 2c a4 5e bd
       -0.12504132 -0.008623334 0.098682895 -0.054355785
0002a0 6a 91 e9 bc f2 84 c4 3d 4d d0 a4 bc f3 0a a2 bd
       -0.028511722 0.0959567 -0.020118857 -0.07912245
0002b0 71 e6 0f bd 0d ea 84 3d ff 2d 0b 3e 69 a8 5a 3e
       -0.035131875 0.06489954 0.13591765 0.21353306
0002c0 bb 02 11 3e c2 38 81 3e 89 13 4c 3d fb 2f b1 3d
       0.14161198 0.25238615 0.049823318 0.0865173
0002d0 45 40 36 be d4 ed 57 3c 66 df 9e bd a0 b7 8b 3d
       -0.17797954 0.013179261 -0.077574536 0.06822133
0002e0 74 de 86 3c 48 39 98 3c ae 2c c6 3c a6 77 bb 3d
       0.016463496 0.018582001 0.024191227 0.091536805
0002f0 e0 34 ed bc b0 71 b9 3d 88 01 11 bc e9 61 c1 3c
       -0.028955877 0.09054887 -0.008850463 0.023606258
000300 7b 48 41 3d 16 9c 9a 3d 18 d6 4e bd 88 11 8a 3c
       0.047188263 0.07549302 -0.050497144 0.016854063
000310 dd 88 0c 3c e9 e7 31 3e 54 4c d9 bd 21 22 70 3d
       0.008577553 0.17373623 -0.106102616 0.058626298
000320 fa e0 31 3d d1 e0 36 3d 9f 63 17 be fe d6 bc 3d
       0.043427445 0.044647995 -0.14784096 0.09220694
000330 ba 23 38 bd 13 d2 af 3d 0f 8d b1 3c 08 cf 56 bc
       -0.044955947 0.0858499 0.021673707 -0.0131108835
000340 db 85 0b be b8 77 4e bd 2d c7 99 be 28 c6 e3 bd
       -0.1362528 -0.05040714 -0.30034772 -0.1112178
000350 80 f6 82 be 0f 46 b6 be b6 55 1f 3d 49 82 69 3d
       -0.2557869 -0.35600325 0.0389001 0.057009015
000360 b8 cc 42 be 5c 2e b6 3c 3b dd bf bd 2d 98 ca bc
       -0.19023407 0.022238903 -0.09368368 -0.024730766
000370 17 17 20 bc f9 32 2d 3d 51 c5 82 3c ed d7 e9 bc
       -0.00977113 0.04228494 0.015963228 -0.028545344
000380 4a 4c 4f bc 5b d7 22 3d 00 0f cb 3b 12 56 90 3c
       -0.012652466 0.03975616 0.0061968565 0.017619167
000390 39 62 42 be 40 1c d1 3b 82 11 60 bd 47 dd f4 bd
       -0.18982781 0.0063815415 -0.054704197 -0.11956268
0003a0 d9 c7 c3 bd e2 95 60 3e 79 f7 0d be 94 19 e3 bc
       -0.09559602 0.21932176 -0.13863935 -0.027722158
0003b0 df b2 c7 3d 0a b9 84 3d e1 0a 0b be bb a9 e4 bb
       0.09750914 0.06480606 -0.13578369 -0.0069782413
0003c0 78 17 51 3c 3a 6c ae 3d f8 10 d0 bd 7b 75 0b be
       0.012761943 0.08516736 -0.101594865 -0.13619034
0003d0 91 59 e8 bd 8d 3c 16 be a4 b7 58 be 1e 41 51 bd
       -0.113452084 -0.14671536 -0.21163803 -0.05108749
0003e0 00 19 4e be 94 e1 21 be 43 39 19 bc 85 33 92 3c
       -0.20126724 -0.15808707 -0.009352031 0.017846832
0003f0 dc 56 b8 bd 63 3a c8 bc 1e 2f cb b9 15 4c 4d 3b
       -0.09000942 -0.024441903 -0.00038754282 0.0031325866

projection.bias f4 [5]
000000 f1 51 72 bd 48 05 21 bc e6 d5 18 bd 3f 5a a5 3b
       -0.059160177 -0.009827919 -0.037313364 0.0050461586
000010 71 c7 ab bd
       -0.0838765
