result/Dliner/classification_CropMapping_t31tfj_1in4Period_0.5train_DLinear/checkpoint.pth (torch, 6103 bytes, 6 tensors)

Linear_Seasonal.weight f4 [10, 10]
00000000: 5304 ca3c 2b5a cd3c a447 db3d c291 1a3e
00000010: 2169 de3d 1315 da3d 8cd2 a73d fd6e c23d
00000020: b0b6 8a3d 9d25 223e 8b95 09be 386b eebc
00000030: 2f90 713b 8323 4abd bd01 5a3d 92ae 473d
00000040: 6e73 d0bc 6fb1 ab3c 7677 073e 1c09 9e3e
00000050: 142c a0bd 791d 8fbd da22 0fbd 0c6c d93d
00000060: 560a 4c3e 7a9c 363e af6b 353e cec1 423e
00000070: aaca ba3e c4bb ce3d 68b2 b7bd 0efe a2bd
00000080: 22f5 d8bd dde5 f8bd ec55 133d 3326 1d3d
00000090: cd7c d8bc 01ec 873c 4635 8a3e a334 9d3e
000000a0: d49c a7bd c45e 8ebd 4509 8abd c962 e8bc
000000b0: 01d4 b83d 455c be3d a0b6 d93c 9da5 a03d
000000c0: cd7d 823e d4ca ad3e ea78 bcbd 2a31 64bd
000000d0: abcc 7ebd 686e 2a3e c0d2 8a3e 961d 813e
000000e0: be86 723e c71a 813e de4f b33e 9837 0b3c
000000f0: c090 173e c470 7f3d aaaf 793d 56c0 a6bd
00000100: eb87 85bc 6242 1ebc 4a06 a6bc ea61 d2bc
00000110: 8668 353e ad59 6f3e 38f1 90bd 8663 cebd
00000120: 36fa a3bd 061a 8e3c 5df9 223e 50cd 1a3e
00000130: ef44 0f3e c77e 303e 8067 b53e 5ea4 303e
00000140: 72d4 87bd 5bbc 23bd e614 853d d708 8f3e
00000150: 485b 983e 142c 883e 7b74 803e c025 843e
00000160: 48ca 2a3e 2e6d fa3c 0628 d63b a35c 7a3d
00000170: 38d7 0b3d 9dee 5f3e d7f1 293e c3a6 143e
00000180: a26a a93d 54e0 033e bf7b f83d 6980 ec3d
0.024660265 0.02506741 0.10707024 0.15094665 0.108598955 0.10648551 0.081944555 0.094938256
0.06773126 0.15834661 -0.13435952 -0.02910386 0.0036859622 -0.049350273 0.053224314 0.048750468
-0.025445666 0.02095863 0.13229164 0.30866325 -0.07820907 -0.06988043 -0.034945346 0.106163114
0.19925818 0.17833129 0.1771686 0.19019243 0.36482745 0.10094407 -0.08969575 -0.07958613
-0.105936304 -0.12153218 0.035970613 0.038366508 -0.026426697 0.016592028 0.2699377 0.3070422
-0.081842095 -0.06951669 -0.06740049 -0.028367417 0.090248115 0.09294943 0.02657634 0.07844088
0.25486603 0.33943808 -0.0920275 -0.05571095 -0.062206905 0.16643679 0.27113914 0.25217885
0.23684213 0.25215742 0.3502187 0.008497141 0.14801311 0.0623634 0.060958542 -0.08142154
-0.016300162 -0.009659382 -0.02026667 -0.025681455 0.17715654 0.23374052 -0.07077259 -0.10077576
-0.08006708 0.017346393 0.15915437 0.15117383 0.1399114 0.17235862 0.35430527 0.17250201
-0.066323176 -0.03997455 0.06498127 0.27936432 0.29757142 0.2659613 0.25088868 0.2581005
0.16678727 0.030569639 0.006535533 0.0611235 0.034140795 0.21868367 0.16596161 0.1451674
0.08272292 0.12878543 0.12132978 0.1154793

Linear_Seasonal.bias f4 [10]
00000000: cb5f 8a3e 0429 6c3d 93ab 8fbe 041c 553e
00000010: 812a ff3d 437f 47be 3acd 1f3d 0f6e 813e
00000020: b32e a03e bed9 ee3d
0.2702621 0.057656303 -0.28060588 0.20811468 0.12459279 -0.1948214 0.03901408 0.2527928
0.3128563 0.11662625

Linear_Trend.weight f4 [10, 10]
00000000: 5370 8a3e 934c 8d3e fdd0 8f3e 2df6 913e
00000010: 11b8 933e 6616 953e 6e14 963e 00b8 963e
00000020: b308 973e 1810 973e 3c60 9e3e e7ce a33e
00000030: 0e6c a83e 5d52 ac3e 589b af3e 0c5f b23e
00000040: 6db2 b43e c8a7 b63e 684e b83e 83b3 b93e
00000050: 7696 7c3d a980 903d cdbb a13d 58ef b13d
00000060: 1018 c13d 9039 cf3d 575c dc3d 498d e83d
00000070: 44da f33d f952 fe3d f090 a53e 5e18 aa3e
00000080: 7a9d ad3e d34c b03e 924f b23e 3fc9 b33e
00000090: 83d7 b43e ce92 b53e 030e b63e 7758 b63e
000000a0: 8ca6 893e 96ee 8f3e ce8c 953e 968b 9a3e
000000b0: 7af8 9e3e bfe0 a23e 3552 a63e 625a a93e
000000c0: 4b05 ac3e a85e ae3e 70c6 473e 2b59 493e
000000d0: cfcb 4a3e 541c 4c3e 5448 4d3e 324e 4e3e
000000e0: 472d 4f3e 42e6 4f3e ef7a 503e 82ed 503e
000000f0: 8351 913e 5522 923e 54d8 923e f573 933e
00000100: 95f5 933e 7a5e 943e 70af 943e a6e9 943e
00000110: ac0e 953e ba1f 953e e4f7 343e e34d 3a3e
00000120: f839 3f3e 46c1 433e 08e9 473e 64b7 4b3e
00000130: 4f32 4f3e 975f 523e 4545 553e 0be9 573e
00000140: 9a9a 853e eb87 863e 3a10 873e 0e3e 863e
00000150: fc2d 863e 91eb 853e c788 853e 550f 853e
00000160: 3582 843e 09e3 833e 73d8 a03e 1e18 a53e
00000170: b6ad a83e a86b ab3e 2e34 ad3e af00 ae3e
00000180: 4ee2 ad3e 0ffb ac3e 1574 ab3e 4d76 a93e
0.27038822 0.27597484 0.28089133 0.2850813 0.2885137 0.2911865 0.29312462 0.29437256
0.29498824 0.29504466 0.30932796 0.3199379 0.3289494 0.33656588 0.34298205 0.3483814
0.35292378 0.35674882 0.3599732 0.3626977 0.06166693 0.0705579 0.07897148 0.08688229
0.09428418 0.10118401 0.107598 0.11355073 0.11906865 0.124181695 0.3233714 0.33221716
0.33909208 0.34433612 0.34826332 0.35114476 0.35320672 0.35463566 0.35557565 0.35614368
0.26884878 0.28111714 0.29208988 0.3018462 0.31048948 0.31812093 0.32484594 0.3307677
0.33597788 0.34056592 0.19509292 0.19662921 0.1980431 0.19932681 0.20047122 0.20147017
0.20232116 0.2030268 0.20359395 0.20403102 0.283825 0.28541818 0.2868067 0.28799406
0.28898302 0.2897833 0.29040098 0.2908451 0.29112756 0.29125768 0.17672688 0.18193774
0.18674457 0.19116697 0.19522488 0.19894177 0.20234035 0.20544277 0.20827205 0.21084993
0.26094514 0.26275572 0.26379567 0.2621922 0.26206958 0.26156285 0.26080915 0.2598826
0.2588059 0.25759152 0.31415138 0.32244962 0.3294503 0.33480573 0.33828872 0.33984897
0.3396172 0.33785293 0.33487 0.3309807

Linear_Trend.bias f4 [10]
00000000: 6eb2 6f3e ec64 4e3d db0d a3be c82f 7dbe
00000010: 6ba6 82bd 2923 fc3b 7203 1c3e 2f0f 9e3e
00000020: aaa2 b63e ca72 96be
0.2340791 0.050389215 -0.31846508 -0.24725258 -0.06379398 0.007694621 0.1523569 0.3087096
0.35670978 -0.29384452

projection.weight f4 [5, 150]
00000000: b305 273d 1b06 903d 3aac ea3c 46c0 153e
00000010: 1a2c 94bd 8cba afbb 9d74 793d 5c52 83bd
00000020: 0f8e 173e b397 9f3c fdb4 c2bd 6cf1 c43a
00000030: be2a d63d 98d6 afbc 6c4c 953d be62 51bd
00000040: ad88 283e ea6c cd3d 4c3f 1a3e ebab 03be
00000050: ff80 72bc 3429 983d 44a6 4f3b b8d1 2a3e
00000060: 37a1 553d 5200 01be 3224 f5bd d16f 8a3c
00000070: 20ff 84bd 11a3 8f3d 0edf babd ced7 42bd
00000080: 98a7 d6bd 71bc b0bb 4cdc 5dbd 2e34 cdbc
00000090: 8898 bc3c 9158 a7bd 7a27 ccbd c50f 3dbd
000000a0: ff5f 1dbe 2d91 0c3d 41cf 5cbc aa04 aeba
000000b0: ee63 29bd 8a8a aebd 446d 203e 3d16 7d3d
000000c0: c833 1f3e 6173 93bc d215 a7bb f9fd 2fbc
000000d0: beb1 48bd 5ce9 163e 9b77 8fbd 2573 7fbe
000000e0: 556c f2bc 0044 243e 7882 64bd c891 3abd
000000f0: 7fce 9dbd 3cfd 183d 8628 ae3b d121 e83d
00000100: 7fd8 a9bd 242c 823d c965 bb3c 51dd f8ba
00000110: 9a5b 063e 25a8 073d bb63 2bbe 5272 13be
00000120: 8ef4 073e 6eac c13c e44f 953d 2d1a 91bd
00000130: 346a 443d 481c 343d b709 d3bc 2844 0dbe
00000140: 957e a93d 9beb a03c 5f67 82bd d894 b3bc
00000150: 1f61 84bd 876f 07be d5d5 fdbd 1384 d43d
00000160: 4ab9 103c b75b 13bd 5318 a2bc c5fd 3f3e
00000170: 78d1 123d 90b7 bd3d d9fd 0abd ed2a bdbb
00000180: 82c7 9cbd d9c3 aabd 1d8f 4e3e 0de9 62bd
00000190: c8ac 07be ac11 27bd ecfb ac3d a6ff e1bd
000001a0: 2e26 893d ad6a 223d dbbe 4dbc 2364 b73d
000001b0: a359 e4bc 5642 06be b71a bc3d 82b8 a73d
000001c0: 451a debd 6096 a23c 6dee 21bd 8d33 1abe
000001d0: 7b60 d5bc 4ad0 9d3d 2e13 b6bd e33a cdbc
000001e0: acd9 5a3d 5ca7 c63c 2809 98bc 7455 b13d
000001f0: 4ab4 acbc cc1b 913b d544 29b9 e59c bebd
00000200: a068 843d 5460 4d3b e9e5 a7bd 0ee1 01be
00000210: b5c7 143e c45a b1bb 4040 093e 08b6 0dbd
00000220: 7f97 cf3d 4059 d93b aec7 a33d 4f98 edbd
00000230: dda4 863d f8c9 883d 4e4b c5bd 7659 803d
00000240: 9700 f3bb 9afd 1dbe 2f11 77bd d1b5 1c3e
00000250: 0a05 6dbd 7f34 d23d 4916 ac3d 40c7 b8bd
00000260: ee2c 23be 854d 8abd efab 76bd 8423 a3bd
00000270: 1202 12be 666e 83bc 3434 503d b3ac 36bd
00000280: 7b0f 9e3d d87d 90bd 6612 dc3d 9ae6 223d
00000290: 4850 e6bd 7f67 803d 9d05 55bd af1f 06be
000002a0: ec79 3e3c cca4 efbd 2a54 ecbd c959 0ebe
000002b0: 572c a83b 63c4 bc3d af40 adbb 4a5e 043e
000002c0: b5d8 793d b247 343e 6e00 4b3d 0d90 2ebd
000002d0: 8c05 36bc 6795 9cbc 53c0 aebd 8589 5e3d
000002e0: b28c a73d 85f9 4abd 3a0f 47bd f88e c73d
000002f0: ff02 febc b88c 933d 00ee 03bd 1183 acbc
00000300: 8806 1d3e a91a 013e f1aa e6bd 5945 d43d
00000310: c7ad 86bd f999 48bd 81b0 1bbb e8f6 94bd
00000320: 723f fbbd 9c1f fabc c084 f1bc db10 a83d
00000330: b348 e9bc c09c 133e 0b03 0d3e f42f 413e
00000340: 63bd b03d 90f1 9b3c 4171 7a3a 5882 afbd
00000350: da71 18be f519 febd 3351 91bd 1da6 26be
00000360: e1cb 0ebe c1a9 b53d 0efc f8bc 0597 913c
00000370: 6923 253e 86be f73d ec10 093e 4f0f f33d
00000380: ee7d 23bd 5eeb ea3d 14a5 283c 8f08 cf3c
00000390: 6425 87bd 0699 a83d 9976 08bd bc16 563b
000003a0: 7027 73bc 6457 a93d 689e faba b56f 87bd
000003b0: 66c2 1f3d a2f0 1e3e 146c 953d 91f6 07be
000003c0: 2807 d53d c492 8fbc 2599 2fbe 6795 09be
000003d0: d817 08be facc 39be f7ac cfbd d049 8c3d
000003e0: 1bb5 99bc efa6 873d 13e2 6d3d f87d a23c
000003f0: 9f60 3b3e cb8d 773d 70c3 deba 7a57 613d
0.04077692 0.070324145 0.028646577 0.14624128 -0.07234974 -0.0053628143 0.060902227 -0.06412193
0.14800285 0.019481516 -0.09507177 0.0015025563 0.10457371 -0.021464631 0.07289967 -0.05111956
0.16458388 0.10030539 0.15063208 -0.1285855 -0.014801263 0.07429734 0.0031684795 0.16681564
0.0521557 -0.12597778 -0.11969794 0.016899021 -0.06493974 0.07013524 -0.091245756 -0.04756909
-0.10481185 -0.0053935577 -0.05416517 -0.025049295 0.023021951 -0.081711896 -0.09968467 -0.046157617
-0.15368651 0.034318138 -0.013477148 -0.0013276536 -0.041355066 -0.08522518 0.15666682 0.061788786
0.15547097 -0.017999353 -0.0050990367 -0.010741704 -0.048997633 0.14737457 -0.07005235 -0.24946268
-0.029592672 0.16041565 -0.055788487 -0.045549184 -0.07705402 0.037350878 0.0053148894 0.11334575
-0.082932465 0.063560754 0.022875683 -0.0018986856 0.1312088 0.03311934 -0.16737263 -0.14399078
0.13276884 0.023641791 0.072906286 -0.07085071 0.047952846 0.043972284 -0.025761468 -0.13795531
0.08276097 0.019643595 -0.06367373 -0.02192156 -0.06463837 -0.13226138 -0.12394301 0.10376754
0.008833239 -0.035976138 -0.01978699 0.18749149 0.035844296 0.092635274 -0.033933494 -0.0057729394
-0.076552406 -0.08338136 0.20171781 -0.055398036 -0.13249505 -0.040788338 0.08446488 -0.11035089
0.06696735 0.039652515 -0.0125577105 0.089546464 -0.027874773 -0.13111243 0.09184783 0.08189489
-0.10844854 0.019847095 -0.03953402 -0.15058728 -0.026046982 0.077057436 -0.08890377 -0.025052493
0.053430244 0.024249725 -0.018559054 0.08658877 -0.021082062 0.0044283625 -0.00016142738 -0.09307269
0.06465268 0.0031337934 -0.08198149 -0.12683508 0.14529307 -0.0054124314 0.13403416 -0.034597427
0.101363175 0.006632954 0.0799707 -0.11601316 0.06574414 0.066791475 -0.09633504 0.06267063
-0.007415842 -0.15428773 -0.060319122 0.15303732 -0.057866134 0.10263919 0.08402688 -0.09022379
-0.15935108 -0.06753067 -0.060222562 -0.079657584 -0.14258602 -0.016043853 0.050831035 -0.044598293
0.077177964 -0.07055253 0.10745697 0.0397707 -0.11245781 0.0626974 -0.052007306 -0.13098024
0.011625748 -0.117013544 -0.115394905 -0.13901438 0.005132239 0.09217145 -0.005287252 0.12926593
0.060997684 0.17605475 0.049560957 -0.042617846 -0.011109721 -0.01911421 -0.08532777 0.054330368
0.081811324 -0.049554367 -0.048598506 0.09744066 -0.031007288 0.07204574 -0.032209396 -0.021058591
0.15334523 0.12607826 -0.11263073 0.103647895 -0.06576114 -0.048974965 -0.0023756328 -0.07273656
-0.122679606 -0.03053265 -0.029482245 0.0820634 -0.028477049 0.14415264 0.13770692 0.18865949
0.08629873 0.019036084 0.00095536193 -0.08569783 -0.14887181 -0.12407295 -0.07095566 -0.16274305
-0.13944961 0.088702686 -0.030393627 0.017772207 0.16126789 0.12096886 0.13385361 0.11868154
-0.039915018 0.11470674 0.010293264 0.025272636 -0.065989286 0.08232312 -0.03331623 0.003266736
-0.014840946 0.082686216 -0.0019120695 -0.06613103 0.039003752 0.15521482 0.07296005 -0.13277651
0.104017556 -0.017526038 -0.17148264 -0.13435899 -0.13290346 -0.18144599 -0.10140412 0.06850016
-0.018763116 0.06623637 0.05807693 0.019835457 0.18298577 0.06043796 -0.0016995501 0.055015065

projection.bias f4 [5]
00000000: da68 3ebd bcf8 3e3d 1898 c2bb 6114 ad3d
00000010: a9ca fcbc
-0.046486713 0.04662393 -0.005938541 0.084511526 -0.030858355
