result/Dliner/classification_CropMapping_t31tfm_4in4Period_0.1train_DLinear/checkpoint.pth (torch, 16023 bytes, 6 tensors)

Linear_Seasonal.weight f4 [10, 10]
000000 dc a8 0d 3d 52 93 35 3d 05 ce 1b 3d 19 45 16 3e
       0.034584865 0.04432995 0.038038272 0.14674796
000010 2a 56 30 3e b4 ce 24 3e 01 ab 31 3e 17 83 25 3e
       0.17220369 0.16094476 0.17350389 0.16163288
000020 90 b7 32 3e da f5 60 3d 12 13 c9 3c ed 4f 57 3d
       0.17452836 0.054921962 0.024545226 0.052566458
000030 52 3f 37 3e d8 aa 4c 3e ef 2f 4c 3d df 89 15 3d
       0.17895249 0.19987047 0.0498504 0.036508437
000040 86 ac 10 3d a3 f3 1f 3d fa aa 36 3e f1 48 2b 3e
       0.03532078 0.03905071 0.1783866 0.16727044
000050 ba 7d 77 3d 7e 68 b3 3c bf 75 72 3d 9e 87 db 3d
       0.060422637 0.021900412 0.059194323 0.10719226
000060 a2 a5 13 3e 67 fe 10 3e d3 61 24 3e c2 c6 1c 3e
       0.14418653 0.14159547 0.16052942 0.15310195
000070 67 d2 1f 3e 7a d4 a6 3d 17 a9 a6 3c b7 f9 a5 3d
       0.15607606 0.081459954 0.0203443 0.0810427
000080 e3 37 41 3e e1 d1 55 3e f0 86 52 3d 26 88 16 3d
       0.18868975 0.20880844 0.051398218 0.036750935
000090 d2 19 11 3d 2c d6 24 3d 99 5f 3f 3e a0 f3 28 3e
       0.035425015 0.040243313 0.18688811 0.16499186
0000a0 1f 6a 11 3c 1a e8 e5 3c e6 4b 88 3d ad be 0c 3e
       0.008875399 0.028064776 0.066551015 0.13744612
0000b0 9d b9 12 3e e5 19 dc 3d 35 bd f4 3d fa d8 e9 3d
       0.14328618 0.107471265 0.11950151 0.11418338
0000c0 15 e4 4a 3e 6e 5f 12 3e 9b 04 27 3d c3 82 ab 3d
       0.19813569 0.14294216 0.040775876 0.0837455
0000d0 cd 9e cb 3c 9d 70 1b 3e 56 27 57 3e 20 6a 55 3e
       0.024855996 0.15179677 0.21011099 0.20841265
0000e0 56 3f 59 3e 84 8a 52 3e b3 4a ab 3d c0 04 47 3c
       0.21215567 0.20560652 0.08363857 0.012147129
0000f0 03 71 9c 3c 4c 1e 55 3d 1e 30 33 3e ba 27 4c 3e
       0.019096857 0.052030846 0.17498824 0.1993703
000100 c4 30 b2 3d 0b 42 42 3d 07 80 40 3d 84 15 60 3d
       0.087007076 0.047426265 0.046997096 0.05470802
000110 bc 66 4b 3e ba 41 2d 3e c7 13 72 3c b6 ba a4 3d
       0.19863409 0.16919604 0.014775223 0.08043425
000120 8f f5 29 3e 62 32 2e 3e 50 cd 02 3e c8 17 6f 3d
       0.1659758 0.17011407 0.12773633 0.05837229
000130 b0 7e b2 3d 5d 4c ba 3d 84 cf 4b 3e 3e 4f 0d 3e
       0.0871557 0.090965964 0.1990338 0.1379976
000140 a4 1f d3 3c 3b e1 6e 3d b8 61 04 3e d8 4c 35 3e
       0.025771923 0.058320265 0.12927902 0.17705095
000150 2e c4 2f 3e d9 89 19 3e 13 e6 29 3e 7f 32 1c 3e
       0.1716468 0.14993991 0.16591673 0.15253638
000160 fb 08 00 3e be d6 77 3d 3d b1 f0 3c 71 0c 8b 3d
       0.12503426 0.06050753 0.029381389 0.067894824
000170 ed 67 97 3d bc 54 31 3e 01 7f 42 3e e4 eb 35 3e
       0.07392869 0.1731748 0.1899376 0.17765766
000180 5a c6 3c 3e 9e 9e 31 3e e7 5f 22 3e d5 c8 e5 3c
       0.1843504 0.17345664 0.15856896 0.028049866

Linear_Seasonal.bias f4 [10]
000000 23 e2 73 3e 95 f3 b8 3c 0b 4f 8a be 1b 38 8f 3e
       0.23816733 0.022577086 -0.2701343 0.27972493
000010 b6 d3 15 3e 4f 3d 2e be e6 02 3c 3d 56 b7 73 3e
       0.14631543 -0.17015575 0.0459012 0.23800406
000020 0b 99 88 3e 1d 8e e0 3d
       0.26679263 0.10964606

Linear_Trend.weight f4 [10, 10]
000000 47 38 16 3e bf 32 18 3e 0a 1c 1a 3e 87 f1 1b 3e
       0.14669906 0.14863108 0.15049759 0.15228854
000010 ef b0 1d 3e 42 58 1f 3e d2 e5 20 3e 7d 58 22 3e
       0.15399526 0.15561011 0.1571267 0.15854068
000020 72 af 23 3e 55 ea 24 3e ee ee 49 3e af 45 49 3e
       0.15984896 0.16105016 0.1972005 0.19655488
000030 71 7b 48 3e 8f a5 47 3e 12 cf 46 3e cd fd 45 3e
       0.19578339 0.1949675 0.19414929 0.19335099
000040 ae 34 45 3e 51 75 44 3e 3d c0 43 3e 82 15 43 3e
       0.19258377 0.19185378 0.19116302 0.19051173
000050 c5 87 01 3e b4 e9 01 3e 3f 37 02 3e 85 71 02 3e
       0.12649448 0.12686807 0.12716387 0.12738617
000060 0a 9a 02 3e 45 b2 02 3e e6 bb 02 3e 80 b8 02 3e
       0.12754074 0.12763317 0.1276699 0.12765694
000070 b1 a9 02 3e f9 90 02 3e b7 1d 47 3e fa 8d 46 3e
       0.12760045 0.12750615 0.19444929 0.19390097
000080 8b d5 45 3e f5 0b 45 3e 22 3e 44 3e 55 73 43 3e
       0.19319741 0.19242842 0.19164327 0.19086964
000090 6e af 42 3e 6f f4 41 3e 46 43 41 3e 16 9c 40 3e
       0.19012234 0.189409 0.18873319 0.18809542
0000a0 74 f4 3b 3e 1c 51 3c 3e c6 9a 3c 3e aa d4 3c 3e
       0.1835497 0.18390316 0.18418416 0.184405
0000b0 82 01 3d 3e 5d 23 3d 3e 2c 3c 3d 3e 50 4d 3d 3e
       0.18457606 0.18470521 0.18479985 0.18486524
0000c0 30 58 3d 3e da 5d 3d 3e f2 0f 0d 3e cb d0 07 3e
       0.18490672 0.18492833 0.13775614 0.13263242
0000d0 5d ba 02 3e e2 bb fb 3d dd 8d f2 3d 43 f7 e9 3d
       0.12766404 0.12291695 0.118434645 0.114241146
0000e0 5e fc e1 3d 89 9b da 3d f7 ce d3 3d 42 8e cd 3d
       0.11034463 0.10674197 0.1034221 0.10036899
0000f0 32 a9 45 3e 46 cb 46 3e bd a4 47 3e 59 43 48 3e
       0.19302824 0.1941348 0.19496436 0.19556941
000100 df b2 48 3e 1c fd 48 3e fd 29 49 3e d8 3f 49 3e
       0.19599484 0.19627804 0.19644924 0.1965326
000110 a2 43 49 3e 3b 39 49 3e 49 c3 38 3e d6 90 3b 3e
       0.19654706 0.19650738 0.18043245 0.1831697
000120 7c 24 3e 3e 2c 7d 40 3e c0 9a 42 3e 3c 7e 44 3e
       0.18568605 0.1879775 0.19004345 0.1918878
000130 51 29 46 3e 60 9e 47 3e 42 e0 48 3e 2b f2 49 3e
       0.19351698 0.19494009 0.19616798 0.19721286
000140 e0 d5 23 3e 43 18 22 3e 85 4e 20 3e 1a 80 1e 3e
       0.15999556 0.15829568 0.15654953 0.15478554
000150 d1 b2 1c 3e 40 eb 1a 3e a4 2c 19 3e 80 79 17 3e
       0.15302588 0.15128803 0.14958435 0.14792442
000160 66 d3 15 3e 8a 3b 14 3e a1 4f 2a 3e 67 da 28 3e
       0.14631423 0.14475837 0.16631939 0.16489564
000170 b9 5f 27 3e d5 e0 25 3e 1f 5f 24 3e fd db 22 3e
       0.16345109 0.16199048 0.16051911 0.15904231
000180 cb 58 21 3e e3 d6 1f 3e 76 57 1e 3e 8f db 1c 3e
       0.15756528 0.15609317 0.15463051 0.1531813

Linear_Trend.bias f4 [10]
000000 e0 d4 4e 3e c4 d6 7a 3c 50 b1 9d be 97 db 33 be
       0.20198393 0.015309993 -0.3079934 -0.17564236
000010 d0 52 2c bd 26 8c 04 3d ca 10 23 3e d2 7c 96 3e
       -0.042071164 0.03236022 0.15924373 0.29392105
000020 f5 0c 9f 3e b4 05 9a be
       0.31064573 -0.30082476

projection.weight f4 [7, 460]
000000 2a a2 fa bc 38 b9 53 bd 82 ab 42 bd 1a 0d 67 3d
       -0.030594904 -0.05169031 -0.047526844 0.05640898
000010 d2 e7 e6 bc 4d eb 13 bd 30 ce 0e bc 61 5c 7c 3d
       -0.028186712 -0.036113072 -0.008716151 0.061611537
000020 ab 65 04 3c b0 24 d9 3c 10 4c 67 3d 8d 26 ad 3d
       0.00808088 0.026506752 0.056469023 0.084546186
000030 c1 e8 94 bb 13 4a 00 3b 54 32 8f 3d 07 72 b7 3c
       -0.004544348 0.0019575402 0.06992021 0.02239324
000040 2a be 91 3d d0 f1 c5 3a 14 a2 15 3d 59 1b c9 bc
       0.07116349 0.0015101973 0.036531523 -0.024549173
000050 f7 72 8b bc 39 1e a2 3d 5b f7 14 3d 5e c8 5c 3d
       -0.017022593 0.07915921 0.03636871 0.053902023
000060 2b 67 92 3d 3a 96 92 3d 6f ab 28 bd 6c 01 2e bc
       0.07148584 0.0715756 -0.041179117 -0.010620456
000070 b0 6d dc 3c 82 a0 92 3d c8 62 e3 3a f1 01 a4 bc
       0.026907772 0.07159521 0.0017348165 -0.020020457
000080 49 9b 8c bc a2 7b 5e bd 17 d8 1e bd a1 16 91 bd
       -0.01716389 -0.054317124 -0.038780298 -0.07084394
000090 7d 2d 8a 3d 97 43 2a bc d5 62 65 bd 54 5e 44 bd
       0.067469575 -0.010392091 -0.056002457 -0.04794152
0000a0 89 8c 51 bd 85 c2 93 3d c6 8f df bc 9f 2c c4 3c
       -0.051159415 0.07214836 -0.027290236 0.023947058
0000b0 54 b0 38 bd c0 8c 67 bd 57 15 6c bd ba 10 7c bd
       -0.045090035 -0.056530714 -0.05763754 -0.06153939
0000c0 18 92 cd bc 36 0c 46 3d 35 5d a9 bd b8 5a 8d bd
       -0.025094077 0.04835149 -0.08269731 -0.06902069
0000d0 23 7b fe bc 08 ca bf 3d 70 4d e5 bc 53 96 a9 bc
       -0.031064576 0.09364706 -0.027991027 -0.020701563
0000e0 01 66 62 3d fa b6 a8 3d 69 a6 9b bc 53 4c 27 bd
       0.05527306 0.08238025 -0.019000249 -0.040844273
0000f0 cd f3 97 3c d3 f3 a6 bc 6a cd 7a 3c 33 20 f8 bc
       0.01854887 -0.020379936 0.015307764 -0.030288791
000100 52 38 83 bd d4 cd 32 bd 17 5e dc 3b fb 2d 0d 3d
       -0.064072266 -0.043653324 0.0067250836 0.03446768
000110 b9 b2 64 3b 29 b1 32 3c ea a8 8f bc 11 6c 8f bd
       0.0034896566 0.010906496 -0.0175366 -0.07003034
000120 c9 6a 32 bb 25 9f 9a 3d 00 ce 80 3d e0 c6 1c 3d
       -0.0027224293 0.07549886 0.062892914 0.0382756
000130 3f b9 b4 3a b4 03 89 3c aa 71 28 3b a1 a2 c9 bd
       0.0013788118 0.016725399 0.0025702515 -0.09845472
000140 91 75 0e bd 93 1f 0f bd 7e 0e 93 3d 33 8f c8 bc
       -0.03478009 -0.03494222 0.071804985 -0.024482345
000150 eb 6f 74 bd 2c 30 81 bd 69 70 37 bd 17 3c a8 3c
       -0.059677046 -0.06308016 -0.044784937 0.020536466
000160 6b e3 26 3d 3c b5 8a bd 2a 9a ec bc 57 93 2b 3c
       0.040744226 -0.06772849 -0.028882105 0.01047214
000170 f1 d4 30 bd ef 98 04 bd f8 c9 65 bc 63 dd 47 bc
       -0.043171827 -0.03237241 -0.014025204 -0.012198779
000180 60 14 80 bd ef 7e 01 bd 95 4c e3 3b 06 9e 2c 3d
       -0.06253886 -0.031615194 0.0069366195 0.04214289
000190 7a de fa 3c 7b 8d 15 3d 7e fb 96 3c da 25 a0 3c
       0.030623663 0.03651188 0.018430468 0.019549299
0001a0 80 d0 84 3c 43 04 23 3d 1c ec 60 3c 01 7f a8 3d
       0.016212702 0.039798986 0.013728168 0.08227349
0001b0 ed 79 e4 3a 04 a0 8a bd 20 0d 87 3c b5 47 cf 3c
       0.0017431356 -0.06768802 0.01648575 0.025302747
0001c0 56 80 2e bc 76 f0 af 3c 5e 8b 7d bc e7 30 ae 3c
       -0.010650715 0.021476965 -0.015475122 0.021263553
0001d0 9d fa 53 3d a3 76 82 3c 73 b4 68 bd 33 82 42 bc
       0.051752675 0.015925711 -0.056812715 -0.011871862
0001e0 f4 4c 9a 3d 75 94 bb 3c 78 93 99 bb 34 d0 c5 3c
       0.07534209 0.022897938 -0.004686769 0.02414713
0001f0 c2 3d 48 3d bb 65 93 bd f1 54 31 bd ba 3c 2c bd
       0.04888702 -0.07197138 -0.043293897 -0.0420501
000200 8f de 3d 3d 2d d5 90 bc e2 c3 86 3c 7d 51 93 bd
       0.046354827 -0.017679775 0.016450826 -0.07193277
000210 7d eb 9c 3c be ad e8 3c fb e0 3a 3d a3 ce 29 bc
       0.019155258 0.02840316 0.045624714 -0.010364207
000220 22 52 cc bc 7a 30 14 bd 34 33 b1 bd e5 cf bb bd
       -0.024941508 -0.036179043 -0.08652344 -0.09170512
000230 86 b5 37 bd 3c e9 65 3d 11 9b a9 bd 51 70 8a bd
       -0.04485085 0.056130633 -0.0828153 -0.06759704
000240 44 57 2f bd 75 2e 7f 3d a7 4a a9 bb 25 f3 2b 3d
       -0.042807832 0.062300164 -0.00516637 0.041979928
000250 d4 e3 1b 3d 41 7f 9f 3d 82 e9 6c 3a 4f ec c4 bc
       0.03805907 0.07787944 0.0009037481 -0.024038462
000260 af 2b 46 3b 3c 53 01 3c 9b 11 03 3d 50 64 f2 bc
       0.003023844 0.00789338 0.03199921 -0.029588848
000270 a5 44 d2 bd 2f 90 a7 bd 2a 45 ad 3c 90 03 36 bc
       -0.10266999 -0.08181798 0.021151144 -0.011109248
000280 ce fe 88 3c 20 36 79 bd 27 5f c0 bb ea 33 1a bd
       0.016723063 -0.060842633 -0.005870718 -0.037647165
000290 d0 e2 3b bd a4 36 14 3d f5 43 2c 3d 9e 28 02 3d
       -0.045870602 0.03618492 0.042056996 0.031777017
0002a0 05 f9 40 3d 55 38 8d bc 0c 0e 34 3d ce 4e d6 bd
       0.047112484 -0.017238775 0.04395871 -0.104642496
0002b0 28 84 72 bd 7b 63 31 bc 5f 5d 7c 3d 69 18 89 3c
       -0.059208065 -0.010826941 0.061612483 0.016735272
0002c0 ac 22 0e bd 0f bf 68 bc ce 34 0a bd e4 2e 23 3d
       -0.034701034 -0.014205708 -0.033741765 0.03983964
0002d0 34 ce 18 bc 25 4d 02 bd 88 e2 8a bd 85 27 86 3a
       -0.009326506 -0.031811852 -0.06781489 0.0010235166
0002e0 02 24 81 bd 8a 60 a5 bd 03 1a a0 bd f2 90 3d 3d
       -0.06305696 -0.08075054 -0.07817461 0.04628081
0002f0 1f 17 ac bd df 42 62 bc 9b 6f 82 bd 05 70 81 3d
       -0.084028475 -0.013809889 -0.06368943 0.06320194
000300 4b 44 17 3d 3f ec 42 3d 60 93 09 bb b8 b5 a5 3d
       0.036930364 0.047588583 -0.0020992383 0.08091301
000310 46 c3 b5 bc 88 91 c6 3c b5 92 ad 3d c9 ee 3f 3d
       -0.02218784 0.024239317 0.08475248 0.046858583
000320 33 5f 57 3d 33 20 b6 bc 06 60 82 bd 7d bb 0d 3b
       0.052581023 -0.02223215 -0.06365971 0.0021626644
000330 e2 b1 e2 bc ff 62 79 3d 24 51 07 3d 32 85 58 3d
       -0.027672712 0.060885426 0.033036366 0.0528614
000340 46 72 46 3b 32 67 85 3d 2c a5 50 bd 7e 4c a6 3c
       0.0030280515 0.065138236 -0.05093877 0.020300146
000350 84 75 48 3c 9c 06 77 3c 68 5c 14 3d 38 c8 bc bb
       0.012235049 0.015077259 0.036220938 -0.0057611726
000360 fd bf 9c bb 8c fb 0e bd a3 aa a8 bd 4a b0 78 bd
       -0.004783629 -0.034907863 -0.08235671 -0.060714997
000370 f0 98 d4 3d 43 a6 f1 3c 8c a0 06 bd 4e 6d 47 bd
       0.10380733 0.029498225 -0.032867953 -0.048688225
000380 f8 1f 0c 3c b3 15 a3 3d a6 5b 3b 3d 11 3a c3 3c
       0.008552544 0.07963123 0.0457417 0.0238314
000390 85 8c 58 bd f9 92 32 bc bc 45 bf bc fc 5c 9c bc
       -0.052868385 -0.010899299 -0.023348682 -0.019087307
0003a0 55 20 7b bd cb dc 1d 3d 9f d9 89 bc 2e c4 68 bd
       -0.06131013 0.038540643 -0.016827403 -0.056827717
0003b0 60 b1 b1 bb 7d f9 cd 3d a2 1c 08 bd c7 f0 56 ba
       -0.005422756 0.10057352 -0.03323043 -0.0008199331
0003c0 ba 33 4f 3d d6 3d c6 3d 6d f0 76 bd 2f 6f 3a bd
       0.05058644 0.09679763 -0.06028788 -0.04551619
0003d0 51 dd 6a 3d 58 eb 1a 3d 2f fa 80 3d e8 c8 18 bc
       0.05733997 0.037822098 0.06297719 -0.0093252435
0003e0 ea 24 3d bb 54 2d 84 3d 93 65 b7 bb 85 df 89 3d
       -0.0028861114 0.06453958 -0.0055968254 0.06732086
0003f0 c3 c2 5a 3d db fd 49 3d 48 7f fb 3d 22 34 bc 3d
       0.053408395 0.04931436 0.12280136 0.09189631

projection.bias f4 [7]
000000 3b 0d b6 3c 43 d0 00 bd 25 62 7f 3c 86 38 f6 bc
       0.022223106 -0.031448614 0.015587364 -0.03005625
000010 12 59 3c bd d9 97 40 bd 0b 3e a2 3c
       -0.04598338 -0.047019813 0.019804975
