result/Dliner/classification_CropMapping_t30uxv_4in4Period_0.02train_DLinear/checkpoint.pth (torch, 15191 bytes, 6 tensors)

Linear_Seasonal.weight f4 [10, 10]
0	0x3dcba0cc	0.09942779
1	0x3df58bd3	0.1198956
2	0x3dc0d26e	0.09415136
3	0x3e06f9d1	0.13181235
4	0x3e097bfa	0.134262
5	0x3e0d06ca	0.13772121
6	0x3e0a3d87	0.13500033
7	0x3e0a4739	0.13503732
8	0x3d883a64	0.06651762
9	0x3d7a2327	0.06106868
10	0x3de6d075	0.11270229
11	0x3df20faa	0.11819394
12	0x3dbab915	0.09117333
13	0x3dfc2094	0.12310901
14	0x3df59da6	0.1199296
15	0x3df1afd2	0.11801113
16	0x3dfb1fb6	0.12261908
17	0x3df6361e	0.12022041
18	0x3d96626f	0.073429935
19	0x3d882aac	0.06648764
20	0x3d832db3	0.06405201
21	0x3d882be1	0.06648994
22	0x3d7975c1	0.060903315
23	0x3d991e36	0.074764654
24	0x3e0b7b93	0.13621359
25	0x3e0ab1db	0.13544409
26	0x3e0ad5c3	0.13558106
27	0x3e0a504b	0.13507192
28	0x3df15f8a	0.11785801
29	0x3d94c800	0.072647095
30	0x3d7ca319	0.06167898
31	0x3d8aad71	0.067713626
32	0x3d7e0d5e	0.062024467
33	0x3dbd8cbc	0.092553586
34	0x3e0c8ded	0.13726015
35	0x3e0bc588	0.13649571
36	0x3e0c0788	0.13674748
37	0x3e0ba2dc	0.13636345
38	0x3dce3f22	0.100706354
39	0x3d887d37	0.06664508
40	0x3d7b41f1	0.061342184
41	0x3d8b99bf	0.06816434
42	0x3d7038a0	0.05864775
43	0x3d903f22	0.07043292
44	0x3e08aa7f	0.13346289
45	0x3e0c81ad	0.13721342
46	0x3e0cb1f8	0.13739765
47	0x3e0be656	0.13662085
48	0x3df324a1	0.11872221
49	0x3d95642c	0.07294497
50	0x3d8acd47	0.06777435
51	0x3d900ed9	0.07034082
52	0x3d867da5	0.065669335
53	0x3da0ed23	0.0785773
54	0x3e06a943	0.13150506
55	0x3e05bf9a	0.13061371
56	0x3e017b3b	0.12644665
57	0x3e044dd5	0.12920316
58	0x3e0834f2	0.13301447
59	0x3dad5877	0.08464139
60	0x3da8a3ea	0.08234389
61	0x3defbee5	0.11706332
62	0x3d93b459	0.07212133
63	0x3df02ebd	0.117276646
64	0x3e0daf5c	0.13836426
65	0x3e0ba27a	0.13636199
66	0x3e0aca4e	0.13553736
67	0x3e087d51	0.13329054
68	0x3d82a3c8	0.06378895
69	0x3d74aad7	0.059733238
70	0x3d88e38c	0.06684026
71	0x3db10a18	0.08644503
72	0x3dd74773	0.10511675
73	0x3e078f66	0.13238296
74	0x3e003888	0.12521565
75	0x3df3012b	0.11865457
76	0x3df0cf52	0.11758293
77	0x3def7050	0.11691344
78	0x3da77f39	0.08178563
79	0x3dc213b7	0.094764166
80	0x3da69999	0.08134765
81	0x3da8ae35	0.08236352
82	0x3d8abeda	0.06774683
83	0x3d91fcd8	0.07128304
84	0x3df0b462	0.11753155
85	0x3dedce38	0.11611599
86	0x3dee5131	0.1163658
87	0x3de86d64	0.113489896
88	0x3dd198b5	0.10234205
89	0x3dc40316	0.09570901
90	0x3d7ecf62	0.062209494
91	0x3d8cadb9	0.068690725
92	0x3d7e26d2	0.06204874
93	0x3d951f75	0.072813906
94	0x3e0ef906	0.13962182
95	0x3e0c6453	0.13710146
96	0x3e0bb0b2	0.13641623
97	0x3e0c2794	0.13686973
98	0x3df15b01	0.11784936
99	0x3d98d564	0.07462576

Linear_Seasonal.bias f4 [10]
0	0x3e89cc8f	0.26913878
1	0x3d00d79f	0.031455632
2	0xbe89e31a	-0.26931077
3	0x3e76a516	0.24086413
4	0x3e28d498	0.16487348
5	0xbe29f23c	-0.16596311
6	0x3d29a0a8	0.04141298
7	0x3e7cf0a5	0.24701174
8	0x3e6dba51	0.23215605
9	0x3df104fe	0.1176853

Linear_Trend.weight f4 [10, 10]
0	0x3df16a58	0.117878616
1	0x3ded9604	0.11600879
2	0x3de9887a	0.11402984
3	0x3de5439e	0.111945376
4	0x3de0ccdc	0.10976574
5	0x3ddc2d46	0.10750823
6	0x3dd77146	0.10519652
7	0x3dd2a810	0.10285962
8	0x3dcde249	0.10052926
9	0x3dc930c5	0.09823755
10	0x3e0695ea	0.13143125
11	0x3e045b97	0.12925564
12	0x3e017e59	0.12645854
13	0x3dfb77ed	0.122787334
14	0x3df40d66	0.11916618
15	0x3de90217	0.11377352
16	0x3de24591	0.11048425
17	0x3ddbd699	0.10734291
18	0x3dd5d355	0.10440699
19	0x3dd04e5d	0.101711966
20	0x3e0c5f50	0.13708234
21	0x3e0c6f4d	0.13714333
22	0x3e0c75d7	0.13716827
23	0x3e0c72ab	0.13715617
24	0x3e0c65ae	0.13710663
25	0x3e0c4ec5	0.13701923
26	0x3e0c2df7	0.13689409
27	0x3e0c0345	0.13673122
28	0x3e0bced7	0.13653122
29	0x3e0b90da	0.13629475
30	0x3e0e9ec5	0.13927753
31	0x3e0eac00	0.139328
32	0x3e0eb167	0.13934861
33	0x3e0eae30	0.13933635
34	0x3e0ea182	0.13928798
35	0x3e0e8a82	0.13920024
36	0x3e0e6829	0.13906921
37	0x3e0e3968	0.13889086
38	0x3e0dfd3c	0.13866132
39	0x3e0db27a	0.13837615
40	0x3deeb9d5	0.116565384
41	0x3def88fd	0.1169605
42	0x3df04756	0.11732356
43	0x3df0f435	0.11765329
44	0x3df18f13	0.11794867
45	0x3df217c8	0.11820942
46	0x3df28e8e	0.118435964
47	0x3df2f3a9	0.11862881
48	0x3df347c2	0.11878921
49	0x3df38ba4	0.11891869
50	0x3e0aedfe	0.1356735
51	0x3e0b5a95	0.13608773
52	0x3e0bb935	0.1364487
53	0x3e0c0719	0.13674583
54	0x3e0c403b	0.13696377
55	0x3e0c5f04	0.1370812
56	0x3e0c5c86	0.1370717
57	0x3e0c332f	0.136914
58	0x3e0be534	0.13661653
59	0x3e0b813f	0.13623522
60	0x3e033dcb	0.12816541
61	0x3e01b569	0.12666859
62	0x3dfff1d3	0.12497296
63	0x3dfc052f	0.12305676
64	0x3df79d64	0.12090567
65	0x3df2b87c	0.11851594
66	0x3ded5c5c	0.11589882
67	0x3de797d4	0.11308256
68	0x3de182b1	0.110112555
69	0x3ddb3c3c	0.10704848
70	0x3db3e721	0.08784319
71	0x3db4ae3a	0.088222936
72	0x3db59954	0.08867136
73	0x3db6a9c5	0.089191
74	0x3db7df02	0.08978082
75	0x3db935d7	0.09043472
76	0x3dbaa8b9	0.091142125
77	0x3dc048a8	0.09388858
78	0x3dc1dc04	0.09465793
79	0x3dc37306	0.09543423
80	0x3e0d2582	0.1378384
81	0x3e0d0236	0.13770375
82	0x3e0cdd7f	0.13756369
83	0x3e0cb7a4	0.13741928
84	0x3e0c90cd	0.13727112
85	0x3e0c6924	0.13711983
86	0x3e0c40d3	0.13696603
87	0x3e0c1804	0.13681036
88	0x3e0beec0	0.13665295
89	0x3e0bc548	0.13649476
90	0x3e0d860c	0.13820666
91	0x3e0d36ac	0.13790387
92	0x3e0cdf2d	0.1375701
93	0x3e0c8061	0.13720848
94	0x3e0c1b0a	0.1368219
95	0x3e0bafed	0.13641329
96	0x3e0b3fd1	0.13598563
97	0x3e0acb71	0.13554169
98	0x3e0a538b	0.13508432
99	0x3e09d8cd	0.13461609

Linear_Trend.bias f4 [10]
0	0x3e6e8bd0	0.23295522
1	0x3cc62711	0.02418855
2	0xbe9d4562	-0.30716997
3	0xbe5ba6bd	-0.21450324
4	0xbcc09edf	-0.023513256
5	0x3d15b85e	0.03655278
6	0x3e1e7830	0.15475535
7	0x3e9b197d	0.30292884
8	0x3e8d5119	0.27600935
9	0xbe95e800	-0.29278564

projection.weight f4 [7, 430]
0	0x3d6c1b94	0.057643488
1	0x3bdef79c	0.0068044197
2	0x3c905dd6	0.01762287
3	0x3c9ffbde	0.01952928
4	0xbc1ec819	-0.009691262
5	0xbcbcbdee	-0.023039784
6	0x3cfbc61d	0.030734116
7	0xbcf21562	-0.029551212
8	0xbc827316	-0.015924018
9	0xbcc845db	-0.024447372
10	0x3c85c265	0.016328046
11	0x3cc4ddbc	0.024031512
12	0xbaa90c2f	-0.0012897308
13	0x3cb0050f	0.021486787
14	0x3d10af21	0.035323266
15	0x3c53d108	0.012928255
16	0x3d6122e6	0.054964922
17	0x3d128844	0.035774484
18	0x3cfd49cd	0.03091898
19	0xbd4c9c6a	-0.049953856
20	0xbca438ed	-0.020046676
21	0x3d8624a1	0.06549955
22	0x3cf6bca0	0.03011924
23	0x3a424248	0.00074103894
24	0x3ccb6018	0.024826095
25	0x3d2d2e7e	0.042280667
26	0xbd271bcb	-0.04079799
27	0xbc842ece	-0.0161356
28	0xbd174307	-0.036929157
29	0x3c4bf4fa	0.012448544
30	0xbd64ad0a	-0.055829085
31	0xbcd362e6	-0.025803994
32	0xbd43acc3	-0.04777218
33	0xbc2907be	-0.010316787
34	0x3c141ec0	0.0090405345
35	0xbc6a201d	-0.014289883
36	0x3d29f3df	0.04149234
37	0x3ca89e4c	0.020583294
38	0xbc6988dd	-0.014253822
39	0x3c8b08c0	0.016971946
40	0xbd962e10	-0.073330045
41	0x3da1ee23	0.07906749
42	0xbc5638be	-0.013075052
43	0x3d3dec8e	0.046368174
44	0xbd0800a8	-0.03320375
45	0xbd1ada30	-0.037805736
46	0xbba59983	-0.0050537004
47	0xbb05c686	-0.0020412519
48	0x3cee0655	0.029055754
49	0x3d1428ea	0.03617183
50	0xbd4717d2	-0.0486067
51	0xbd22be4e	-0.03973227
52	0xbca04f66	-0.01956911
53	0x3badd477	0.005304869
54	0xbd450a64	-0.048105612
55	0xbd6dc6e6	-0.058051012
56	0x3cc2d6df	0.0237841
57	0x3d6b66ec	0.0574712
58	0x3d0d7d95	0.034543592
59	0xbc451e84	-0.012031201
60	0xbd21359b	-0.039357763
61	0xbd92d78a	-0.07170017
62	0xbd34b12c	-0.044114277
63	0xbc111048	-0.008853979
64	0x3bcf32fd	0.006323217
65	0x3993ccb8	0.00028190552
66	0xbcb962c5	-0.022630105
67	0x3cb150e9	0.021645026
68	0x3bc5c93d	0.0060359524
69	0x3b536e2a	0.0032261708
70	0x3d16b595	0.036794264
71	0xbd996ca1	-0.074914224
72	0x3a58b349	0.00082664617
73	0x3c643d99	0.013930702
74	0x3cc455d0	0.0239667
75	0xbcae6ff3	-0.021293616
76	0xbd2113af	-0.039325412
77	0x3b58b3f9	0.0033066256
78	0xbd6aa2b5	-0.057284076
79	0xbc157173	-0.009121287
80	0x3cbe3358	0.023217842
81	0x3d2d2704	0.042273536
82	0x3d0f8dc0	0.035047293
83	0xbd22e8f2	-0.039772935
84	0x3c88afa0	0.016685307
85	0x3c5a6db1	0.0133318165
86	0xbd37c289	-0.044863258
87	0xbd09125a	-0.033464767
88	0x39f0a179	0.00045896674
89	0xbd90b1ba	-0.07065149
90	0xbd08a5f5	-0.033361394
91	0x3c915018	0.017738387
92	0xbcaed3a5	-0.021341154
93	0xbcd7b94c	-0.026333474
94	0xbc4a7b2c	-0.012358468
95	0xbd38f8e2	-0.04515923
96	0xbd987dcf	-0.07445871
97	0xbd3d40c9	-0.046204362
98	0x3c44b421	0.012005837
99	0xbd2bd125	-0.041947503
100	0x3d117e52	0.03552086
101	0x3cd4dbeb	0.025983771
102	0x3a304eac	0.000672559
103	0xbd4c6ff7	-0.049911465
104	0x3bd18d11	0.0063949903
105	0x3c8bf9de	0.01708692
106	0xbd9c3b4b	-0.07628497
107	0x3c7dbbc7	0.015486664
108	0xbd8da239	-0.06915707
109	0xbd8b2f8a	-0.06796177
110	0x3b45831c	0.0030137962
111	0xbaa23dcb	-0.0012378035
112	0xbd3a244a	-0.045444764
113	0xbc850003	-0.016235357
114	0xbd40f313	-0.047106814
115	0xbce2c97e	-0.02768397
116	0xbc818715	-0.015811482
117	0xbd0326b6	-0.03201934
118	0xbd80206b	-0.06256183
119	0xbd924930	-0.07142866
120	0x3c162404	0.00916386
121	0xbd711094	-0.0588537
122	0xbd4ba8f4	-0.049721673
123	0xbad945ac	-0.001657655
124	0x3cace6b6	0.021106105
125	0xbd1af8dc	-0.037834987
126	0xbd1e763f	-0.038686987
127	0x3c255d25	0.010093008
128	0xbc845b16	-0.016156714
129	0x3ca3d4f9	0.019999014
130	0x3ce135a0	0.02749139
131	0xbd55cf67	-0.052199747
132	0xbbe93fda	-0.0071182074
133	0xbc98119d	-0.018563086
134	0x3cafa685	0.021441707
135	0xbc43088f	-0.011903896
136	0xbd4349ef	-0.04767793
137	0xbd2e3d95	-0.042539198
138	0xbd156fe3	-0.036483657
139	0xbd30747b	-0.043079834
140	0xbbea31c7	-0.007147047
141	0x3c80c0f4	0.015717007
142	0xbcd2a37d	-0.025712723
143	0x3b5c53e8	0.0033619348
144	0x3cf9bd27	0.030485703
145	0x3ce3ee6e	0.027823653
146	0xbc059883	-0.008154037
147	0x3bc883da	0.0061192336
148	0xbcaaad89	-0.020834701
149	0x3c305842	0.01076323
150	0x3cf2469c	0.029574685
151	0xbd26237a	-0.040561177
152	0xbda16223	-0.07880046
153	0xbd0efae3	-0.034907233
154	0xbc846d0f	-0.016165284
155	0xbc61aeac	-0.013774555
156	0xbcc77aee	-0.02435061
157	0xbd721f61	-0.059111957
158	0xbaea3f2a	-0.0017871608
159	0xbd39adf1	-0.0453319
160	0x3cde722e	0.027154054
161	0xbd596f59	-0.053084705
162	0xbb9088de	-0.004410847
163	0xbcf39b93	-0.02973727
164	0xbd2b8b95	-0.041881163
165	0x3ce54bce	0.027990248
166	0x3c6de777	0.014520518
167	0x3c0a6d06	0.008448845
168	0x3d7afaa8	0.0612742
169	0xbd2fe5e1	-0.04294384
170	0x3d29fba1	0.041499738
171	0xbc525cb4	-0.012839485
172	0x3c8dc873	0.017307496
173	0x3d28d6be	0.04122042
174	0xb99b737b	-0.00029649943
175	0xbb70354f	-0.0036652868
176	0xbc721ac4	-0.014776889
177	0x3cc2d5c2	0.023783568
178	0xbd0bade7	-0.034101393
179	0xbc95e418	-0.01829724
180	0xbd6ab4cc	-0.057301328
181	0xbd100011	-0.035156313
182	0xbd9846f0	-0.07435405
183	0x3bd0ac64	0.006368207
184	0xbc6453a7	-0.01393596
185	0xbc121a15	-0.008917351
186	0xbbb53cb5	-0.0055309185
187	0x3d95d222	0.0731547
188	0xbbf0a5af	-0.00734397
189	0x3cd50dca	0.026007552
190	0xbd45466d	-0.048162866
191	0xbcf44545	-0.029818187
192	0x3cb91913	0.022594964
193	0x3d4398f8	0.047753304
194	0xbd5c72b9	-0.053820346
195	0xbab6cd38	-0.0013946658
196	0xbc98933e	-0.018624898
197	0x3c6d00f6	0.014465561
198	0xbb502999	-0.0031763075
199	0x3cbcfd2e	0.023069944
200	0xbd08e84a	-0.033424653
201	0xbaadc5bc	-0.0013257782
202	0xbd8c75e2	-0.06858422
203	0x3cd0f238	0.025506124
204	0xbd20370b	-0.039114993
205	0xbc3ef458	-0.011654936
206	0x3cb6888c	0.022281907
207	0x3c88ace1	0.016683998
208	0xbb2ba0ed	-0.0026188449
209	0x3d576001	0.05258179
210	0xbb9bf206	-0.004759076
211	0x3c2ea0ed	0.010658485
212	0xbd6d1d6d	-0.05788939
213	0xbc2b0b7c	-0.01043975
214	0x3d07620f	0.0330525
215	0x3bccd58c	0.0062510427
216	0xbd825bc6	-0.06365161
217	0x3c3d4b71	0.011553631
218	0xbd7e9b47	-0.062159803
219	0xbc9f54ce	-0.019449618
220	0x3cc97275	0.02459071
221	0x3d0c0c98	0.034191698
222	0xbc9f1e9c	-0.019423775
223	0xbccaca68	-0.024754718
224	0xbc809e15	-0.01570038
225	0x3c5963e1	0.013268442
226	0xbc0d087a	-0.008607978
227	0x3ba71071	0.0050983955
228	0xbd4802c2	-0.048830755
229	0x3cfad25b	0.030617883
230	0x3d75d5fc	0.060018525
231	0x3d4a973f	0.049460646
232	0xbd225a92	-0.039637156
233	0x3bbd2bb8	0.005773034
234	0xbcec7038	-0.028862104
235	0xbd9a8866	-0.07545547
236	0x3ca94ffc	0.020668022
237	0x3c655d49	0.013999292
238	0xbd799515	-0.06093319
239	0xbd5695c3	-0.052388918
240	0x3be54f20	0.006997958
241	0xb93f78a1	-0.00018260117
242	0xbcbb01aa	-0.022827942
243	0xbda612d1	-0.08109058
244	0xbd303d7a	-0.04302738
245	0xbd8e31a2	-0.069430605
246	0xbcbe5781	-0.023235084
247	0x3c148901	0.009065867
248	0xbd5e5821	-0.054283265
249	0x3c5ae935	0.013361265
250	0xbd2c237b	-0.042026024
251	0xba7a45c4	-0.0009547139
252	0x3d1dd362	0.03853167
253	0x3c274d5a	0.010211313
254	0x3d6ff6eb	0.05858509
255	0xbc6eff51	-0.014587239

projection.bias f4 [7]
0	0x3c733828	0.014844932
1	0x3c756e6d	0.014979941
2	0x3d0eec44	0.03489329
3	0x3cfc6d92	0.030813966
4	0x3ca2516c	0.019814216
5	0xbc5f16a9	-0.013616242
6	0xbcd086bd	-0.025454873
