result/Dliner/classification_CropMapping_t31tfj_3in4Period_0.5train_DLinear/checkpoint.pth (torch, 12119 bytes, 6 tensors)

Linear_Seasonal.weight f4 [10, 10]
00000000: 1b67 a03d eda1 ba3d 25cf ef3d f7e5 6f3a
00000010: 1e29 903c 2f33 9a3c db55 f83b 376b 8e3c
00000020: 3239 bf3d 518f 583e 654d 0b3d 1d9d ab3a
00000030: f650 b23d 6924 153c 5699 3f3c 97a7 363c
00000040: eaaa 193c 614e 403c c146 6f3e e08d 5f3e
00000050: afea 84b9 469b 9cbc cda2 41bc 4947 863d
00000060: a539 0b3e 494e 073e d177 253e f40b 0e3e
00000070: c878 6c3e daf8 e73d 2b35 84bc 0924 32bc
00000080: 77ec c1bc 8cfe d73c 78e1 5a3e fea6 563e
00000090: 2024 5a3e 7d4a 593e bbe9 6b3e 5247 d93d
000000a0: 80cb d0bc dad5 f83b 0d4b 8ebd e034 193e
000000b0: 727b 713e 7ab1 783e f95c 7c3e 0d45 7d3e
000000c0: c3b5 493e 052f 913c a36d 06bd 21e9 41bd
000000d0: 2441 f7bb f2c5 dc3c 4479 0c3e 88fc 003e
000000e0: a9eb f93d 1f4d fa3d 9534 7b3e 0da7 173e
000000f0: 9224 f4bc 6dcf eabc c189 883d 17fd fb3d
00000100: 77b0 5d3d 4ba2 c93c 5520 9f3c 03b8 0f3d
00000110: 1c08 823e 3285 513e 6e49 e4bc 4099 99bb
00000120: 4d68 a1bc 33ea a73d 7d98 6c3e 4ae3 5f3e
00000130: 8152 5e3e 451f 563e 3b51 5f3e 62ae aa3d
00000140: a039 513d 5f50 5c3d e53c 073e 603b e23d
00000150: 6518 0bbb c281 c3bb 97fc 7fbc e2f8 81bb
00000160: 8146 7a3e e78d 4c3e 6ffe 5dbc d3c8 9fbc
00000170: 16cb 25bc dc10 e03c 909d fd3d d8ea e83d
00000180: 2e61 023e 86bf f83d 6a97 773e 66b1 543e
0.07832166 0.09112916 0.117094316 0.0009151394 0.017597731 0.018823234 0.007578594 0.017385108
0.09337081 0.21148421 0.034009356 0.0013093088 0.08706848 0.009102919 0.011694273 0.011148355
0.009379128 0.011737437 0.23366834 0.21831465 -0.00025351855 -0.019117009 -0.0118186 0.06556565
0.13596208 0.13213457 0.16158988 0.13871747 0.2309295 0.113267615 -0.016138634 -0.010872849
-0.023672326 0.026366495 0.21375072 0.2096214 0.21302843 0.21219821 0.2303838 0.106093064
-0.025487661 0.0075938525 -0.069479086 0.14961576 0.23582247 0.24286452 0.24644841 0.24733372
0.19698243 0.017722616 -0.0328194 -0.04734147 -0.007545607 0.026949856 0.13718134 0.12596333
0.12203152 0.12221741 0.24531777 0.14809819 -0.029802594 -0.028663361 0.066668995 0.123041324
0.054123368 0.02461352 0.019424597 0.035087597 0.25396812 0.20460966 -0.027867045 -0.0046874583
-0.019703055 0.08198967 0.23105045 0.21864048 0.2171116 0.20910366 0.2180833 0.08334042
0.051080346 0.053787585 0.13206823 0.11046481 -0.0021224257 -0.005966396 -0.015624187 -0.0039664367
0.24440958 0.19976006 -0.013549431 -0.01950494 -0.01011922 0.02735179 0.12383568 0.11372918
0.12732384 0.12145905 0.24178854 0.20770797

Linear_Seasonal.bias f4 [10]
00000000: 39a3 8d3e 3a51 373d 06f5 8abe 5ee8 8c3e
00000010: 50e1 243e f165 1fbe ed18 1e3d 1a8c 6f3e
00000020: b6a5 743e 3756 d93d
0.27663592 0.044755198 -0.27140063 0.27521032 0.16101575 -0.15566231 0.03859799 0.23393288
0.23891339 0.10612147

Linear_Trend.weight f4 [10, 10]
00000000: 6b0a 673e 8f08 693e ceac 6a3e f503 6c3e
00000010: 7b19 6d3e 44f7 6d3e 44a6 6e3e 922d 6f3e
00000020: da93 6f3e 97de 6f3e aaa6 573e 4016 593e
00000030: 4c54 5a3e 4c68 5b3e db58 5c3e 4a2b 5d3e
00000040: e0e3 5d3e 8286 5e3e 0016 5f3e 6f95 5f3e
00000050: 30bf 3d3e 5c8e 3d3e ee3c 3d3e fcd2 3c3e
00000060: 7d57 3c3e 9ecf 3b3e 913f 3b3e 5faa 3a3e
00000070: db12 3a3e 8e7a 393e 575e 433e e8af 443e
00000080: 79bb 453e 258d 463e 0a2f 473e f0a9 473e
00000090: b204 483e 8d45 483e 3e71 483e b98b 483e
000000a0: 374f 463e e4cb 443e 602d 433e 7c7a 413e
000000b0: 37b9 3f3e 68ef 3d3e a921 3c3e 2a54 3a3e
000000c0: 128a 383e 29c6 363e 2771 4e3e 8a64 503e
000000d0: c2fa 513e b340 533e 0542 543e 1d09 553e
000000e0: 629f 553e fa0c 563e df58 563e a888 563e
000000f0: 9e84 6f3e e9ba 723e 4939 753e 491c 773e
00000100: f17e 783e 8678 793e 471d 7a3e 857e 7a3e
00000110: 3eaa 7a3e 04ac 7a3e db6b 363e 8612 383e
00000120: 4069 393e 397a 3a3e ef4e 3b3e 36f0 3b3e
00000130: ea65 3c3e 70b7 3c3e 7eea 3c3e d804 3d3e
00000140: 8c72 6c3e 89e6 6c3e ba9f 6c3e 5fdb 6b3e
00000150: b6c7 6a3e 9e85 693e 432c 683e f7ca 663e
00000160: d86b 653e 0115 643e 3db6 613e 9976 633e
00000170: 7ed9 643e 41f5 653e 44db 663e 589a 673e
00000180: 223e 683e 63cf 683e 0c54 693e 9bce 693e
0.22562568 0.22757171 0.22917482 0.23048384 0.23154251 0.23238856 0.23305613 0.23357227
0.23396245 0.23424755 0.21059671 0.21199894 0.21321219 0.21426505 0.2151827 0.21598545
0.21668959 0.21730998 0.21785736 0.21834348 0.18529963 0.18511337 0.18480274 0.18439859
0.18392749 0.18340918 0.18285967 0.18229054 0.18171255 0.18113157 0.19078957 0.19207728
0.19309796 0.1938978 0.19451538 0.1949842 0.19533041 0.19557782 0.19574448 0.1958455
0.19366156 0.19218403 0.19060278 0.1889438 0.18722998 0.18548357 0.18372215 0.18196169
0.1802142 0.1784903 0.20160352 0.20350853 0.20505813 0.2063015 0.2072831 0.20804258
0.20861581 0.20903388 0.20932339 0.20950568 0.23390433 0.23704113 0.23947634 0.24131884
0.24267174 0.24362382 0.24425231 0.24462326 0.24479005 0.24479681 0.17814581 0.17975816
0.18106556 0.18210687 0.1829183 0.18353352 0.18398252 0.18429351 0.18448827 0.18458879
0.23090571 0.23134817 0.23107806 0.23032902 0.22927746 0.22804877 0.22673135 0.22538362
0.2240442 0.22273637 0.22042175 0.2221321 0.22348592 0.22456838 0.2254458 0.22617471
0.22679952 0.22735362 0.22785968 0.2283272

Linear_Trend.bias f4 [10]
00000000: 2a39 763e 208d 193d 4e57 9ebe 327b 38be
00000010: 7739 e0bc c4e9 3f3d 4196 1b3e 5267 943e
00000020: d1c6 903e 9bd3 9bbe
0.24045244 0.037488103 -0.30925983 -0.18015745 -0.027371151 0.046853796 0.15194036 0.28985077
0.28276685 -0.3043488

projection.weight f4 [5, 450]
00000000: 9b28 823b 8056 6a3d b52e 373d 4320 de3d
00000010: 6810 64bc 4c85 5f3d aa9f 6d3d 6999 b7bc
00000020: 1e71 6b3d d0a2 673c f87a 1fbd e29e 6ebc
00000030: 8824 383d 3605 253b 790b f43b 8d57 9e3c
00000040: befe 893d 6a96 4a3d 7892 343d 80ac 97bb
00000050: bd20 abbd b779 ef3c 009b 10bd 7b3f 273d
00000060: 4b0c 713d 4ed8 633d 271e d53c d7d4 32bd
00000070: 89ca 14bd 66e7 d73c d3e3 8a3c db6c 423c
00000080: 2b93 b7bc b89c 403d c7b9 863d b346 093d
00000090: 5159 6c3d 6b4f d73c 9366 083c 9f64 92bc
000000a0: 49a4 65bd 0391 08bc 4e86 b6bd 64c2 bcbd
000000b0: b83d 6a3b 1bd5 71bd bbf6 df3d 7301 9d3d
000000c0: c2a0 fa3d 1d69 2f3c 8486 893d ddac b33c
000000d0: 949a 9fbc b76f 623d 451f 2ebd 8a71 eebd
000000e0: e7ff 24bd 9ea6 893d b45c 42bd 9c83 92bd
000000f0: 8b2f 66bb 9830 bcbb 846a ffbc a04f 38bc
00000100: fc3f 9cbb 7b77 94bd 993b b0bc de27 80bd
00000110: fe7c 03bb f1dc 833c 3e73 f9bb 8cb7 11bc
00000120: c882 1b3b c6ef cabc 2875 083c af36 003d
00000130: 179a 0c3d 9ced 0a3c ae92 ac3b 8dae 133d
00000140: ad06 a13d b88a 793d e7af 263d 1900 1b3d
00000150: 71ec 3abd 8724 1dbd e957 efbd 4e7c a0bd
00000160: e507 cabd 85ec 05bd 6cc6 2fbd ca90 403d
00000170: c3f3 cdbc 8b03 58bc 095a f2bc 0978 6f3b
00000180: 6c02 39bd f4c9 47bd 4349 1f3d 364a 39bd
00000190: e4e9 9bbc 8e49 c0bc cece 913c 5624 84bd
000001a0: 88c6 993c d00c 393d 0cfa 12bd cb05 bd3c
000001b0: 194d 69bd 6b25 22bd a9c9 d9bc 3736 96bb
000001c0: 1a6b b2bd 4078 a9bd e586 85bd a4bf 69bd
000001d0: b3e9 74bc d7ef 1fbd c5f6 dcbd db7e a1bd
000001e0: d3b4 9f3c 2803 4cbd e5e9 80bd 4326 4dbc
000001f0: 0a55 5b3d 5735 d8bb d3ac 47bc d60e 17bd
00000200: 790b d83b b9e8 46bd 6b2c 243c b051 bfbd
00000210: ed1c 95bc fc31 aabd 702b 0f3c 3e69 4ebd
00000220: 2f80 8f3c 1ce6 e63a 7a3d 063c 1c9d 80bd
00000230: a3fd b73d c59f 903d d01a 60bd 1f6c 0d3c
00000240: 320d d4bc dd75 66bd 6999 2abd f0ab c23d
00000250: ae81 87bc 2eee 5c3d 434a 8f3d b5a0 4a3d
00000260: bdf1 c9bc 5865 a93b 0d9b 453d b013 02bd
00000270: d160 9dbd ffd8 fcbd 4e42 99bd 1e61 b4bd
00000280: 00c8 51bd 17a2 9bbd a7b4 2c3c a4d9 c5bd
00000290: 8220 31bd 4409 1c3d 0732 e73c 897b 17bd
000002a0: fc98 0b3d 1b50 cf3c 6320 4e3d 957b afba
000002b0: 2341 37bc bd72 ce3d 5dad 72bb 65a5 203d
000002c0: 93df e9bc cda9 8a3c cffd 4ebe d752 643c
000002d0: 7c0c 95bd 6423 213c fad8 31bd 7eda f63c
000002e0: 6e43 1bbd dc5a 5f3d e38d 5f3b 6503 893b
000002f0: a8e7 0cbc 7446 a93c 5af0 93bd 4a47 26bd
00000300: dd36 f23d f29f 483c b209 b0bb 6feb b13d
00000310: b6d8 9e3d 0353 843d 5df2 863d c0b7 8c3d
00000320: 883a 13bd 8bd7 5fbc 8f1f 0cbe c7e9 acbd
00000330: 4d8a f5bd 2b84 9abd 1bcf 09bc 43df bb3c
00000340: a55e e5bd 888c a33c b2ce 993a dada 0f3b
00000350: 1a86 d3bc 8256 4cbd 190a 183d 215c 7a3c
00000360: 7e50 c5bb 4237 fb3c 0221 fb3c 48bf 023c
00000370: d58d 813d 74f8 9d3c 29b0 a83b 3348 2ebe
00000380: fbff 773c e699 5d3b 448b 9b3d fc96 603d
00000390: 3684 2b3b 8048 e3bc 84ec ca3d daa3 583d
000003a0: 43b3 6ebd 0dd6 393d 11f7 cebc 26fc e1bd
000003b0: 7129 87bc 0205 843d bf29 82bd 6b2a 2bbd
000003c0: 37e2 573d 9c7f 9b3d 74a6 3cbd 50ed 53bd
000003d0: 1fae 1b3a cbca c9bd fc42 42bd 63ba 94bd
000003e0: aa74 c3bd f3e8 89bc 1aa7 b6bd dfd9 1abd
000003f0: 6da4 d13c f057 c3bd 17db 2c3b 152d 153d
0.0039721257 0.0572114 0.044722278 0.10845997 -0.013919927 0.05457048 0.058013596 -0.022412019
0.057480924 0.014137939 -0.03893563 -0.014564248 0.044956714 0.0025180108 0.0074476567 0.019328857
0.06738041 0.049459852 0.044084996 -0.004628718 -0.08355854 0.029232843 -0.03530407 0.040832024
0.058849614 0.055626206 0.026015354 -0.04366001 -0.036325965 0.026355457 0.016954338 0.0118667735
-0.022409042 0.04702446 0.06578403 0.03351469 0.057702366 0.026282987 0.008325237 -0.017870246
-0.056064878 -0.008335355 -0.08912335 -0.092167646 0.0035742354 -0.059041124 0.10935732 0.07666292
0.12237693 0.010706213 0.0671511 0.021933014 -0.019482888 0.05528232 -0.04251029 -0.116427496
-0.04028311 0.06721233 -0.04745169 -0.07154009 -0.0035123553 -0.0057430975 -0.03117872 -0.011249453
-0.0047683697 -0.072493516 -0.021512793 -0.06257604 -0.0020063515 0.016096564 -0.007612615 -0.008893859
0.0023729075 -0.024772536 0.0083287135 0.03130215 0.03432664 0.008479502 0.005266509 0.036055136
0.078626014 0.060923308 0.040695097 0.03784189 -0.045635644 -0.038364913 -0.116866894 -0.07836209
-0.09864787 -0.032696266 -0.04291384 0.04701308 -0.025140649 -0.013184438 -0.029583948 0.0036540052
-0.045168325 -0.048776582 0.038888227 -0.04523679 -0.019032426 -0.023472574 0.017798807 -0.06452243
0.018771425 0.045178235 -0.035882995 0.023074051 -0.05695829 -0.039586466 -0.026585417 -0.0045840996
-0.08711834 -0.08274889 -0.0651987 -0.05706753 -0.014948296 -0.03904709 -0.10789255 -0.07885524
0.019495403 -0.049807698 -0.06294612 -0.012521329 0.053547896 -0.0065981555 -0.012187201 -0.036879383
0.0065931645 -0.048561785 0.010020356 -0.093417525 -0.01820227 -0.08310315 0.008738384 -0.050393336
0.017517177 0.0017616185 0.008193368 -0.06279966 0.08983924 0.070617236 -0.05471307 0.008631735
-0.025885198 -0.056264747 -0.04165021 0.09505451 -0.016541328 0.053938083 0.06996586 0.04946967
-0.024651403 0.005169552 0.04824357 -0.031757057 -0.07684482 -0.12346076 -0.0748335 -0.08807586
-0.051216125 -0.075992756 0.010541118 -0.09660652 -0.043243892 0.038094774 0.028222097 -0.036983047
0.034081444 0.025306752 0.050323855 -0.0013388271 -0.011184963 0.10080478 -0.0037029602 0.039220233
-0.028548991 0.01692667 -0.20214008 0.013935766 -0.07277772 0.009835098 -0.043419816 0.030133482
-0.037906103 0.05453001 0.003411167 0.004181313 -0.008600153 0.020663477 -0.07223578 -0.04059533
0.118268706 0.012245165 -0.0053722495 0.086874835 0.07756178 0.06461146 0.06589196 0.06870985
-0.03594449 -0.013662229 -0.13683914 -0.08443027 -0.119892694 -0.0754474 -0.008411194 0.022933608
-0.11199693 0.019964471 0.0011734574 0.0021950514 -0.02582078 -0.049887188 0.037119005 0.015280754
-0.0060215583 0.030665997 0.030655388 0.007980175 0.063258804 0.01928351 0.005147953 -0.1701973
0.015136714 0.0033813654 0.07594922 0.05483149 0.0026171333 -0.027744532 0.09908393 0.052890636
-0.058276426 0.04537015 -0.025264295 -0.110344216 -0.016499253 0.06446268 -0.06355619 -0.0417885
0.05270597 0.07592699 -0.04605718 -0.05173999 0.0005938727 -0.09853133 -0.047427163 -0.07262113
-0.09543736 -0.016834712 -0.08918591 -0.037805434 0.0255911 -0.09538257 0.0026375705 0.036419947

projection.bias f4 [5]
00000000: 848e 703d 28b3 8abb d81d b53b 548d 35bd
00000010: 569b dbbc
0.058729663 -0.004232783 0.0055272393 -0.044324234 -0.026807468
